…
I1018 17:18:15.237499  2890 net.cpp:323] The NetState phase (0) differed from the phase (1) specified by a rule in layer accuracy
I1018 17:18:15.238426  2890 net.cpp:49] Initializing net from parameters: 
state {
  phase: TRAIN
}
layer {
  name: "data"
  type: "ImageData"
  top: "data"
  top: "label"
  include {
    phase: TRAIN
  }
  transform_param {
    mirror: true
    mean_value: 102
    mean_value: 102
    mean_value: 101
  }
  image_data_param {
    source: "/home/nikoong/Algorithm_test/attribute/external/exp/dataset/Market-1501/train.txt"
    batch_size: 45
    shuffle: true
    new_height: 144
    new_width: 56
  }
}
layer {
  name: "conv1"
  type: "Convolution"
  bottom: "data"
  top: "conv1"
  param {
    lr_mult: 1
    decay_mult: 1
  }
  param {
    lr_mult: 2
    decay_mult: 0
  }
  convolution_param {
    num_output: 32
    pad: 1
    kernel_size: 3
    stride: 1
    weight_filler {
      type: "xavier"
    }
    bias_filler {
      type: "constant"
      value: 0.2
    }
  }
}
layer {
  name: "conv1_bn"
  type: "BN"
  bottom: "conv1"
  top: "conv1_bn"
  param {
    lr_mult: 1
    decay_mult: 0
  }
  param {
    lr_mult: 1
    decay_mult: 0
  }
  bn_param {
    slope_filler {
      type: "constant"
      value: 1
    }
    bias_filler {
      type: "constant"
      value: 0
    }
  }
}
layer {
  name: "relu1"
  type: "ReLU"
  bottom: "conv1_bn"
  top: "conv1_bn"
}
layer {
  name: "conv2"
  type: "Convolution"
  bottom: "conv1_bn"
  top: "conv2"
  param {
    lr_mult: 1
    decay_mult: 1
  }
  param {
    lr_mult: 2
    decay_mult: 0
  }
  convolution_param {
    num_output: 32
    pad: 1
    kernel_size: 3
    stride: 1
    weight_filler {
      type: "xavier"
    }
    bias_filler {
      type: "constant"
      value: 0.2
    }
  }
}
layer {
  name: "conv2_bn"
  type: "BN"
  bottom: "conv2"
  top: "conv2_bn"
  param {
    lr_mult: 1
    decay_mult: 0
  }
  param {
    lr_mult: 1
    decay_mult: 0
  }
  bn_param {
    slope_filler {
      type: "constant"
      value: 1
    }
    bias_filler {
      type: "constant"
      value: 0
    }
  }
}
layer {
  name: "relu2"
  type: "ReLU"
  bottom: "conv2_bn"
  top: "conv2_bn"
}
layer {
  name: "conv3"
  type: "Convolution"
  bottom: "conv2_bn"
  top: "conv3"
  param {
    lr_mult: 1
    decay_mult: 1
  }
  param {
    lr_mult: 2
    decay_mult: 0
  }
  convolution_param {
    num_output: 32
    pad: 1
    kernel_size: 3
    stride: 1
    weight_filler {
      type: "xavier"
    }
    bias_filler {
      type: "constant"
      value: 0.2
    }
  }
}
layer {
  name: "conv3_bn"
  type: "BN"
  bottom: "conv3"
  top: "conv3_bn"
  param {
    lr_mult: 1
    decay_mult: 0
  }
  param {
    lr_mult: 1
    decay_mult: 0
  }
  bn_param {
    slope_filler {
      type: "constant"
      value: 1
    }
    bias_filler {
      type: "constant"
      value: 0
    }
  }
}
layer {
  name: "relu3"
  type: "ReLU"
  bottom: "conv3_bn"
  top: "conv3_bn"
}
layer {
  name: "pool1"
  type: "Pooling"
  bottom: "conv3_bn"
  top: "pool1"
  pooling_param {
    pool: MAX
    kernel_size: 2
    stride: 2
  }
}
layer {
  name: "inception_1a/1x1"
  type: "Convolution"
  bottom: "pool1"
  top: "inception_1a/1x1"
  param {
    lr_mult: 1
    decay_mult: 1
  }
  param {
    lr_mult: 2
    decay_mult: 0
  }
  convolution_param {
    num_output: 64
    kernel_size: 1
    weight_filler {
      type: "xavier"
    }
    bias_filler {
      type: "constant"
      value: 0.2
    }
  }
}
layer {
  name: "inception_1a/1x1_bn"
  type: "BN"
  bottom: "inception_1a/1x1"
  top: "inception_1a/1x1_bn"
  param {
    lr_mult: 1
    decay_mult: 0
  }
  param {
    lr_mult: 1
    decay_mult: 0
  }
  bn_param {
    slope_filler {
      type: "constant"
      value: 1
    }
    bias_filler {
      type: "constant"
      value: 0
    }
  }
}
layer {
  name: "inception_1a/relu_1x1"
  type: "ReLU"
  bottom: "inception_1a/1x1_bn"
  top: "inception_1a/1x1_bn"
}
layer {
  name: "inception_1a/3x3_reduce"
  type: "Convolution"
  bottom: "pool1"
  top: "inception_1a/3x3_reduce"
  param {
    lr_mult: 1
    decay_mult: 1
  }
  param {
    lr_mult: 2
    decay_mult: 0
  }
  convolution_param {
    num_output: 64
    kernel_size: 1
    weight_filler {
      type: "xavier"
    }
    bias_filler {
      type: "constant"
      value: 0.2
    }
  }
}
layer {
  name: "inception_1a/3x3_reduce_bn"
  type: "BN"
  bottom: "inception_1a/3x3_reduce"
  top: "inception_1a/3x3_reduce_bn"
  param {
    lr_mult: 1
    decay_mult: 0
  }
  param {
    lr_mult: 1
    decay_mult: 0
  }
  bn_param {
    slope_filler {
      type: "constant"
      value: 1
    }
    bias_filler {
      type: "constant"
      value: 0
    }
  }
}
layer {
  name: "inception_1a/relu_3x3_reduce"
  type: "ReLU"
  bottom: "inception_1a/3x3_reduce_bn"
  top: "inception_1a/3x3_reduce_bn"
}
layer {
  name: "inception_1a/3x3"
  type: "Convolution"
  bottom: "inception_1a/3x3_reduce_bn"
  top: "inception_1a/3x3"
  param {
    lr_mult: 1
    decay_mult: 1
  }
  param {
    lr_mult: 2
    decay_mult: 0
  }
  convolution_param {
    num_output: 64
    pad: 1
    kernel_size: 3
    weight_filler {
      type: "xavier"
    }
    bias_filler {
      type: "constant"
      value: 0.2
    }
  }
}
layer {
  name: "inception_1a/3x3_bn"
  type: "BN"
  bottom: "inception_1a/3x3"
  top: "inception_1a/3x3_bn"
  param {
    lr_mult: 1
    decay_mult: 0
  }
  param {
    lr_mult: 1
    decay_mult: 0
  }
  bn_param {
    slope_filler {
      type: "constant"
      value: 1
    }
    bias_filler {
      type: "constant"
      value: 0
    }
  }
}
layer {
  name: "inception_1a/relu_3x3"
  type: "ReLU"
  bottom: "inception_1a/3x3_bn"
  top: "inception_1a/3x3_bn"
}
layer {
  name: "inception_1a/double_3x3_reduce"
  type: "Convolution"
  bottom: "pool1"
  top: "inception_1a/double_3x3_reduce"
  param {
    lr_mult: 1
    decay_mult: 1
  }
  param {
    lr_mult: 2
    decay_mult: 0
  }
  convolution_param {
    num_output: 64
    kernel_size: 1
    weight_filler {
      type: "xavier"
    }
    bias_filler {
      type: "constant"
      value: 0.2
    }
  }
}
layer {
  name: "inception_1a/double_3x3_reduce_bn"
  type: "BN"
  bottom: "inception_1a/double_3x3_reduce"
  top: "inception_1a/double_3x3_reduce_bn"
  param {
    lr_mult: 1
    decay_mult: 0
  }
  param {
    lr_mult: 1
    decay_mult: 0
  }
  bn_param {
    slope_filler {
      type: "constant"
      value: 1
    }
    bias_filler {
      type: "constant"
      value: 0
    }
  }
}
layer {
  name: "inception_1a/relu_double_3x3_reduce"
  type: "ReLU"
  bottom: "inception_1a/double_3x3_reduce_bn"
  top: "inception_1a/double_3x3_reduce_bn"
}
layer {
  name: "inception_1a/double_3x3_1"
  type: "Convolution"
  bottom: "inception_1a/double_3x3_reduce_bn"
  top: "inception_1a/double_3x3_1"
  param {
    lr_mult: 1
    decay_mult: 1
  }
  param {
    lr_mult: 2
    decay_mult: 0
  }
  convolution_param {
    num_output: 64
    pad: 1
    kernel_size: 3
    weight_filler {
      type: "xavier"
    }
    bias_filler {
      type: "constant"
      value: 0.2
    }
  }
}
layer {
  name: "inception_1a/double_3x3_1_bn"
  type: "BN"
  bottom: "inception_1a/double_3x3_1"
  top: "inception_1a/double_3x3_1_bn"
  param {
    lr_mult: 1
    decay_mult: 0
  }
  param {
    lr_mult: 1
    decay_mult: 0
  }
  bn_param {
    slope_filler {
      type: "constant"
      value: 1
    }
    bias_filler {
      type: "constant"
      value: 0
    }
  }
}
layer {
  name: "inception_1a/relu_double_3x3_1"
  type: "ReLU"
  bottom: "inception_1a/double_3x3_1_bn"
  top: "inception_1a/double_3x3_1_bn"
}
layer {
  name: "inception_1a/double_3x3_2"
  type: "Convolution"
  bottom: "inception_1a/double_3x3_1_bn"
  top: "inception_1a/double_3x3_2"
  param {
    lr_mult: 1
    decay_mult: 1
  }
  param {
    lr_mult: 2
    decay_mult: 0
  }
  convolution_param {
    num_output: 64
    pad: 1
    kernel_size: 3
    weight_filler {
      type: "xavier"
    }
    bias_filler {
      type: "constant"
      value: 0.2
    }
  }
}
layer {
  name: "inception_1a/double_3x3_2_bn"
  type: "BN"
  bottom: "inception_1a/double_3x3_2"
  top: "inception_1a/double_3x3_2_bn"
  param {
    lr_mult: 1
    decay_mult: 0
  }
  param {
    lr_mult: 1
    decay_mult: 0
  }
  bn_param {
    slope_filler {
      type: "constant"
      value: 1
    }
    bias_filler {
      type: "constant"
      value: 0
    }
  }
}
layer {
  name: "inception_1a/relu_double_3x3_2"
  type: "ReLU"
  bottom: "inception_1a/double_3x3_2_bn"
  top: "inception_1a/double_3x3_2_bn"
}
layer {
  name: "inception_1a/pool"
  type: "Pooling"
  bottom: "pool1"
  top: "inception_1a/pool"
  pooling_param {
    pool: AVE
    kernel_size: 3
    stride: 1
    pad: 1
  }
}
layer {
  name: "inception_1a/pool_proj"
  type: "Convolution"
  bottom: "inception_1a/pool"
  top: "inception_1a/pool_proj"
  param {
    lr_mult: 1
    decay_mult: 1
  }
  param {
    lr_mult: 2
    decay_mult: 0
  }
  convolution_param {
    num_output: 64
    kernel_size: 1
    weight_filler {
      type: "xavier"
    }
    bias_filler {
      type: "constant"
      value: 0.2
    }
  }
}
layer {
  name: "inception_1a/pool_proj_bn"
  type: "BN"
  bottom: "inception_1a/pool_proj"
  top: "inception_1a/pool_proj_bn"
  param {
    lr_mult: 1
    decay_mult: 0
  }
  param {
    lr_mult: 1
    decay_mult: 0
  }
  bn_param {
    slope_filler {
      type: "constant"
      value: 1
    }
    bias_filler {
      type: "constant"
      value: 0
    }
  }
}
layer {
  name: "inception_1a/relu_pool_proj"
  type: "ReLU"
  bottom: "inception_1a/pool_proj_bn"
  top: "inception_1a/pool_proj_bn"
}
layer {
  name: "inception_1a/output"
  type: "Concat"
  bottom: "inception_1a/1x1_bn"
  bottom: "inception_1a/3x3_bn"
  bottom: "inception_1a/double_3x3_2_bn"
  bottom: "inception_1a/pool_proj_bn"
  top: "inception_1a/output"
}
layer {
  name: "inception_1b/3x3_reduce"
  type: "Convolution"
  bottom: "inception_1a/output"
  top: "inception_1b/3x3_reduce"
  param {
    lr_mult: 1
    decay_mult: 1
  }
  param {
    lr_mult: 2
    decay_mult: 0
  }
  convolution_param {
    num_output: 64
    kernel_size: 1
    weight_filler {
      type: "xavier"
    }
    bias_filler {
      type: "constant"
      value: 0.2
    }
  }
}
layer {
  name: "inception_1b/3x3_reduce_bn"
  type: "BN"
  bottom: "inception_1b/3x3_reduce"
  top: "inception_1b/3x3_reduce_bn"
  param {
    lr_mult: 1
    decay_mult: 0
  }
  param {
    lr_mult: 1
    decay_mult: 0
  }
  bn_param {
    slope_filler {
      type: "constant"
      value: 1
    }
    bias_filler {
      type: "constant"
      value: 0
    }
  }
}
layer {
  name: "inception_1b/relu_3x3_reduce"
  type: "ReLU"
  bottom: "inception_1b/3x3_reduce_bn"
  top: "inception_1b/3x3_reduce_bn"
}
layer {
  name: "inception_1b/3x3"
  type: "Convolution"
  bottom: "inception_1b/3x3_reduce_bn"
  top: "inception_1b/3x3"
  param {
    lr_mult: 1
    decay_mult: 1
  }
  param {
    lr_mult: 2
    decay_mult: 0
  }
  convolution_param {
    num_output: 64
    pad: 1
    kernel_size: 3
    stride: 2
    weight_filler {
      type: "xavier"
    }
    bias_filler {
      type: "constant"
      value: 0.2
    }
  }
}
layer {
  name: "inception_1b/3x3_bn"
  type: "BN"
  bottom: "inception_1b/3x3"
  top: "inception_1b/3x3_bn"
  param {
    lr_mult: 1
    decay_mult: 0
  }
  param {
    lr_mult: 1
    decay_mult: 0
  }
  bn_param {
    slope_filler {
      type: "constant"
      value: 1
    }
    bias_filler {
      type: "constant"
      value: 0
    }
  }
}
layer {
  name: "inception_1b/relu_3x3"
  type: "ReLU"
  bottom: "inception_1b/3x3_bn"
  top: "inception_1b/3x3_bn"
}
layer {
  name: "inception_1b/double_3x3_reduce"
  type: "Convolution"
  bottom: "inception_1a/output"
  top: "inception_1b/double_3x3_reduce"
  param {
    lr_mult: 1
    decay_mult: 1
  }
  param {
    lr_mult: 2
    decay_mult: 0
  }
  convolution_param {
    num_output: 64
    kernel_size: 1
    weight_filler {
      type: "xavier"
    }
    bias_filler {
      type: "constant"
      value: 0.2
    }
  }
}
layer {
  name: "inception_1b/double_3x3_reduce_bn"
  type: "BN"
  bottom: "inception_1b/double_3x3_reduce"
  top: "inception_1b/double_3x3_reduce_bn"
  param {
    lr_mult: 1
    decay_mult: 0
  }
  param {
    lr_mult: 1
    decay_mult: 0
  }
  bn_param {
    slope_filler {
      type: "constant"
      value: 1
    }
    bias_filler {
      type: "constant"
      value: 0
    }
  }
}
layer {
  name: "inception_1b/relu_double_3x3_reduce"
  type: "ReLU"
  bottom: "inception_1b/double_3x3_reduce_bn"
  top: "inception_1b/double_3x3_reduce_bn"
}
layer {
  name: "inception_1b/double_3x3_1"
  type: "Convolution"
  bottom: "inception_1b/double_3x3_reduce_bn"
  top: "inception_1b/double_3x3_1"
  param {
    lr_mult: 1
    decay_mult: 1
  }
  param {
    lr_mult: 2
    decay_mult: 0
  }
  convolution_param {
    num_output: 64
    pad: 1
    kernel_size: 3
    weight_filler {
      type: "xavier"
    }
    bias_filler {
      type: "constant"
      value: 0.2
    }
  }
}
layer {
  name: "inception_1b/double_3x3_1_bn"
  type: "BN"
  bottom: "inception_1b/double_3x3_1"
  top: "inception_1b/double_3x3_1_bn"
  param {
    lr_mult: 1
    decay_mult: 0
  }
  param {
    lr_mult: 1
    decay_mult: 0
  }
  bn_param {
    slope_filler {
      type: "constant"
      value: 1
    }
    bias_filler {
      type: "constant"
      value: 0
    }
  }
}
layer {
  name: "inception_1b/relu_double_3x3_1"
  type: "ReLU"
  bottom: "inception_1b/double_3x3_1_bn"
  top: "inception_1b/double_3x3_1_bn"
}
layer {
  name: "inception_1b/double_3x3_2"
  type: "Convolution"
  bottom: "inception_1b/double_3x3_1_bn"
  top: "inception_1b/double_3x3_2"
  param {
    lr_mult: 1
    decay_mult: 1
  }
  param {
    lr_mult: 2
    decay_mult: 0
  }
  convolution_param {
    num_output: 64
    pad: 1
    kernel_size: 3
    stride: 2
    weight_filler {
      type: "xavier"
    }
    bias_filler {
      type: "constant"
      value: 0.2
    }
  }
}
layer {
  name: "inception_1b/double_3x3_2_bn"
  type: "BN"
  bottom: "inception_1b/double_3x3_2"
  top: "inception_1b/double_3x3_2_bn"
  param {
    lr_mult: 1
    decay_mult: 0
  }
  param {
    lr_mult: 1
    decay_mult: 0
  }
  bn_param {
    slope_filler {
      type: "constant"
      value: 1
    }
    bias_filler {
      type: "constant"
      value: 0
    }
  }
}
layer {
  name: "inception_1b/relu_double_3x3_2"
  type: "ReLU"
  bottom: "inception_1b/double_3x3_2_bn"
  top: "inception_1b/double_3x3_2_bn"
}
layer {
  name: "inception_1b/pool"
  type: "Pooling"
  bottom: "inception_1a/output"
  top: "inception_1b/pool"
  pooling_param {
    pool: MAX
    kernel_size: 3
    stride: 2
  }
}
layer {
  name: "inception_1b/output"
  type: "Concat"
  bottom: "inception_1b/3x3_bn"
  bottom: "inception_1b/double_3x3_2_bn"
  bottom: "inception_1b/pool"
  top: "inception_1b/output"
}
layer {
  name: "inception_2a/1x1"
  type: "Convolution"
  bottom: "inception_1b/output"
  top: "inception_2a/1x1"
  param {
    lr_mult: 1
    decay_mult: 1
  }
  param {
    lr_mult: 2
    decay_mult: 0
  }
  convolution_param {
    num_output: 128
    kernel_size: 1
    weight_filler {
      type: "xavier"
    }
    bias_filler {
      type: "constant"
      value: 0.2
    }
  }
}
layer {
  name: "inception_2a/1x1_bn"
  type: "BN"
  bottom: "inception_2a/1x1"
  top: "inception_2a/1x1_bn"
  param {
    lr_mult: 1
    decay_mult: 0
  }
  param {
    lr_mult: 1
    decay_mult: 0
  }
  bn_param {
    slope_filler {
      type: "constant"
      value: 1
    }
    bias_filler {
      type: "constant"
      value: 0
    }
  }
}
layer {
  name: "inception_2a/relu_1x1"
  type: "ReLU"
  bottom: "inception_2a/1x1_bn"
  top: "inception_2a/1x1_bn"
}
layer {
  name: "inception_2a/3x3_reduce"
  type: "Convolution"
  bottom: "inception_1b/output"
  top: "inception_2a/3x3_reduce"
  param {
    lr_mult: 1
    decay_mult: 1
  }
  param {
    lr_mult: 2
    decay_mult: 0
  }
  convolution_param {
    num_output: 128
    kernel_size: 1
    weight_filler {
      type: "xavier"
    }
    bias_filler {
      type: "constant"
      value: 0.2
    }
  }
}
layer {
  name: "inception_2a/3x3_reduce_bn"
  type: "BN"
  bottom: "inception_2a/3x3_reduce"
  top: "inception_2a/3x3_reduce_bn"
  param {
    lr_mult: 1
    decay_mult: 0
  }
  param {
    lr_mult: 1
    decay_mult: 0
  }
  bn_param {
    slope_filler {
      type: "constant"
      value: 1
    }
    bias_filler {
      type: "constant"
      value: 0
    }
  }
}
layer {
  name: "inception_2a/relu_3x3_reduce"
  type: "ReLU"
  bottom: "inception_2a/3x3_reduce_bn"
  top: "inception_2a/3x3_reduce_bn"
}
layer {
  name: "inception_2a/3x3"
  type: "Convolution"
  bottom: "inception_2a/3x3_reduce_bn"
  top: "inception_2a/3x3"
  param {
    lr_mult: 1
    decay_mult: 1
  }
  param {
    lr_mult: 2
    decay_mult: 0
  }
  convolution_param {
    num_output: 128
    pad: 1
    kernel_size: 3
    weight_filler {
      type: "xavier"
    }
    bias_filler {
      type: "constant"
      value: 0.2
    }
  }
}
layer {
  name: "inception_2a/3x3_bn"
  type: "BN"
  bottom: "inception_2a/3x3"
  top: "inception_2a/3x3_bn"
  param {
    lr_mult: 1
    decay_mult: 0
  }
  param {
    lr_mult: 1
    decay_mult: 0
  }
  bn_param {
    slope_filler {
      type: "constant"
      value: 1
    }
    bias_filler {
      type: "constant"
      value: 0
    }
  }
}
layer {
  name: "inception_2a/relu_3x3"
  type: "ReLU"
  bottom: "inception_2a/3x3_bn"
  top: "inception_2a/3x3_bn"
}
layer {
  name: "inception_2a/double_3x3_reduce"
  type: "Convolution"
  bottom: "inception_1b/output"
  top: "inception_2a/double_3x3_reduce"
  param {
    lr_mult: 1
    decay_mult: 1
  }
  param {
    lr_mult: 2
    decay_mult: 0
  }
  convolution_param {
    num_output: 128
    kernel_size: 1
    weight_filler {
      type: "xavier"
    }
    bias_filler {
      type: "constant"
      value: 0.2
    }
  }
}
layer {
  name: "inception_2a/double_3x3_reduce_bn"
  type: "BN"
  bottom: "inception_2a/double_3x3_reduce"
  top: "inception_2a/double_3x3_reduce_bn"
  param {
    lr_mult: 1
    decay_mult: 0
  }
  param {
    lr_mult: 1
    decay_mult: 0
  }
  bn_param {
    slope_filler {
      type: "constant"
      value: 1
    }
    bias_filler {
      type: "constant"
      value: 0
    }
  }
}
layer {
  name: "inception_2a/relu_double_3x3_reduce"
  type: "ReLU"
  bottom: "inception_2a/double_3x3_reduce_bn"
  top: "inception_2a/double_3x3_reduce_bn"
}
layer {
  name: "inception_2a/double_3x3_1"
  type: "Convolution"
  bottom: "inception_2a/double_3x3_reduce_bn"
  top: "inception_2a/double_3x3_1"
  param {
    lr_mult: 1
    decay_mult: 1
  }
  param {
    lr_mult: 2
    decay_mult: 0
  }
  convolution_param {
    num_output: 128
    pad: 1
    kernel_size: 3
    weight_filler {
      type: "xavier"
    }
    bias_filler {
      type: "constant"
      value: 0.2
    }
  }
}
layer {
  name: "inception_2a/double_3x3_1_bn"
  type: "BN"
  bottom: "inception_2a/double_3x3_1"
  top: "inception_2a/double_3x3_1_bn"
  param {
    lr_mult: 1
    decay_mult: 0
  }
  param {
    lr_mult: 1
    decay_mult: 0
  }
  bn_param {
    slope_filler {
      type: "constant"
      value: 1
    }
    bias_filler {
      type: "constant"
      value: 0
    }
  }
}
layer {
  name: "inception_2a/relu_double_3x3_1"
  type: "ReLU"
  bottom: "inception_2a/double_3x3_1_bn"
  top: "inception_2a/double_3x3_1_bn"
}
layer {
  name: "inception_2a/double_3x3_2"
  type: "Convolution"
  bottom: "inception_2a/double_3x3_1_bn"
  top: "inception_2a/double_3x3_2"
  param {
    lr_mult: 1
    decay_mult: 1
  }
  param {
    lr_mult: 2
    decay_mult: 0
  }
  convolution_param {
    num_output: 128
    pad: 1
    kernel_size: 3
    weight_filler {
      type: "xavier"
    }
    bias_filler {
      type: "constant"
      value: 0.2
    }
  }
}
layer {
  name: "inception_2a/double_3x3_2_bn"
  type: "BN"
  bottom: "inception_2a/double_3x3_2"
  top: "inception_2a/double_3x3_2_bn"
  param {
    lr_mult: 1
    decay_mult: 0
  }
  param {
    lr_mult: 1
    decay_mult: 0
  }
  bn_param {
    slope_filler {
      type: "constant"
      value: 1
    }
    bias_filler {
      type: "constant"
      value: 0
    }
  }
}
layer {
  name: "inception_2a/relu_double_3x3_2"
  type: "ReLU"
  bottom: "inception_2a/double_3x3_2_bn"
  top: "inception_2a/double_3x3_2_bn"
}
layer {
  name: "inception_2a/pool"
  type: "Pooling"
  bottom: "inception_1b/output"
  top: "inception_2a/pool"
  pooling_param {
    pool: AVE
    kernel_size: 3
    stride: 1
    pad: 1
  }
}
layer {
  name: "inception_2a/pool_proj"
  type: "Convolution"
  bottom: "inception_2a/pool"
  top: "inception_2a/pool_proj"
  param {
    lr_mult: 1
    decay_mult: 1
  }
  param {
    lr_mult: 2
    decay_mult: 0
  }
  convolution_param {
    num_output: 128
    kernel_size: 1
    weight_filler {
      type: "xavier"
    }
    bias_filler {
      type: "constant"
      value: 0.2
    }
  }
}
layer {
  name: "inception_2a/pool_proj_bn"
  type: "BN"
  bottom: "inception_2a/pool_proj"
  top: "inception_2a/pool_proj_bn"
  param {
    lr_mult: 1
    decay_mult: 0
  }
  param {
    lr_mult: 1
    decay_mult: 0
  }
  bn_param {
    slope_filler {
      type: "constant"
      value: 1
    }
    bias_filler {
      type: "constant"
      value: 0
    }
  }
}
layer {
  name: "inception_2a/relu_pool_proj"
  type: "ReLU"
  bottom: "inception_2a/pool_proj_bn"
  top: "inception_2a/pool_proj_bn"
}
layer {
  name: "inception_2a/output"
  type: "Concat"
  bottom: "inception_2a/1x1_bn"
  bottom: "inception_2a/3x3_bn"
  bottom: "inception_2a/double_3x3_2_bn"
  bottom: "inception_2a/pool_proj_bn"
  top: "inception_2a/output"
}
layer {
  name: "inception_2b/3x3_reduce"
  type: "Convolution"
  bottom: "inception_2a/output"
  top: "inception_2b/3x3_reduce"
  param {
    lr_mult: 1
    decay_mult: 1
  }
  param {
    lr_mult: 2
    decay_mult: 0
  }
  convolution_param {
    num_output: 128
    kernel_size: 1
    weight_filler {
      type: "xavier"
    }
    bias_filler {
      type: "constant"
      value: 0.2
    }
  }
}
layer {
  name: "inception_2b/3x3_reduce_bn"
  type: "BN"
  bottom: "inception_2b/3x3_reduce"
  top: "inception_2b/3x3_reduce_bn"
  param {
    lr_mult: 1
    decay_mult: 0
  }
  param {
    lr_mult: 1
    decay_mult: 0
  }
  bn_param {
    slope_filler {
      type: "constant"
      value: 1
    }
    bias_filler {
      type: "constant"
      value: 0
    }
  }
}
layer {
  name: "inception_2b/relu_3x3_reduce"
  type: "ReLU"
  bottom: "inception_2b/3x3_reduce_bn"
  top: "inception_2b/3x3_reduce_bn"
}
layer {
  name: "inception_2b/3x3"
  type: "Convolution"
  bottom: "inception_2b/3x3_reduce_bn"
  top: "inception_2b/3x3"
  param {
    lr_mult: 1
    decay_mult: 1
  }
  param {
    lr_mult: 2
    decay_mult: 0
  }
  convolution_param {
    num_output: 128
    pad: 1
    kernel_size: 3
    stride: 2
    weight_filler {
      type: "xavier"
    }
    bias_filler {
      type: "constant"
      value: 0.2
    }
  }
}
layer {
  name: "inception_2b/3x3_bn"
  type: "BN"
  bottom: "inception_2b/3x3"
  top: "inception_2b/3x3_bn"
  param {
    lr_mult: 1
    decay_mult: 0
  }
  param {
    lr_mult: 1
    decay_mult: 0
  }
  bn_param {
    slope_filler {
      type: "constant"
      value: 1
    }
    bias_filler {
      type: "constant"
      value: 0
    }
  }
}
layer {
  name: "inception_2b/relu_3x3"
  type: "ReLU"
  bottom: "inception_2b/3x3_bn"
  top: "inception_2b/3x3_bn"
}
layer {
  name: "inception_2b/double_3x3_reduce"
  type: "Convolution"
  bottom: "inception_2a/output"
  top: "inception_2b/double_3x3_reduce"
  param {
    lr_mult: 1
    decay_mult: 1
  }
  param {
    lr_mult: 2
    decay_mult: 0
  }
  convolution_param {
    num_output: 128
    kernel_size: 1
    weight_filler {
      type: "xavier"
    }
    bias_filler {
      type: "constant"
      value: 0.2
    }
  }
}
layer {
  name: "inception_2b/double_3x3_reduce_bn"
  type: "BN"
  bottom: "inception_2b/double_3x3_reduce"
  top: "inception_2b/double_3x3_reduce_bn"
  param {
    lr_mult: 1
    decay_mult: 0
  }
  param {
    lr_mult: 1
    decay_mult: 0
  }
  bn_param {
    slope_filler {
      type: "constant"
      value: 1
    }
    bias_filler {
      type: "constant"
      value: 0
    }
  }
}
layer {
  name: "inception_2b/relu_double_3x3_reduce"
  type: "ReLU"
  bottom: "inception_2b/double_3x3_reduce_bn"
  top: "inception_2b/double_3x3_reduce_bn"
}
layer {
  name: "inception_2b/double_3x3_1"
  type: "Convolution"
  bottom: "inception_2b/double_3x3_reduce_bn"
  top: "inception_2b/double_3x3_1"
  param {
    lr_mult: 1
    decay_mult: 1
  }
  param {
    lr_mult: 2
    decay_mult: 0
  }
  convolution_param {
    num_output: 128
    pad: 1
    kernel_size: 3
    weight_filler {
      type: "xavier"
    }
    bias_filler {
      type: "constant"
      value: 0.2
    }
  }
}
layer {
  name: "inception_2b/double_3x3_1_bn"
  type: "BN"
  bottom: "inception_2b/double_3x3_1"
  top: "inception_2b/double_3x3_1_bn"
  param {
    lr_mult: 1
    decay_mult: 0
  }
  param {
    lr_mult: 1
    decay_mult: 0
  }
  bn_param {
    slope_filler {
      type: "constant"
      value: 1
    }
    bias_filler {
      type: "constant"
      value: 0
    }
  }
}
layer {
  name: "inception_2b/relu_double_3x3_1"
  type: "ReLU"
  bottom: "inception_2b/double_3x3_1_bn"
  top: "inception_2b/double_3x3_1_bn"
}
layer {
  name: "inception_2b/double_3x3_2"
  type: "Convolution"
  bottom: "inception_2b/double_3x3_1_bn"
  top: "inception_2b/double_3x3_2"
  param {
    lr_mult: 1
    decay_mult: 1
  }
  param {
    lr_mult: 2
    decay_mult: 0
  }
  convolution_param {
    num_output: 128
    pad: 1
    kernel_size: 3
    stride: 2
    weight_filler {
      type: "xavier"
    }
    bias_filler {
      type: "constant"
      value: 0.2
    }
  }
}
layer {
  name: "inception_2b/double_3x3_2_bn"
  type: "BN"
  bottom: "inception_2b/double_3x3_2"
  top: "inception_2b/double_3x3_2_bn"
  param {
    lr_mult: 1
    decay_mult: 0
  }
  param {
    lr_mult: 1
    decay_mult: 0
  }
  bn_param {
    slope_filler {
      type: "constant"
      value: 1
    }
    bias_filler {
      type: "constant"
      value: 0
    }
  }
}
layer {
  name: "inception_2b/relu_double_3x3_2"
  type: "ReLU"
  bottom: "inception_2b/double_3x3_2_bn"
  top: "inception_2b/double_3x3_2_bn"
}
layer {
  name: "inception_2b/pool"
  type: "Pooling"
  bottom: "inception_2a/output"
  top: "inception_2b/pool"
  pooling_param {
    pool: MAX
    kernel_size: 3
    stride: 2
  }
}
layer {
  name: "inception_2b/output"
  type: "Concat"
  bottom: "inception_2b/3x3_bn"
  bottom: "inception_2b/double_3x3_2_bn"
  bottom: "inception_2b/pool"
  top: "inception_2b/output"
}
layer {
  name: "inception_3a/1x1"
  type: "Convolution"
  bottom: "inception_2b/output"
  top: "inception_3a/1x1"
  param {
    lr_mult: 1
    decay_mult: 1
  }
  param {
    lr_mult: 2
    decay_mult: 0
  }
  convolution_param {
    num_output: 256
    kernel_size: 1
    weight_filler {
      type: "xavier"
    }
    bias_filler {
      type: "constant"
      value: 0.2
    }
  }
}
layer {
  name: "inception_3a/1x1_bn"
  type: "BN"
  bottom: "inception_3a/1x1"
  top: "inception_3a/1x1_bn"
  param {
    lr_mult: 1
    decay_mult: 0
  }
  param {
    lr_mult: 1
    decay_mult: 0
  }
  bn_param {
    slope_filler {
      type: "constant"
      value: 1
    }
    bias_filler {
      type: "constant"
      value: 0
    }
  }
}
layer {
  name: "inception_3a/relu_1x1"
  type: "ReLU"
  bottom: "inception_3a/1x1_bn"
  top: "inception_3a/1x1_bn"
}
layer {
  name: "inception_3a/3x3_reduce"
  type: "Convolution"
  bottom: "inception_2b/output"
  top: "inception_3a/3x3_reduce"
  param {
    lr_mult: 1
    decay_mult: 1
  }
  param {
    lr_mult: 2
    decay_mult: 0
  }
  convolution_param {
    num_output: 256
    kernel_size: 1
    weight_filler {
      type: "xavier"
    }
    bias_filler {
      type: "constant"
      value: 0.2
    }
  }
}
layer {
  name: "inception_3a/3x3_reduce_bn"
  type: "BN"
  bottom: "inception_3a/3x3_reduce"
  top: "inception_3a/3x3_reduce_bn"
  param {
    lr_mult: 1
    decay_mult: 0
  }
  param {
    lr_mult: 1
    decay_mult: 0
  }
  bn_param {
    slope_filler {
      type: "constant"
      value: 1
    }
    bias_filler {
      type: "constant"
      value: 0
    }
  }
}
layer {
  name: "inception_3a/relu_3x3_reduce"
  type: "ReLU"
  bottom: "inception_3a/3x3_reduce_bn"
  top: "inception_3a/3x3_reduce_bn"
}
layer {
  name: "inception_3a/3x3"
  type: "Convolution"
  bottom: "inception_3a/3x3_reduce_bn"
  top: "inception_3a/3x3"
  param {
    lr_mult: 1
    decay_mult: 1
  }
  param {
    lr_mult: 2
    decay_mult: 0
  }
  convolution_param {
    num_output: 256
    pad: 1
    kernel_size: 3
    weight_filler {
      type: "xavier"
    }
    bias_filler {
      type: "constant"
      value: 0.2
    }
  }
}
layer {
  name: "inception_3a/3x3_bn"
  type: "BN"
  bottom: "inception_3a/3x3"
  top: "inception_3a/3x3_bn"
  param {
    lr_mult: 1
    decay_mult: 0
  }
  param {
    lr_mult: 1
    decay_mult: 0
  }
  bn_param {
    slope_filler {
      type: "constant"
      value: 1
    }
    bias_filler {
      type: "constant"
      value: 0
    }
  }
}
layer {
  name: "inception_3a/relu_3x3"
  type: "ReLU"
  bottom: "inception_3a/3x3_bn"
  top: "inception_3a/3x3_bn"
}
layer {
  name: "inception_3a/double_3x3_reduce"
  type: "Convolution"
  bottom: "inception_2b/output"
  top: "inception_3a/double_3x3_reduce"
  param {
    lr_mult: 1
    decay_mult: 1
  }
  param {
    lr_mult: 2
    decay_mult: 0
  }
  convolution_param {
    num_output: 256
    kernel_size: 1
    weight_filler {
      type: "xavier"
    }
    bias_filler {
      type: "constant"
      value: 0.2
    }
  }
}
layer {
  name: "inception_3a/double_3x3_reduce_bn"
  type: "BN"
  bottom: "inception_3a/double_3x3_reduce"
  top: "inception_3a/double_3x3_reduce_bn"
  param {
    lr_mult: 1
    decay_mult: 0
  }
  param {
    lr_mult: 1
    decay_mult: 0
  }
  bn_param {
    slope_filler {
      type: "constant"
      value: 1
    }
    bias_filler {
      type: "constant"
    
I1018 17:18:15.238845  2890 layer_factory.hpp:77] Creating layer data
I1018 17:18:15.238875  2890 net.cpp:91] Creating Layer data
I1018 17:18:15.238881  2890 net.cpp:409] data -> data
I1018 17:18:15.238905  2890 net.cpp:409] data -> label
I1018 17:18:15.239204  2890 image_data_layer.cpp:37] Opening file /home/nikoong/Algorithm_test/attribute/external/exp/dataset/Market-1501/train.txt
I1018 17:18:15.242863  2890 image_data_layer.cpp:47] Shuffling data
I1018 17:18:15.244307  2890 image_data_layer.cpp:52] A total of 12936 images.
I1018 17:18:15.382486  2890 image_data_layer.cpp:79] output data size: 45,3,144,56
I1018 17:18:15.396845  2890 net.cpp:141] Setting up data
I1018 17:18:15.396879  2890 net.cpp:148] Top shape: 45 3 144 56 (1088640)
I1018 17:18:15.396884  2890 net.cpp:148] Top shape: 45 (45)
I1018 17:18:15.396888  2890 net.cpp:156] Memory required for data: 4354740
I1018 17:18:15.396894  2890 layer_factory.hpp:77] Creating layer conv1
I1018 17:18:15.396922  2890 net.cpp:91] Creating Layer conv1
I1018 17:18:15.396927  2890 net.cpp:435] conv1 <- data
I1018 17:18:15.396939  2890 net.cpp:409] conv1 -> conv1
I1018 17:18:15.709050  2890 net.cpp:141] Setting up conv1
I1018 17:18:15.709077  2890 net.cpp:148] Top shape: 45 32 144 56 (11612160)
I1018 17:18:15.709081  2890 net.cpp:156] Memory required for data: 50803380
I1018 17:18:15.709100  2890 layer_factory.hpp:77] Creating layer conv1_bn
I1018 17:18:15.709115  2890 layer_factory.cpp:265] Layer conv1_bn is using CAFFE engine.
I1018 17:18:15.709125  2890 net.cpp:91] Creating Layer conv1_bn
I1018 17:18:15.709130  2890 net.cpp:435] conv1_bn <- conv1
I1018 17:18:15.709134  2890 net.cpp:409] conv1_bn -> conv1_bn
I1018 17:18:15.709311  2890 net.cpp:141] Setting up conv1_bn
I1018 17:18:15.709318  2890 net.cpp:148] Top shape: 45 32 144 56 (11612160)
I1018 17:18:15.709321  2890 net.cpp:156] Memory required for data: 97252020
I1018 17:18:15.709328  2890 layer_factory.hpp:77] Creating layer relu1
I1018 17:18:15.709333  2890 net.cpp:91] Creating Layer relu1
I1018 17:18:15.709336  2890 net.cpp:435] relu1 <- conv1_bn
I1018 17:18:15.709339  2890 net.cpp:396] relu1 -> conv1_bn (in-place)
I1018 17:18:15.709482  2890 net.cpp:141] Setting up relu1
I1018 17:18:15.709491  2890 net.cpp:148] Top shape: 45 32 144 56 (11612160)
I1018 17:18:15.709493  2890 net.cpp:156] Memory required for data: 143700660
I1018 17:18:15.709496  2890 layer_factory.hpp:77] Creating layer conv2
I1018 17:18:15.709506  2890 net.cpp:91] Creating Layer conv2
I1018 17:18:15.709507  2890 net.cpp:435] conv2 <- conv1_bn
I1018 17:18:15.709522  2890 net.cpp:409] conv2 -> conv2
I1018 17:18:15.710490  2890 net.cpp:141] Setting up conv2
I1018 17:18:15.710501  2890 net.cpp:148] Top shape: 45 32 144 56 (11612160)
I1018 17:18:15.710505  2890 net.cpp:156] Memory required for data: 190149300
I1018 17:18:15.710510  2890 layer_factory.hpp:77] Creating layer conv2_bn
I1018 17:18:15.710513  2890 layer_factory.cpp:265] Layer conv2_bn is using CAFFE engine.
I1018 17:18:15.710518  2890 net.cpp:91] Creating Layer conv2_bn
I1018 17:18:15.710521  2890 net.cpp:435] conv2_bn <- conv2
I1018 17:18:15.710536  2890 net.cpp:409] conv2_bn -> conv2_bn
I1018 17:18:15.710680  2890 net.cpp:141] Setting up conv2_bn
I1018 17:18:15.710686  2890 net.cpp:148] Top shape: 45 32 144 56 (11612160)
I1018 17:18:15.710690  2890 net.cpp:156] Memory required for data: 236597940
I1018 17:18:15.710696  2890 layer_factory.hpp:77] Creating layer relu2
I1018 17:18:15.710700  2890 net.cpp:91] Creating Layer relu2
I1018 17:18:15.710703  2890 net.cpp:435] relu2 <- conv2_bn
I1018 17:18:15.710706  2890 net.cpp:396] relu2 -> conv2_bn (in-place)
I1018 17:18:15.710835  2890 net.cpp:141] Setting up relu2
I1018 17:18:15.710842  2890 net.cpp:148] Top shape: 45 32 144 56 (11612160)
I1018 17:18:15.710845  2890 net.cpp:156] Memory required for data: 283046580
I1018 17:18:15.710847  2890 layer_factory.hpp:77] Creating layer conv3
I1018 17:18:15.710855  2890 net.cpp:91] Creating Layer conv3
I1018 17:18:15.710857  2890 net.cpp:435] conv3 <- conv2_bn
I1018 17:18:15.710861  2890 net.cpp:409] conv3 -> conv3
I1018 17:18:15.711830  2890 net.cpp:141] Setting up conv3
I1018 17:18:15.711841  2890 net.cpp:148] Top shape: 45 32 144 56 (11612160)
I1018 17:18:15.711844  2890 net.cpp:156] Memory required for data: 329495220
I1018 17:18:15.711849  2890 layer_factory.hpp:77] Creating layer conv3_bn
I1018 17:18:15.711853  2890 layer_factory.cpp:265] Layer conv3_bn is using CAFFE engine.
I1018 17:18:15.711858  2890 net.cpp:91] Creating Layer conv3_bn
I1018 17:18:15.711861  2890 net.cpp:435] conv3_bn <- conv3
I1018 17:18:15.711875  2890 net.cpp:409] conv3_bn -> conv3_bn
I1018 17:18:15.712023  2890 net.cpp:141] Setting up conv3_bn
I1018 17:18:15.712028  2890 net.cpp:148] Top shape: 45 32 144 56 (11612160)
I1018 17:18:15.712031  2890 net.cpp:156] Memory required for data: 375943860
I1018 17:18:15.712038  2890 layer_factory.hpp:77] Creating layer relu3
I1018 17:18:15.712043  2890 net.cpp:91] Creating Layer relu3
I1018 17:18:15.712045  2890 net.cpp:435] relu3 <- conv3_bn
I1018 17:18:15.712049  2890 net.cpp:396] relu3 -> conv3_bn (in-place)
I1018 17:18:15.712622  2890 net.cpp:141] Setting up relu3
I1018 17:18:15.712635  2890 net.cpp:148] Top shape: 45 32 144 56 (11612160)
I1018 17:18:15.712647  2890 net.cpp:156] Memory required for data: 422392500
I1018 17:18:15.712651  2890 layer_factory.hpp:77] Creating layer pool1
I1018 17:18:15.712666  2890 net.cpp:91] Creating Layer pool1
I1018 17:18:15.712669  2890 net.cpp:435] pool1 <- conv3_bn
I1018 17:18:15.712673  2890 net.cpp:409] pool1 -> pool1
I1018 17:18:15.712729  2890 net.cpp:141] Setting up pool1
I1018 17:18:15.712744  2890 net.cpp:148] Top shape: 45 32 72 28 (2903040)
I1018 17:18:15.712748  2890 net.cpp:156] Memory required for data: 434004660
I1018 17:18:15.712749  2890 layer_factory.hpp:77] Creating layer pool1_pool1_0_split
I1018 17:18:15.712764  2890 net.cpp:91] Creating Layer pool1_pool1_0_split
I1018 17:18:15.712766  2890 net.cpp:435] pool1_pool1_0_split <- pool1
I1018 17:18:15.712770  2890 net.cpp:409] pool1_pool1_0_split -> pool1_pool1_0_split_0
I1018 17:18:15.712783  2890 net.cpp:409] pool1_pool1_0_split -> pool1_pool1_0_split_1
I1018 17:18:15.712787  2890 net.cpp:409] pool1_pool1_0_split -> pool1_pool1_0_split_2
I1018 17:18:15.712801  2890 net.cpp:409] pool1_pool1_0_split -> pool1_pool1_0_split_3
I1018 17:18:15.712834  2890 net.cpp:141] Setting up pool1_pool1_0_split
I1018 17:18:15.712841  2890 net.cpp:148] Top shape: 45 32 72 28 (2903040)
I1018 17:18:15.712843  2890 net.cpp:148] Top shape: 45 32 72 28 (2903040)
I1018 17:18:15.712846  2890 net.cpp:148] Top shape: 45 32 72 28 (2903040)
I1018 17:18:15.712858  2890 net.cpp:148] Top shape: 45 32 72 28 (2903040)
I1018 17:18:15.712860  2890 net.cpp:156] Memory required for data: 480453300
I1018 17:18:15.712862  2890 layer_factory.hpp:77] Creating layer inception_1a/1x1
I1018 17:18:15.712879  2890 net.cpp:91] Creating Layer inception_1a/1x1
I1018 17:18:15.712882  2890 net.cpp:435] inception_1a/1x1 <- pool1_pool1_0_split_0
I1018 17:18:15.712887  2890 net.cpp:409] inception_1a/1x1 -> inception_1a/1x1
I1018 17:18:15.714467  2890 net.cpp:141] Setting up inception_1a/1x1
I1018 17:18:15.714478  2890 net.cpp:148] Top shape: 45 64 72 28 (5806080)
I1018 17:18:15.714481  2890 net.cpp:156] Memory required for data: 503677620
I1018 17:18:15.714488  2890 layer_factory.hpp:77] Creating layer inception_1a/1x1_bn
I1018 17:18:15.714490  2890 layer_factory.cpp:265] Layer inception_1a/1x1_bn is using CAFFE engine.
I1018 17:18:15.714495  2890 net.cpp:91] Creating Layer inception_1a/1x1_bn
I1018 17:18:15.714498  2890 net.cpp:435] inception_1a/1x1_bn <- inception_1a/1x1
I1018 17:18:15.714512  2890 net.cpp:409] inception_1a/1x1_bn -> inception_1a/1x1_bn
I1018 17:18:15.714666  2890 net.cpp:141] Setting up inception_1a/1x1_bn
I1018 17:18:15.714673  2890 net.cpp:148] Top shape: 45 64 72 28 (5806080)
I1018 17:18:15.714675  2890 net.cpp:156] Memory required for data: 526901940
I1018 17:18:15.714681  2890 layer_factory.hpp:77] Creating layer inception_1a/relu_1x1
I1018 17:18:15.714685  2890 net.cpp:91] Creating Layer inception_1a/relu_1x1
I1018 17:18:15.714689  2890 net.cpp:435] inception_1a/relu_1x1 <- inception_1a/1x1_bn
I1018 17:18:15.714701  2890 net.cpp:396] inception_1a/relu_1x1 -> inception_1a/1x1_bn (in-place)
I1018 17:18:15.714830  2890 net.cpp:141] Setting up inception_1a/relu_1x1
I1018 17:18:15.714838  2890 net.cpp:148] Top shape: 45 64 72 28 (5806080)
I1018 17:18:15.714840  2890 net.cpp:156] Memory required for data: 550126260
I1018 17:18:15.714843  2890 layer_factory.hpp:77] Creating layer inception_1a/3x3_reduce
I1018 17:18:15.714849  2890 net.cpp:91] Creating Layer inception_1a/3x3_reduce
I1018 17:18:15.714853  2890 net.cpp:435] inception_1a/3x3_reduce <- pool1_pool1_0_split_1
I1018 17:18:15.714866  2890 net.cpp:409] inception_1a/3x3_reduce -> inception_1a/3x3_reduce
I1018 17:18:15.715848  2890 net.cpp:141] Setting up inception_1a/3x3_reduce
I1018 17:18:15.715859  2890 net.cpp:148] Top shape: 45 64 72 28 (5806080)
I1018 17:18:15.715862  2890 net.cpp:156] Memory required for data: 573350580
I1018 17:18:15.715868  2890 layer_factory.hpp:77] Creating layer inception_1a/3x3_reduce_bn
I1018 17:18:15.715872  2890 layer_factory.cpp:265] Layer inception_1a/3x3_reduce_bn is using CAFFE engine.
I1018 17:18:15.715876  2890 net.cpp:91] Creating Layer inception_1a/3x3_reduce_bn
I1018 17:18:15.715890  2890 net.cpp:435] inception_1a/3x3_reduce_bn <- inception_1a/3x3_reduce
I1018 17:18:15.715894  2890 net.cpp:409] inception_1a/3x3_reduce_bn -> inception_1a/3x3_reduce_bn
I1018 17:18:15.716048  2890 net.cpp:141] Setting up inception_1a/3x3_reduce_bn
I1018 17:18:15.716054  2890 net.cpp:148] Top shape: 45 64 72 28 (5806080)
I1018 17:18:15.716058  2890 net.cpp:156] Memory required for data: 596574900
I1018 17:18:15.716063  2890 layer_factory.hpp:77] Creating layer inception_1a/relu_3x3_reduce
I1018 17:18:15.716068  2890 net.cpp:91] Creating Layer inception_1a/relu_3x3_reduce
I1018 17:18:15.716069  2890 net.cpp:435] inception_1a/relu_3x3_reduce <- inception_1a/3x3_reduce_bn
I1018 17:18:15.716073  2890 net.cpp:396] inception_1a/relu_3x3_reduce -> inception_1a/3x3_reduce_bn (in-place)
I1018 17:18:15.716207  2890 net.cpp:141] Setting up inception_1a/relu_3x3_reduce
I1018 17:18:15.716213  2890 net.cpp:148] Top shape: 45 64 72 28 (5806080)
I1018 17:18:15.716217  2890 net.cpp:156] Memory required for data: 619799220
I1018 17:18:15.716218  2890 layer_factory.hpp:77] Creating layer inception_1a/3x3
I1018 17:18:15.716225  2890 net.cpp:91] Creating Layer inception_1a/3x3
I1018 17:18:15.716228  2890 net.cpp:435] inception_1a/3x3 <- inception_1a/3x3_reduce_bn
I1018 17:18:15.716233  2890 net.cpp:409] inception_1a/3x3 -> inception_1a/3x3
I1018 17:18:15.717998  2890 net.cpp:141] Setting up inception_1a/3x3
I1018 17:18:15.718009  2890 net.cpp:148] Top shape: 45 64 72 28 (5806080)
I1018 17:18:15.718013  2890 net.cpp:156] Memory required for data: 643023540
I1018 17:18:15.718017  2890 layer_factory.hpp:77] Creating layer inception_1a/3x3_bn
I1018 17:18:15.718021  2890 layer_factory.cpp:265] Layer inception_1a/3x3_bn is using CAFFE engine.
I1018 17:18:15.718026  2890 net.cpp:91] Creating Layer inception_1a/3x3_bn
I1018 17:18:15.718029  2890 net.cpp:435] inception_1a/3x3_bn <- inception_1a/3x3
I1018 17:18:15.718044  2890 net.cpp:409] inception_1a/3x3_bn -> inception_1a/3x3_bn
I1018 17:18:15.718200  2890 net.cpp:141] Setting up inception_1a/3x3_bn
I1018 17:18:15.718206  2890 net.cpp:148] Top shape: 45 64 72 28 (5806080)
I1018 17:18:15.718209  2890 net.cpp:156] Memory required for data: 666247860
I1018 17:18:15.718217  2890 layer_factory.hpp:77] Creating layer inception_1a/relu_3x3
I1018 17:18:15.718221  2890 net.cpp:91] Creating Layer inception_1a/relu_3x3
I1018 17:18:15.718235  2890 net.cpp:435] inception_1a/relu_3x3 <- inception_1a/3x3_bn
I1018 17:18:15.718238  2890 net.cpp:396] inception_1a/relu_3x3 -> inception_1a/3x3_bn (in-place)
I1018 17:18:15.718360  2890 net.cpp:141] Setting up inception_1a/relu_3x3
I1018 17:18:15.718369  2890 net.cpp:148] Top shape: 45 64 72 28 (5806080)
I1018 17:18:15.718370  2890 net.cpp:156] Memory required for data: 689472180
I1018 17:18:15.718374  2890 layer_factory.hpp:77] Creating layer inception_1a/double_3x3_reduce
I1018 17:18:15.718379  2890 net.cpp:91] Creating Layer inception_1a/double_3x3_reduce
I1018 17:18:15.718382  2890 net.cpp:435] inception_1a/double_3x3_reduce <- pool1_pool1_0_split_2
I1018 17:18:15.718396  2890 net.cpp:409] inception_1a/double_3x3_reduce -> inception_1a/double_3x3_reduce
I1018 17:18:15.719344  2890 net.cpp:141] Setting up inception_1a/double_3x3_reduce
I1018 17:18:15.719355  2890 net.cpp:148] Top shape: 45 64 72 28 (5806080)
I1018 17:18:15.719358  2890 net.cpp:156] Memory required for data: 712696500
I1018 17:18:15.719363  2890 layer_factory.hpp:77] Creating layer inception_1a/double_3x3_reduce_bn
I1018 17:18:15.719367  2890 layer_factory.cpp:265] Layer inception_1a/double_3x3_reduce_bn is using CAFFE engine.
I1018 17:18:15.719380  2890 net.cpp:91] Creating Layer inception_1a/double_3x3_reduce_bn
I1018 17:18:15.719383  2890 net.cpp:435] inception_1a/double_3x3_reduce_bn <- inception_1a/double_3x3_reduce
I1018 17:18:15.719388  2890 net.cpp:409] inception_1a/double_3x3_reduce_bn -> inception_1a/double_3x3_reduce_bn
I1018 17:18:15.719547  2890 net.cpp:141] Setting up inception_1a/double_3x3_reduce_bn
I1018 17:18:15.719552  2890 net.cpp:148] Top shape: 45 64 72 28 (5806080)
I1018 17:18:15.719564  2890 net.cpp:156] Memory required for data: 735920820
I1018 17:18:15.719570  2890 layer_factory.hpp:77] Creating layer inception_1a/relu_double_3x3_reduce
I1018 17:18:15.719574  2890 net.cpp:91] Creating Layer inception_1a/relu_double_3x3_reduce
I1018 17:18:15.719578  2890 net.cpp:435] inception_1a/relu_double_3x3_reduce <- inception_1a/double_3x3_reduce_bn
I1018 17:18:15.719581  2890 net.cpp:396] inception_1a/relu_double_3x3_reduce -> inception_1a/double_3x3_reduce_bn (in-place)
I1018 17:18:15.719704  2890 net.cpp:141] Setting up inception_1a/relu_double_3x3_reduce
I1018 17:18:15.719712  2890 net.cpp:148] Top shape: 45 64 72 28 (5806080)
I1018 17:18:15.719723  2890 net.cpp:156] Memory required for data: 759145140
I1018 17:18:15.719727  2890 layer_factory.hpp:77] Creating layer inception_1a/double_3x3_1
I1018 17:18:15.719733  2890 net.cpp:91] Creating Layer inception_1a/double_3x3_1
I1018 17:18:15.719736  2890 net.cpp:435] inception_1a/double_3x3_1 <- inception_1a/double_3x3_reduce_bn
I1018 17:18:15.719740  2890 net.cpp:409] inception_1a/double_3x3_1 -> inception_1a/double_3x3_1
I1018 17:18:15.721093  2890 net.cpp:141] Setting up inception_1a/double_3x3_1
I1018 17:18:15.721105  2890 net.cpp:148] Top shape: 45 64 72 28 (5806080)
I1018 17:18:15.721108  2890 net.cpp:156] Memory required for data: 782369460
I1018 17:18:15.721113  2890 layer_factory.hpp:77] Creating layer inception_1a/double_3x3_1_bn
I1018 17:18:15.721117  2890 layer_factory.cpp:265] Layer inception_1a/double_3x3_1_bn is using CAFFE engine.
I1018 17:18:15.721122  2890 net.cpp:91] Creating Layer inception_1a/double_3x3_1_bn
I1018 17:18:15.721124  2890 net.cpp:435] inception_1a/double_3x3_1_bn <- inception_1a/double_3x3_1
I1018 17:18:15.721138  2890 net.cpp:409] inception_1a/double_3x3_1_bn -> inception_1a/double_3x3_1_bn
I1018 17:18:15.721303  2890 net.cpp:141] Setting up inception_1a/double_3x3_1_bn
I1018 17:18:15.721310  2890 net.cpp:148] Top shape: 45 64 72 28 (5806080)
I1018 17:18:15.721312  2890 net.cpp:156] Memory required for data: 805593780
I1018 17:18:15.721318  2890 layer_factory.hpp:77] Creating layer inception_1a/relu_double_3x3_1
I1018 17:18:15.721323  2890 net.cpp:91] Creating Layer inception_1a/relu_double_3x3_1
I1018 17:18:15.721325  2890 net.cpp:435] inception_1a/relu_double_3x3_1 <- inception_1a/double_3x3_1_bn
I1018 17:18:15.721328  2890 net.cpp:396] inception_1a/relu_double_3x3_1 -> inception_1a/double_3x3_1_bn (in-place)
I1018 17:18:15.721459  2890 net.cpp:141] Setting up inception_1a/relu_double_3x3_1
I1018 17:18:15.721467  2890 net.cpp:148] Top shape: 45 64 72 28 (5806080)
I1018 17:18:15.721478  2890 net.cpp:156] Memory required for data: 828818100
I1018 17:18:15.721480  2890 layer_factory.hpp:77] Creating layer inception_1a/double_3x3_2
I1018 17:18:15.721488  2890 net.cpp:91] Creating Layer inception_1a/double_3x3_2
I1018 17:18:15.721500  2890 net.cpp:435] inception_1a/double_3x3_2 <- inception_1a/double_3x3_1_bn
I1018 17:18:15.721505  2890 net.cpp:409] inception_1a/double_3x3_2 -> inception_1a/double_3x3_2
I1018 17:18:15.722870  2890 net.cpp:141] Setting up inception_1a/double_3x3_2
I1018 17:18:15.722892  2890 net.cpp:148] Top shape: 45 64 72 28 (5806080)
I1018 17:18:15.722894  2890 net.cpp:156] Memory required for data: 852042420
I1018 17:18:15.722900  2890 layer_factory.hpp:77] Creating layer inception_1a/double_3x3_2_bn
I1018 17:18:15.722903  2890 layer_factory.cpp:265] Layer inception_1a/double_3x3_2_bn is using CAFFE engine.
I1018 17:18:15.722918  2890 net.cpp:91] Creating Layer inception_1a/double_3x3_2_bn
I1018 17:18:15.722921  2890 net.cpp:435] inception_1a/double_3x3_2_bn <- inception_1a/double_3x3_2
I1018 17:18:15.722926  2890 net.cpp:409] inception_1a/double_3x3_2_bn -> inception_1a/double_3x3_2_bn
I1018 17:18:15.723168  2890 net.cpp:141] Setting up inception_1a/double_3x3_2_bn
I1018 17:18:15.723186  2890 net.cpp:148] Top shape: 45 64 72 28 (5806080)
I1018 17:18:15.723188  2890 net.cpp:156] Memory required for data: 875266740
I1018 17:18:15.723203  2890 layer_factory.hpp:77] Creating layer inception_1a/relu_double_3x3_2
I1018 17:18:15.723208  2890 net.cpp:91] Creating Layer inception_1a/relu_double_3x3_2
I1018 17:18:15.723212  2890 net.cpp:435] inception_1a/relu_double_3x3_2 <- inception_1a/double_3x3_2_bn
I1018 17:18:15.723214  2890 net.cpp:396] inception_1a/relu_double_3x3_2 -> inception_1a/double_3x3_2_bn (in-place)
I1018 17:18:15.723978  2890 net.cpp:141] Setting up inception_1a/relu_double_3x3_2
I1018 17:18:15.723989  2890 net.cpp:148] Top shape: 45 64 72 28 (5806080)
I1018 17:18:15.723992  2890 net.cpp:156] Memory required for data: 898491060
I1018 17:18:15.723995  2890 layer_factory.hpp:77] Creating layer inception_1a/pool
I1018 17:18:15.724001  2890 net.cpp:91] Creating Layer inception_1a/pool
I1018 17:18:15.724004  2890 net.cpp:435] inception_1a/pool <- pool1_pool1_0_split_3
I1018 17:18:15.724009  2890 net.cpp:409] inception_1a/pool -> inception_1a/pool
I1018 17:18:15.724144  2890 net.cpp:141] Setting up inception_1a/pool
I1018 17:18:15.724153  2890 net.cpp:148] Top shape: 45 32 72 28 (2903040)
I1018 17:18:15.724155  2890 net.cpp:156] Memory required for data: 910103220
I1018 17:18:15.724158  2890 layer_factory.hpp:77] Creating layer inception_1a/pool_proj
I1018 17:18:15.724164  2890 net.cpp:91] Creating Layer inception_1a/pool_proj
I1018 17:18:15.724167  2890 net.cpp:435] inception_1a/pool_proj <- inception_1a/pool
I1018 17:18:15.724172  2890 net.cpp:409] inception_1a/pool_proj -> inception_1a/pool_proj
I1018 17:18:15.725162  2890 net.cpp:141] Setting up inception_1a/pool_proj
I1018 17:18:15.725173  2890 net.cpp:148] Top shape: 45 64 72 28 (5806080)
I1018 17:18:15.725177  2890 net.cpp:156] Memory required for data: 933327540
I1018 17:18:15.725181  2890 layer_factory.hpp:77] Creating layer inception_1a/pool_proj_bn
I1018 17:18:15.725184  2890 layer_factory.cpp:265] Layer inception_1a/pool_proj_bn is using CAFFE engine.
I1018 17:18:15.725199  2890 net.cpp:91] Creating Layer inception_1a/pool_proj_bn
I1018 17:18:15.725203  2890 net.cpp:435] inception_1a/pool_proj_bn <- inception_1a/pool_proj
I1018 17:18:15.725208  2890 net.cpp:409] inception_1a/pool_proj_bn -> inception_1a/pool_proj_bn
I1018 17:18:15.725373  2890 net.cpp:141] Setting up inception_1a/pool_proj_bn
I1018 17:18:15.725379  2890 net.cpp:148] Top shape: 45 64 72 28 (5806080)
I1018 17:18:15.725381  2890 net.cpp:156] Memory required for data: 956551860
I1018 17:18:15.725388  2890 layer_factory.hpp:77] Creating layer inception_1a/relu_pool_proj
I1018 17:18:15.725391  2890 net.cpp:91] Creating Layer inception_1a/relu_pool_proj
I1018 17:18:15.725394  2890 net.cpp:435] inception_1a/relu_pool_proj <- inception_1a/pool_proj_bn
I1018 17:18:15.725406  2890 net.cpp:396] inception_1a/relu_pool_proj -> inception_1a/pool_proj_bn (in-place)
I1018 17:18:15.725539  2890 net.cpp:141] Setting up inception_1a/relu_pool_proj
I1018 17:18:15.725546  2890 net.cpp:148] Top shape: 45 64 72 28 (5806080)
I1018 17:18:15.725549  2890 net.cpp:156] Memory required for data: 979776180
I1018 17:18:15.725551  2890 layer_factory.hpp:77] Creating layer inception_1a/output
I1018 17:18:15.725555  2890 net.cpp:91] Creating Layer inception_1a/output
I1018 17:18:15.725558  2890 net.cpp:435] inception_1a/output <- inception_1a/1x1_bn
I1018 17:18:15.725561  2890 net.cpp:435] inception_1a/output <- inception_1a/3x3_bn
I1018 17:18:15.725575  2890 net.cpp:435] inception_1a/output <- inception_1a/double_3x3_2_bn
I1018 17:18:15.725577  2890 net.cpp:435] inception_1a/output <- inception_1a/pool_proj_bn
I1018 17:18:15.725581  2890 net.cpp:409] inception_1a/output -> inception_1a/output
I1018 17:18:15.725600  2890 net.cpp:141] Setting up inception_1a/output
I1018 17:18:15.725605  2890 net.cpp:148] Top shape: 45 256 72 28 (23224320)
I1018 17:18:15.725607  2890 net.cpp:156] Memory required for data: 1072673460
I1018 17:18:15.725610  2890 layer_factory.hpp:77] Creating layer inception_1a/output_inception_1a/output_0_split
I1018 17:18:15.725625  2890 net.cpp:91] Creating Layer inception_1a/output_inception_1a/output_0_split
I1018 17:18:15.725626  2890 net.cpp:435] inception_1a/output_inception_1a/output_0_split <- inception_1a/output
I1018 17:18:15.725630  2890 net.cpp:409] inception_1a/output_inception_1a/output_0_split -> inception_1a/output_inception_1a/output_0_split_0
I1018 17:18:15.725643  2890 net.cpp:409] inception_1a/output_inception_1a/output_0_split -> inception_1a/output_inception_1a/output_0_split_1
I1018 17:18:15.725647  2890 net.cpp:409] inception_1a/output_inception_1a/output_0_split -> inception_1a/output_inception_1a/output_0_split_2
I1018 17:18:15.725687  2890 net.cpp:141] Setting up inception_1a/output_inception_1a/output_0_split
I1018 17:18:15.725692  2890 net.cpp:148] Top shape: 45 256 72 28 (23224320)
I1018 17:18:15.725704  2890 net.cpp:148] Top shape: 45 256 72 28 (23224320)
I1018 17:18:15.725708  2890 net.cpp:148] Top shape: 45 256 72 28 (23224320)
I1018 17:18:15.725709  2890 net.cpp:156] Memory required for data: 1351365300
I1018 17:18:15.725711  2890 layer_factory.hpp:77] Creating layer inception_1b/3x3_reduce
I1018 17:18:15.725718  2890 net.cpp:91] Creating Layer inception_1b/3x3_reduce
I1018 17:18:15.725720  2890 net.cpp:435] inception_1b/3x3_reduce <- inception_1a/output_inception_1a/output_0_split_0
I1018 17:18:15.725724  2890 net.cpp:409] inception_1b/3x3_reduce -> inception_1b/3x3_reduce
I1018 17:18:15.727191  2890 net.cpp:141] Setting up inception_1b/3x3_reduce
I1018 17:18:15.727212  2890 net.cpp:148] Top shape: 45 64 72 28 (5806080)
I1018 17:18:15.727216  2890 net.cpp:156] Memory required for data: 1374589620
I1018 17:18:15.727221  2890 layer_factory.hpp:77] Creating layer inception_1b/3x3_reduce_bn
I1018 17:18:15.727224  2890 layer_factory.cpp:265] Layer inception_1b/3x3_reduce_bn is using CAFFE engine.
I1018 17:18:15.727229  2890 net.cpp:91] Creating Layer inception_1b/3x3_reduce_bn
I1018 17:18:15.727232  2890 net.cpp:435] inception_1b/3x3_reduce_bn <- inception_1b/3x3_reduce
I1018 17:18:15.727236  2890 net.cpp:409] inception_1b/3x3_reduce_bn -> inception_1b/3x3_reduce_bn
I1018 17:18:15.727404  2890 net.cpp:141] Setting up inception_1b/3x3_reduce_bn
I1018 17:18:15.727411  2890 net.cpp:148] Top shape: 45 64 72 28 (5806080)
I1018 17:18:15.727413  2890 net.cpp:156] Memory required for data: 1397813940
I1018 17:18:15.727422  2890 layer_factory.hpp:77] Creating layer inception_1b/relu_3x3_reduce
I1018 17:18:15.727437  2890 net.cpp:91] Creating Layer inception_1b/relu_3x3_reduce
I1018 17:18:15.727439  2890 net.cpp:435] inception_1b/relu_3x3_reduce <- inception_1b/3x3_reduce_bn
I1018 17:18:15.727443  2890 net.cpp:396] inception_1b/relu_3x3_reduce -> inception_1b/3x3_reduce_bn (in-place)
I1018 17:18:15.727571  2890 net.cpp:141] Setting up inception_1b/relu_3x3_reduce
I1018 17:18:15.727579  2890 net.cpp:148] Top shape: 45 64 72 28 (5806080)
I1018 17:18:15.727597  2890 net.cpp:156] Memory required for data: 1421038260
I1018 17:18:15.727600  2890 layer_factory.hpp:77] Creating layer inception_1b/3x3
I1018 17:18:15.727607  2890 net.cpp:91] Creating Layer inception_1b/3x3
I1018 17:18:15.727619  2890 net.cpp:435] inception_1b/3x3 <- inception_1b/3x3_reduce_bn
I1018 17:18:15.727625  2890 net.cpp:409] inception_1b/3x3 -> inception_1b/3x3
I1018 17:18:15.729243  2890 net.cpp:141] Setting up inception_1b/3x3
I1018 17:18:15.729254  2890 net.cpp:148] Top shape: 45 64 36 14 (1451520)
I1018 17:18:15.729256  2890 net.cpp:156] Memory required for data: 1426844340
I1018 17:18:15.729261  2890 layer_factory.hpp:77] Creating layer inception_1b/3x3_bn
I1018 17:18:15.729265  2890 layer_factory.cpp:265] Layer inception_1b/3x3_bn is using CAFFE engine.
I1018 17:18:15.729279  2890 net.cpp:91] Creating Layer inception_1b/3x3_bn
I1018 17:18:15.729282  2890 net.cpp:435] inception_1b/3x3_bn <- inception_1b/3x3
I1018 17:18:15.729287  2890 net.cpp:409] inception_1b/3x3_bn -> inception_1b/3x3_bn
I1018 17:18:15.729459  2890 net.cpp:141] Setting up inception_1b/3x3_bn
I1018 17:18:15.729465  2890 net.cpp:148] Top shape: 45 64 36 14 (1451520)
I1018 17:18:15.729467  2890 net.cpp:156] Memory required for data: 1432650420
I1018 17:18:15.729473  2890 layer_factory.hpp:77] Creating layer inception_1b/relu_3x3
I1018 17:18:15.729477  2890 net.cpp:91] Creating Layer inception_1b/relu_3x3
I1018 17:18:15.729480  2890 net.cpp:435] inception_1b/relu_3x3 <- inception_1b/3x3_bn
I1018 17:18:15.729482  2890 net.cpp:396] inception_1b/relu_3x3 -> inception_1b/3x3_bn (in-place)
I1018 17:18:15.729620  2890 net.cpp:141] Setting up inception_1b/relu_3x3
I1018 17:18:15.729629  2890 net.cpp:148] Top shape: 45 64 36 14 (1451520)
I1018 17:18:15.729630  2890 net.cpp:156] Memory required for data: 1438456500
I1018 17:18:15.729634  2890 layer_factory.hpp:77] Creating layer inception_1b/double_3x3_reduce
I1018 17:18:15.729640  2890 net.cpp:91] Creating Layer inception_1b/double_3x3_reduce
I1018 17:18:15.729642  2890 net.cpp:435] inception_1b/double_3x3_reduce <- inception_1a/output_inception_1a/output_0_split_1
I1018 17:18:15.729647  2890 net.cpp:409] inception_1b/double_3x3_reduce -> inception_1b/double_3x3_reduce
I1018 17:18:15.730723  2890 net.cpp:141] Setting up inception_1b/double_3x3_reduce
I1018 17:18:15.730734  2890 net.cpp:148] Top shape: 45 64 72 28 (5806080)
I1018 17:18:15.730747  2890 net.cpp:156] Memory required for data: 1461680820
I1018 17:18:15.730752  2890 layer_factory.hpp:77] Creating layer inception_1b/double_3x3_reduce_bn
I1018 17:18:15.730756  2890 layer_factory.cpp:265] Layer inception_1b/double_3x3_reduce_bn is using CAFFE engine.
I1018 17:18:15.730760  2890 net.cpp:91] Creating Layer inception_1b/double_3x3_reduce_bn
I1018 17:18:15.730772  2890 net.cpp:435] inception_1b/double_3x3_reduce_bn <- inception_1b/double_3x3_reduce
I1018 17:18:15.730777  2890 net.cpp:409] inception_1b/double_3x3_reduce_bn -> inception_1b/double_3x3_reduce_bn
I1018 17:18:15.730948  2890 net.cpp:141] Setting up inception_1b/double_3x3_reduce_bn
I1018 17:18:15.730955  2890 net.cpp:148] Top shape: 45 64 72 28 (5806080)
I1018 17:18:15.730957  2890 net.cpp:156] Memory required for data: 1484905140
I1018 17:18:15.730963  2890 layer_factory.hpp:77] Creating layer inception_1b/relu_double_3x3_reduce
I1018 17:18:15.730983  2890 net.cpp:91] Creating Layer inception_1b/relu_double_3x3_reduce
I1018 17:18:15.730986  2890 net.cpp:435] inception_1b/relu_double_3x3_reduce <- inception_1b/double_3x3_reduce_bn
I1018 17:18:15.730999  2890 net.cpp:396] inception_1b/relu_double_3x3_reduce -> inception_1b/double_3x3_reduce_bn (in-place)
I1018 17:18:15.731590  2890 net.cpp:141] Setting up inception_1b/relu_double_3x3_reduce
I1018 17:18:15.731601  2890 net.cpp:148] Top shape: 45 64 72 28 (5806080)
I1018 17:18:15.731604  2890 net.cpp:156] Memory required for data: 1508129460
I1018 17:18:15.731607  2890 layer_factory.hpp:77] Creating layer inception_1b/double_3x3_1
I1018 17:18:15.731613  2890 net.cpp:91] Creating Layer inception_1b/double_3x3_1
I1018 17:18:15.731616  2890 net.cpp:435] inception_1b/double_3x3_1 <- inception_1b/double_3x3_reduce_bn
I1018 17:18:15.731621  2890 net.cpp:409] inception_1b/double_3x3_1 -> inception_1b/double_3x3_1
I1018 17:18:15.732378  2890 net.cpp:141] Setting up inception_1b/double_3x3_1
I1018 17:18:15.732386  2890 net.cpp:148] Top shape: 45 64 72 28 (5806080)
I1018 17:18:15.732389  2890 net.cpp:156] Memory required for data: 1531353780
I1018 17:18:15.732394  2890 layer_factory.hpp:77] Creating layer inception_1b/double_3x3_1_bn
I1018 17:18:15.732398  2890 layer_factory.cpp:265] Layer inception_1b/double_3x3_1_bn is using CAFFE engine.
I1018 17:18:15.732403  2890 net.cpp:91] Creating Layer inception_1b/double_3x3_1_bn
I1018 17:18:15.732405  2890 net.cpp:435] inception_1b/double_3x3_1_bn <- inception_1b/double_3x3_1
I1018 17:18:15.732419  2890 net.cpp:409] inception_1b/double_3x3_1_bn -> inception_1b/double_3x3_1_bn
I1018 17:18:15.732580  2890 net.cpp:141] Setting up inception_1b/double_3x3_1_bn
I1018 17:18:15.732587  2890 net.cpp:148] Top shape: 45 64 72 28 (5806080)
I1018 17:18:15.732589  2890 net.cpp:156] Memory required for data: 1554578100
I1018 17:18:15.732594  2890 layer_factory.hpp:77] Creating layer inception_1b/relu_double_3x3_1
I1018 17:18:15.732599  2890 net.cpp:91] Creating Layer inception_1b/relu_double_3x3_1
I1018 17:18:15.732601  2890 net.cpp:435] inception_1b/relu_double_3x3_1 <- inception_1b/double_3x3_1_bn
I1018 17:18:15.732604  2890 net.cpp:396] inception_1b/relu_double_3x3_1 -> inception_1b/double_3x3_1_bn (in-place)
I1018 17:18:15.733184  2890 net.cpp:141] Setting up inception_1b/relu_double_3x3_1
I1018 17:18:15.733196  2890 net.cpp:148] Top shape: 45 64 72 28 (5806080)
I1018 17:18:15.733198  2890 net.cpp:156] Memory required for data: 1577802420
I1018 17:18:15.733201  2890 layer_factory.hpp:77] Creating layer inception_1b/double_3x3_2
I1018 17:18:15.733209  2890 net.cpp:91] Creating Layer inception_1b/double_3x3_2
I1018 17:18:15.733212  2890 net.cpp:435] inception_1b/double_3x3_2 <- inception_1b/double_3x3_1_bn
I1018 17:18:15.733227  2890 net.cpp:409] inception_1b/double_3x3_2 -> inception_1b/double_3x3_2
I1018 17:18:15.734428  2890 net.cpp:141] Setting up inception_1b/double_3x3_2
I1018 17:18:15.734441  2890 net.cpp:148] Top shape: 45 64 36 14 (1451520)
I1018 17:18:15.734442  2890 net.cpp:156] Memory required for data: 1583608500
I1018 17:18:15.734447  2890 layer_factory.hpp:77] Creating layer inception_1b/double_3x3_2_bn
I1018 17:18:15.734450  2890 layer_factory.cpp:265] Layer inception_1b/double_3x3_2_bn is using CAFFE engine.
I1018 17:18:15.734457  2890 net.cpp:91] Creating Layer inception_1b/double_3x3_2_bn
I1018 17:18:15.734460  2890 net.cpp:435] inception_1b/double_3x3_2_bn <- inception_1b/double_3x3_2
I1018 17:18:15.734473  2890 net.cpp:409] inception_1b/double_3x3_2_bn -> inception_1b/double_3x3_2_bn
I1018 17:18:15.734647  2890 net.cpp:141] Setting up inception_1b/double_3x3_2_bn
I1018 17:18:15.734653  2890 net.cpp:148] Top shape: 45 64 36 14 (1451520)
I1018 17:18:15.734665  2890 net.cpp:156] Memory required for data: 1589414580
I1018 17:18:15.734673  2890 layer_factory.hpp:77] Creating layer inception_1b/relu_double_3x3_2
I1018 17:18:15.734676  2890 net.cpp:91] Creating Layer inception_1b/relu_double_3x3_2
I1018 17:18:15.734679  2890 net.cpp:435] inception_1b/relu_double_3x3_2 <- inception_1b/double_3x3_2_bn
I1018 17:18:15.734683  2890 net.cpp:396] inception_1b/relu_double_3x3_2 -> inception_1b/double_3x3_2_bn (in-place)
I1018 17:18:15.734813  2890 net.cpp:141] Setting up inception_1b/relu_double_3x3_2
I1018 17:18:15.734822  2890 net.cpp:148] Top shape: 45 64 36 14 (1451520)
I1018 17:18:15.734834  2890 net.cpp:156] Memory required for data: 1595220660
I1018 17:18:15.734836  2890 layer_factory.hpp:77] Creating layer inception_1b/pool
I1018 17:18:15.734841  2890 net.cpp:91] Creating Layer inception_1b/pool
I1018 17:18:15.734844  2890 net.cpp:435] inception_1b/pool <- inception_1a/output_inception_1a/output_0_split_2
I1018 17:18:15.734849  2890 net.cpp:409] inception_1b/pool -> inception_1b/pool
I1018 17:18:15.734890  2890 net.cpp:141] Setting up inception_1b/pool
I1018 17:18:15.734896  2890 net.cpp:148] Top shape: 45 256 36 14 (5806080)
I1018 17:18:15.734907  2890 net.cpp:156] Memory required for data: 1618444980
I1018 17:18:15.734910  2890 layer_factory.hpp:77] Creating layer inception_1b/output
I1018 17:18:15.734915  2890 net.cpp:91] Creating Layer inception_1b/output
I1018 17:18:15.734918  2890 net.cpp:435] inception_1b/output <- inception_1b/3x3_bn
I1018 17:18:15.734921  2890 net.cpp:435] inception_1b/output <- inception_1b/double_3x3_2_bn
I1018 17:18:15.734925  2890 net.cpp:435] inception_1b/output <- inception_1b/pool
I1018 17:18:15.734928  2890 net.cpp:409] inception_1b/output -> inception_1b/output
I1018 17:18:15.734946  2890 net.cpp:141] Setting up inception_1b/output
I1018 17:18:15.734951  2890 net.cpp:148] Top shape: 45 384 36 14 (8709120)
I1018 17:18:15.734961  2890 net.cpp:156] Memory required for data: 1653281460
I1018 17:18:15.734964  2890 layer_factory.hpp:77] Creating layer inception_1b/output_inception_1b/output_0_split
I1018 17:18:15.734979  2890 net.cpp:91] Creating Layer inception_1b/output_inception_1b/output_0_split
I1018 17:18:15.734982  2890 net.cpp:435] inception_1b/output_inception_1b/output_0_split <- inception_1b/output
I1018 17:18:15.734987  2890 net.cpp:409] inception_1b/output_inception_1b/output_0_split -> inception_1b/output_inception_1b/output_0_split_0
I1018 17:18:15.734990  2890 net.cpp:409] inception_1b/output_inception_1b/output_0_split -> inception_1b/output_inception_1b/output_0_split_1
I1018 17:18:15.734995  2890 net.cpp:409] inception_1b/output_inception_1b/output_0_split -> inception_1b/output_inception_1b/output_0_split_2
I1018 17:18:15.734999  2890 net.cpp:409] inception_1b/output_inception_1b/output_0_split -> inception_1b/output_inception_1b/output_0_split_3
I1018 17:18:15.735049  2890 net.cpp:141] Setting up inception_1b/output_inception_1b/output_0_split
I1018 17:18:15.735054  2890 net.cpp:148] Top shape: 45 384 36 14 (8709120)
I1018 17:18:15.735066  2890 net.cpp:148] Top shape: 45 384 36 14 (8709120)
I1018 17:18:15.735069  2890 net.cpp:148] Top shape: 45 384 36 14 (8709120)
I1018 17:18:15.735071  2890 net.cpp:148] Top shape: 45 384 36 14 (8709120)
I1018 17:18:15.735074  2890 net.cpp:156] Memory required for data: 1792627380
I1018 17:18:15.735075  2890 layer_factory.hpp:77] Creating layer inception_2a/1x1
I1018 17:18:15.735082  2890 net.cpp:91] Creating Layer inception_2a/1x1
I1018 17:18:15.735085  2890 net.cpp:435] inception_2a/1x1 <- inception_1b/output_inception_1b/output_0_split_0
I1018 17:18:15.735090  2890 net.cpp:409] inception_2a/1x1 -> inception_2a/1x1
I1018 17:18:15.737027  2890 net.cpp:141] Setting up inception_2a/1x1
I1018 17:18:15.737041  2890 net.cpp:148] Top shape: 45 128 36 14 (2903040)
I1018 17:18:15.737045  2890 net.cpp:156] Memory required for data: 1804239540
I1018 17:18:15.737061  2890 layer_factory.hpp:77] Creating layer inception_2a/1x1_bn
I1018 17:18:15.737063  2890 layer_factory.cpp:265] Layer inception_2a/1x1_bn is using CAFFE engine.
I1018 17:18:15.737071  2890 net.cpp:91] Creating Layer inception_2a/1x1_bn
I1018 17:18:15.737073  2890 net.cpp:435] inception_2a/1x1_bn <- inception_2a/1x1
I1018 17:18:15.737078  2890 net.cpp:409] inception_2a/1x1_bn -> inception_2a/1x1_bn
I1018 17:18:15.737242  2890 net.cpp:141] Setting up inception_2a/1x1_bn
I1018 17:18:15.737249  2890 net.cpp:148] Top shape: 45 128 36 14 (2903040)
I1018 17:18:15.737251  2890 net.cpp:156] Memory required for data: 1815851700
I1018 17:18:15.737257  2890 layer_factory.hpp:77] Creating layer inception_2a/relu_1x1
I1018 17:18:15.737262  2890 net.cpp:91] Creating Layer inception_2a/relu_1x1
I1018 17:18:15.737264  2890 net.cpp:435] inception_2a/relu_1x1 <- inception_2a/1x1_bn
I1018 17:18:15.737268  2890 net.cpp:396] inception_2a/relu_1x1 -> inception_2a/1x1_bn (in-place)
I1018 17:18:15.737411  2890 net.cpp:141] Setting up inception_2a/relu_1x1
I1018 17:18:15.737418  2890 net.cpp:148] Top shape: 45 128 36 14 (2903040)
I1018 17:18:15.737421  2890 net.cpp:156] Memory required for data: 1827463860
I1018 17:18:15.737423  2890 layer_factory.hpp:77] Creating layer inception_2a/3x3_reduce
I1018 17:18:15.737432  2890 net.cpp:91] Creating Layer inception_2a/3x3_reduce
I1018 17:18:15.737443  2890 net.cpp:435] inception_2a/3x3_reduce <- inception_1b/output_inception_1b/output_0_split_1
I1018 17:18:15.737448  2890 net.cpp:409] inception_2a/3x3_reduce -> inception_2a/3x3_reduce
I1018 17:18:15.738709  2890 net.cpp:141] Setting up inception_2a/3x3_reduce
I1018 17:18:15.738720  2890 net.cpp:148] Top shape: 45 128 36 14 (2903040)
I1018 17:18:15.738723  2890 net.cpp:156] Memory required for data: 1839076020
I1018 17:18:15.738729  2890 layer_factory.hpp:77] Creating layer inception_2a/3x3_reduce_bn
I1018 17:18:15.738731  2890 layer_factory.cpp:265] Layer inception_2a/3x3_reduce_bn is using CAFFE engine.
I1018 17:18:15.738747  2890 net.cpp:91] Creating Layer inception_2a/3x3_reduce_bn
I1018 17:18:15.738750  2890 net.cpp:435] inception_2a/3x3_reduce_bn <- inception_2a/3x3_reduce
I1018 17:18:15.738755  2890 net.cpp:409] inception_2a/3x3_reduce_bn -> inception_2a/3x3_reduce_bn
I1018 17:18:15.738917  2890 net.cpp:141] Setting up inception_2a/3x3_reduce_bn
I1018 17:18:15.738924  2890 net.cpp:148] Top shape: 45 128 36 14 (2903040)
I1018 17:18:15.738936  2890 net.cpp:156] Memory required for data: 1850688180
I1018 17:18:15.738942  2890 layer_factory.hpp:77] Creating layer inception_2a/relu_3x3_reduce
I1018 17:18:15.738956  2890 net.cpp:91] Creating Layer inception_2a/relu_3x3_reduce
I1018 17:18:15.738960  2890 net.cpp:435] inception_2a/relu_3x3_reduce <- inception_2a/3x3_reduce_bn
I1018 17:18:15.738963  2890 net.cpp:396] inception_2a/relu_3x3_reduce -> inception_2a/3x3_reduce_bn (in-place)
I1018 17:18:15.739128  2890 net.cpp:141] Setting up inception_2a/relu_3x3_reduce
I1018 17:18:15.739145  2890 net.cpp:148] Top shape: 45 128 36 14 (2903040)
I1018 17:18:15.739148  2890 net.cpp:156] Memory required for data: 1862300340
I1018 17:18:15.739151  2890 layer_factory.hpp:77] Creating layer inception_2a/3x3
I1018 17:18:15.739158  2890 net.cpp:91] Creating Layer inception_2a/3x3
I1018 17:18:15.739161  2890 net.cpp:435] inception_2a/3x3 <- inception_2a/3x3_reduce_bn
I1018 17:18:15.739176  2890 net.cpp:409] inception_2a/3x3 -> inception_2a/3x3
I1018 17:18:15.742339  2890 net.cpp:141] Setting up inception_2a/3x3
I1018 17:18:15.742355  2890 net.cpp:148] Top shape: 45 128 36 14 (2903040)
I1018 17:18:15.742358  2890 net.cpp:156] Memory required for data: 1873912500
I1018 17:18:15.742365  2890 layer_factory.hpp:77] Creating layer inception_2a/3x3_bn
I1018 17:18:15.742369  2890 layer_factory.cpp:265] Layer inception_2a/3x3_bn is using CAFFE engine.
I1018 17:18:15.742377  2890 net.cpp:91] Creating Layer inception_2a/3x3_bn
I1018 17:18:15.742382  2890 net.cpp:435] inception_2a/3x3_bn <- inception_2a/3x3
I1018 17:18:15.742388  2890 net.cpp:409] inception_2a/3x3_bn -> inception_2a/3x3_bn
I1018 17:18:15.742558  2890 net.cpp:141] Setting up inception_2a/3x3_bn
I1018 17:18:15.742563  2890 net.cpp:148] Top shape: 45 128 36 14 (2903040)
I1018 17:18:15.742566  2890 net.cpp:156] Memory required for data: 1885524660
I1018 17:18:15.742571  2890 layer_factory.hpp:77] Creating layer inception_2a/relu_3x3
I1018 17:18:15.742578  2890 net.cpp:91] Creating Layer inception_2a/relu_3x3
I1018 17:18:15.742580  2890 net.cpp:435] inception_2a/relu_3x3 <- inception_2a/3x3_bn
I1018 17:18:15.742583  2890 net.cpp:396] inception_2a/relu_3x3 -> inception_2a/3x3_bn (in-place)
I1018 17:18:15.742720  2890 net.cpp:141] Setting up inception_2a/relu_3x3
I1018 17:18:15.742727  2890 net.cpp:148] Top shape: 45 128 36 14 (2903040)
I1018 17:18:15.742730  2890 net.cpp:156] Memory required for data: 1897136820
I1018 17:18:15.742733  2890 layer_factory.hpp:77] Creating layer inception_2a/double_3x3_reduce
I1018 17:18:15.742740  2890 net.cpp:91] Creating Layer inception_2a/double_3x3_reduce
I1018 17:18:15.742743  2890 net.cpp:435] inception_2a/double_3x3_reduce <- inception_1b/output_inception_1b/output_0_split_2
I1018 17:18:15.742748  2890 net.cpp:409] inception_2a/double_3x3_reduce -> inception_2a/double_3x3_reduce
I1018 17:18:15.744019  2890 net.cpp:141] Setting up inception_2a/double_3x3_reduce
I1018 17:18:15.744029  2890 net.cpp:148] Top shape: 45 128 36 14 (2903040)
I1018 17:18:15.744032  2890 net.cpp:156] Memory required for data: 1908748980
I1018 17:18:15.744037  2890 layer_factory.hpp:77] Creating layer inception_2a/double_3x3_reduce_bn
I1018 17:18:15.744040  2890 layer_factory.cpp:265] Layer inception_2a/double_3x3_reduce_bn is using CAFFE engine.
I1018 17:18:15.744047  2890 net.cpp:91] Creating Layer inception_2a/double_3x3_reduce_bn
I1018 17:18:15.744050  2890 net.cpp:435] inception_2a/double_3x3_reduce_bn <- inception_2a/double_3x3_reduce
I1018 17:18:15.744066  2890 net.cpp:409] inception_2a/double_3x3_reduce_bn -> inception_2a/double_3x3_reduce_bn
I1018 17:18:15.744230  2890 net.cpp:141] Setting up inception_2a/double_3x3_reduce_bn
I1018 17:18:15.744236  2890 net.cpp:148] Top shape: 45 128 36 14 (2903040)
I1018 17:18:15.744238  2890 net.cpp:156] Memory required for data: 1920361140
I1018 17:18:15.744244  2890 layer_factory.hpp:77] Creating layer inception_2a/relu_double_3x3_reduce
I1018 17:18:15.744248  2890 net.cpp:91] Creating Layer inception_2a/relu_double_3x3_reduce
I1018 17:18:15.744251  2890 net.cpp:435] inception_2a/relu_double_3x3_reduce <- inception_2a/double_3x3_reduce_bn
I1018 17:18:15.744254  2890 net.cpp:396] inception_2a/relu_double_3x3_reduce -> inception_2a/double_3x3_reduce_bn (in-place)
I1018 17:18:15.744840  2890 net.cpp:141] Setting up inception_2a/relu_double_3x3_reduce
I1018 17:18:15.744851  2890 net.cpp:148] Top shape: 45 128 36 14 (2903040)
I1018 17:18:15.744853  2890 net.cpp:156] Memory required for data: 1931973300
I1018 17:18:15.744856  2890 layer_factory.hpp:77] Creating layer inception_2a/double_3x3_1
I1018 17:18:15.744864  2890 net.cpp:91] Creating Layer inception_2a/double_3x3_1
I1018 17:18:15.744868  2890 net.cpp:435] inception_2a/double_3x3_1 <- inception_2a/double_3x3_reduce_bn
I1018 17:18:15.744882  2890 net.cpp:409] inception_2a/double_3x3_1 -> inception_2a/double_3x3_1
I1018 17:18:15.746608  2890 net.cpp:141] Setting up inception_2a/double_3x3_1
I1018 17:18:15.746619  2890 net.cpp:148] Top shape: 45 128 36 14 (2903040)
I1018 17:18:15.746623  2890 net.cpp:156] Memory required for data: 1943585460
I1018 17:18:15.746628  2890 layer_factory.hpp:77] Creating layer inception_2a/double_3x3_1_bn
I1018 17:18:15.746630  2890 layer_factory.cpp:265] Layer inception_2a/double_3x3_1_bn is using CAFFE engine.
I1018 17:18:15.746636  2890 net.cpp:91] Creating Layer inception_2a/double_3x3_1_bn
I1018 17:18:15.746639  2890 net.cpp:435] inception_2a/double_3x3_1_bn <- inception_2a/double_3x3_1
I1018 17:18:15.746654  2890 net.cpp:409] inception_2a/double_3x3_1_bn -> inception_2a/double_3x3_1_bn
I1018 17:18:15.746822  2890 net.cpp:141] Setting up inception_2a/double_3x3_1_bn
I1018 17:18:15.746829  2890 net.cpp:148] Top shape: 45 128 36 14 (2903040)
I1018 17:18:15.746831  2890 net.cpp:156] Memory required for data: 1955197620
I1018 17:18:15.746836  2890 layer_factory.hpp:77] Creating layer inception_2a/relu_double_3x3_1
I1018 17:18:15.746841  2890 net.cpp:91] Creating Layer inception_2a/relu_double_3x3_1
I1018 17:18:15.746845  2890 net.cpp:435] inception_2a/relu_double_3x3_1 <- inception_2a/double_3x3_1_bn
I1018 17:18:15.746847  2890 net.cpp:396] inception_2a/relu_double_3x3_1 -> inception_2a/double_3x3_1_bn (in-place)
I1018 17:18:15.747431  2890 net.cpp:141] Setting up inception_2a/relu_double_3x3_1
I1018 17:18:15.747442  2890 net.cpp:148] Top shape: 45 128 36 14 (2903040)
I1018 17:18:15.747445  2890 net.cpp:156] Memory required for data: 1966809780
I1018 17:18:15.747447  2890 layer_factory.hpp:77] Creating layer inception_2a/double_3x3_2
I1018 17:18:15.747455  2890 net.cpp:91] Creating Layer inception_2a/double_3x3_2
I1018 17:18:15.747458  2890 net.cpp:435] inception_2a/double_3x3_2 <- inception_2a/double_3x3_1_bn
I1018 17:18:15.747473  2890 net.cpp:409] inception_2a/double_3x3_2 -> inception_2a/double_3x3_2
I1018 17:18:15.749701  2890 net.cpp:141] Setting up inception_2a/double_3x3_2
I1018 17:18:15.749711  2890 net.cpp:148] Top shape: 45 128 36 14 (2903040)
I1018 17:18:15.749714  2890 net.cpp:156] Memory required for data: 1978421940
I1018 17:18:15.749719  2890 layer_factory.hpp:77] Creating layer inception_2a/double_3x3_2_bn
I1018 17:18:15.749722  2890 layer_factory.cpp:265] Layer inception_2a/double_3x3_2_bn is using CAFFE engine.
I1018 17:18:15.749729  2890 net.cpp:91] Creating Layer inception_2a/double_3x3_2_bn
I1018 17:18:15.749740  2890 net.cpp:435] inception_2a/double_3x3_2_bn <- inception_2a/double_3x3_2
I1018 17:18:15.749745  2890 net.cpp:409] inception_2a/double_3x3_2_bn -> inception_2a/double_3x3_2_bn
I1018 17:18:15.749908  2890 net.cpp:141] Setting up inception_2a/double_3x3_2_bn
I1018 17:18:15.749915  2890 net.cpp:148] Top shape: 45 128 36 14 (2903040)
I1018 17:18:15.749917  2890 net.cpp:156] Memory required for data: 1990034100
I1018 17:18:15.749923  2890 layer_factory.hpp:77] Creating layer inception_2a/relu_double_3x3_2
I1018 17:18:15.749928  2890 net.cpp:91] Creating Layer inception_2a/relu_double_3x3_2
I1018 17:18:15.749932  2890 net.cpp:435] inception_2a/relu_double_3x3_2 <- inception_2a/double_3x3_2_bn
I1018 17:18:15.749934  2890 net.cpp:396] inception_2a/relu_double_3x3_2 -> inception_2a/double_3x3_2_bn (in-place)
I1018 17:18:15.750069  2890 net.cpp:141] Setting up inception_2a/relu_double_3x3_2
I1018 17:18:15.750077  2890 net.cpp:148] Top shape: 45 128 36 14 (2903040)
I1018 17:18:15.750079  2890 net.cpp:156] Memory required for data: 2001646260
I1018 17:18:15.750082  2890 layer_factory.hpp:77] Creating layer inception_2a/pool
I1018 17:18:15.750087  2890 net.cpp:91] Creating Layer inception_2a/pool
I1018 17:18:15.750090  2890 net.cpp:435] inception_2a/pool <- inception_1b/output_inception_1b/output_0_split_3
I1018 17:18:15.750095  2890 net.cpp:409] inception_2a/pool -> inception_2a/pool
I1018 17:18:15.750234  2890 net.cpp:141] Setting up inception_2a/pool
I1018 17:18:15.750242  2890 net.cpp:148] Top shape: 45 384 36 14 (8709120)
I1018 17:18:15.750244  2890 net.cpp:156] Memory required for data: 2036482740
I1018 17:18:15.750247  2890 layer_factory.hpp:77] Creating layer inception_2a/pool_proj
I1018 17:18:15.750253  2890 net.cpp:91] Creating Layer inception_2a/pool_proj
I1018 17:18:15.750257  2890 net.cpp:435] inception_2a/pool_proj <- inception_2a/pool
I1018 17:18:15.750262  2890 net.cpp:409] inception_2a/pool_proj -> inception_2a/pool_proj
I1018 17:18:15.751547  2890 net.cpp:141] Setting up inception_2a/pool_proj
I1018 17:18:15.751559  2890 net.cpp:148] Top shape: 45 128 36 14 (2903040)
I1018 17:18:15.751561  2890 net.cpp:156] Memory required for data: 2048094900
I1018 17:18:15.751566  2890 layer_factory.hpp:77] Creating layer inception_2a/pool_proj_bn
I1018 17:18:15.751569  2890 layer_factory.cpp:265] Layer inception_2a/pool_proj_bn is using CAFFE engine.
I1018 17:18:15.751575  2890 net.cpp:91] Creating Layer inception_2a/pool_proj_bn
I1018 17:18:15.751588  2890 net.cpp:435] inception_2a/pool_proj_bn <- inception_2a/pool_proj
I1018 17:18:15.751593  2890 net.cpp:409] inception_2a/pool_proj_bn -> inception_2a/pool_proj_bn
I1018 17:18:15.751771  2890 net.cpp:141] Setting up inception_2a/pool_proj_bn
I1018 17:18:15.751778  2890 net.cpp:148] Top shape: 45 128 36 14 (2903040)
I1018 17:18:15.751781  2890 net.cpp:156] Memory required for data: 2059707060
I1018 17:18:15.751793  2890 layer_factory.hpp:77] Creating layer inception_2a/relu_pool_proj
I1018 17:18:15.751797  2890 net.cpp:91] Creating Layer inception_2a/relu_pool_proj
I1018 17:18:15.751811  2890 net.cpp:435] inception_2a/relu_pool_proj <- inception_2a/pool_proj_bn
I1018 17:18:15.751814  2890 net.cpp:396] inception_2a/relu_pool_proj -> inception_2a/pool_proj_bn (in-place)
I1018 17:18:15.751955  2890 net.cpp:141] Setting up inception_2a/relu_pool_proj
I1018 17:18:15.751963  2890 net.cpp:148] Top shape: 45 128 36 14 (2903040)
I1018 17:18:15.751966  2890 net.cpp:156] Memory required for data: 2071319220
I1018 17:18:15.751968  2890 layer_factory.hpp:77] Creating layer inception_2a/output
I1018 17:18:15.751973  2890 net.cpp:91] Creating Layer inception_2a/output
I1018 17:18:15.751976  2890 net.cpp:435] inception_2a/output <- inception_2a/1x1_bn
I1018 17:18:15.751989  2890 net.cpp:435] inception_2a/output <- inception_2a/3x3_bn
I1018 17:18:15.751992  2890 net.cpp:435] inception_2a/output <- inception_2a/double_3x3_2_bn
I1018 17:18:15.751996  2890 net.cpp:435] inception_2a/output <- inception_2a/pool_proj_bn
I1018 17:18:15.751998  2890 net.cpp:409] inception_2a/output -> inception_2a/output
I1018 17:18:15.752020  2890 net.cpp:141] Setting up inception_2a/output
I1018 17:18:15.752038  2890 net.cpp:148] Top shape: 45 512 36 14 (11612160)
I1018 17:18:15.752041  2890 net.cpp:156] Memory required for data: 2117767860
I1018 17:18:15.752043  2890 layer_factory.hpp:77] Creating layer inception_2a/output_inception_2a/output_0_split
I1018 17:18:15.752048  2890 net.cpp:91] Creating Layer inception_2a/output_inception_2a/output_0_split
I1018 17:18:15.752051  2890 net.cpp:435] inception_2a/output_inception_2a/output_0_split <- inception_2a/output
I1018 17:18:15.752055  2890 net.cpp:409] inception_2a/output_inception_2a/output_0_split -> inception_2a/output_inception_2a/output_0_split_0
I1018 17:18:15.752071  2890 net.cpp:409] inception_2a/output_inception_2a/output_0_split -> inception_2a/output_inception_2a/output_0_split_1
I1018 17:18:15.752076  2890 net.cpp:409] inception_2a/output_inception_2a/output_0_split -> inception_2a/output_inception_2a/output_0_split_2
I1018 17:18:15.752125  2890 net.cpp:141] Setting up inception_2a/output_inception_2a/output_0_split
I1018 17:18:15.752130  2890 net.cpp:148] Top shape: 45 512 36 14 (11612160)
I1018 17:18:15.752133  2890 net.cpp:148] Top shape: 45 512 36 14 (11612160)
I1018 17:18:15.752135  2890 net.cpp:148] Top shape: 45 512 36 14 (11612160)
I1018 17:18:15.752137  2890 net.cpp:156] Memory required for data: 2257113780
I1018 17:18:15.752140  2890 layer_factory.hpp:77] Creating layer inception_2b/3x3_reduce
I1018 17:18:15.752157  2890 net.cpp:91] Creating Layer inception_2b/3x3_reduce
I1018 17:18:15.752159  2890 net.cpp:435] inception_2b/3x3_reduce <- inception_2a/output_inception_2a/output_0_split_0
I1018 17:18:15.752164  2890 net.cpp:409] inception_2b/3x3_reduce -> inception_2b/3x3_reduce
I1018 17:18:15.753499  2890 net.cpp:141] Setting up inception_2b/3x3_reduce
I1018 17:18:15.753509  2890 net.cpp:148] Top shape: 45 128 36 14 (2903040)
I1018 17:18:15.753512  2890 net.cpp:156] Memory required for data: 2268725940
I1018 17:18:15.753517  2890 layer_factory.hpp:77] Creating layer inception_2b/3x3_reduce_bn
I1018 17:18:15.753521  2890 layer_factory.cpp:265] Layer inception_2b/3x3_reduce_bn is using CAFFE engine.
I1018 17:18:15.753535  2890 net.cpp:91] Creating Layer inception_2b/3x3_reduce_bn
I1018 17:18:15.753538  2890 net.cpp:435] inception_2b/3x3_reduce_bn <- inception_2b/3x3_reduce
I1018 17:18:15.753545  2890 net.cpp:409] inception_2b/3x3_reduce_bn -> inception_2b/3x3_reduce_bn
I1018 17:18:15.753711  2890 net.cpp:141] Setting up inception_2b/3x3_reduce_bn
I1018 17:18:15.753717  2890 net.cpp:148] Top shape: 45 128 36 14 (2903040)
I1018 17:18:15.753720  2890 net.cpp:156] Memory required for data: 2280338100
I1018 17:18:15.753726  2890 layer_factory.hpp:77] Creating layer inception_2b/relu_3x3_reduce
I1018 17:18:15.753729  2890 net.cpp:91] Creating Layer inception_2b/relu_3x3_reduce
I1018 17:18:15.753732  2890 net.cpp:435] inception_2b/relu_3x3_reduce <- inception_2b/3x3_reduce_bn
I1018 17:18:15.753746  2890 net.cpp:396] inception_2b/relu_3x3_reduce -> inception_2b/3x3_reduce_bn (in-place)
I1018 17:18:15.753882  2890 net.cpp:141] Setting up inception_2b/relu_3x3_reduce
I1018 17:18:15.753890  2890 net.cpp:148] Top shape: 45 128 36 14 (2903040)
I1018 17:18:15.753891  2890 net.cpp:156] Memory required for data: 2291950260
I1018 17:18:15.753895  2890 layer_factory.hpp:77] Creating layer inception_2b/3x3
I1018 17:18:15.753901  2890 net.cpp:91] Creating Layer inception_2b/3x3
I1018 17:18:15.753904  2890 net.cpp:435] inception_2b/3x3 <- inception_2b/3x3_reduce_bn
I1018 17:18:15.753919  2890 net.cpp:409] inception_2b/3x3 -> inception_2b/3x3
I1018 17:18:15.756346  2890 net.cpp:141] Setting up inception_2b/3x3
I1018 17:18:15.756358  2890 net.cpp:148] Top shape: 45 128 18 7 (725760)
I1018 17:18:15.756361  2890 net.cpp:156] Memory required for data: 2294853300
I1018 17:18:15.756366  2890 layer_factory.hpp:77] Creating layer inception_2b/3x3_bn
I1018 17:18:15.756369  2890 layer_factory.cpp:265] Layer inception_2b/3x3_bn is using CAFFE engine.
I1018 17:18:15.756384  2890 net.cpp:91] Creating Layer inception_2b/3x3_bn
I1018 17:18:15.756388  2890 net.cpp:435] inception_2b/3x3_bn <- inception_2b/3x3
I1018 17:18:15.756392  2890 net.cpp:409] inception_2b/3x3_bn -> inception_2b/3x3_bn
I1018 17:18:15.756558  2890 net.cpp:141] Setting up inception_2b/3x3_bn
I1018 17:18:15.756566  2890 net.cpp:148] Top shape: 45 128 18 7 (725760)
I1018 17:18:15.756567  2890 net.cpp:156] Memory required for data: 2297756340
I1018 17:18:15.756572  2890 layer_factory.hpp:77] Creating layer inception_2b/relu_3x3
I1018 17:18:15.756577  2890 net.cpp:91] Creating Layer inception_2b/relu_3x3
I1018 17:18:15.756579  2890 net.cpp:435] inception_2b/relu_3x3 <- inception_2b/3x3_bn
I1018 17:18:15.756593  2890 net.cpp:396] inception_2b/relu_3x3 -> inception_2b/3x3_bn (in-place)
I1018 17:18:15.757205  2890 net.cpp:141] Setting up inception_2b/relu_3x3
I1018 17:18:15.757215  2890 net.cpp:148] Top shape: 45 128 18 7 (725760)
I1018 17:18:15.757217  2890 net.cpp:156] Memory required for data: 2300659380
I1018 17:18:15.757220  2890 layer_factory.hpp:77] Creating layer inception_2b/double_3x3_reduce
I1018 17:18:15.757227  2890 net.cpp:91] Creating Layer inception_2b/double_3x3_reduce
I1018 17:18:15.757231  2890 net.cpp:435] inception_2b/double_3x3_reduce <- inception_2a/output_inception_2a/output_0_split_1
I1018 17:18:15.757246  2890 net.cpp:409] inception_2b/double_3x3_reduce -> inception_2b/double_3x3_reduce
I1018 17:18:15.759272  2890 net.cpp:141] Setting up inception_2b/double_3x3_reduce
I1018 17:18:15.759284  2890 net.cpp:148] Top shape: 45 128 36 14 (2903040)
I1018 17:18:15.759286  2890 net.cpp:156] Memory required for data: 2312271540
I1018 17:18:15.759291  2890 layer_factory.hpp:77] Creating layer inception_2b/double_3x3_reduce_bn
I1018 17:18:15.759295  2890 layer_factory.cpp:265] Layer inception_2b/double_3x3_reduce_bn is using CAFFE engine.
I1018 17:18:15.759310  2890 net.cpp:91] Creating Layer inception_2b/double_3x3_reduce_bn
I1018 17:18:15.759315  2890 net.cpp:435] inception_2b/double_3x3_reduce_bn <- inception_2b/double_3x3_reduce
I1018 17:18:15.759320  2890 net.cpp:409] inception_2b/double_3x3_reduce_bn -> inception_2b/double_3x3_reduce_bn
I1018 17:18:15.759493  2890 net.cpp:141] Setting up inception_2b/double_3x3_reduce_bn
I1018 17:18:15.759500  2890 net.cpp:148] Top shape: 45 128 36 14 (2903040)
I1018 17:18:15.759502  2890 net.cpp:156] Memory required for data: 2323883700
I1018 17:18:15.759508  2890 layer_factory.hpp:77] Creating layer inception_2b/relu_double_3x3_reduce
I1018 17:18:15.759512  2890 net.cpp:91] Creating Layer inception_2b/relu_double_3x3_reduce
I1018 17:18:15.759515  2890 net.cpp:435] inception_2b/relu_double_3x3_reduce <- inception_2b/double_3x3_reduce_bn
I1018 17:18:15.759528  2890 net.cpp:396] inception_2b/relu_double_3x3_reduce -> inception_2b/double_3x3_reduce_bn (in-place)
I1018 17:18:15.759665  2890 net.cpp:141] Setting up inception_2b/relu_double_3x3_reduce
I1018 17:18:15.759672  2890 net.cpp:148] Top shape: 45 128 36 14 (2903040)
I1018 17:18:15.759675  2890 net.cpp:156] Memory required for data: 2335495860
I1018 17:18:15.759677  2890 layer_factory.hpp:77] Creating layer inception_2b/double_3x3_1
I1018 17:18:15.759685  2890 net.cpp:91] Creating Layer inception_2b/double_3x3_1
I1018 17:18:15.759687  2890 net.cpp:435] inception_2b/double_3x3_1 <- inception_2b/double_3x3_reduce_bn
I1018 17:18:15.759702  2890 net.cpp:409] inception_2b/double_3x3_1 -> inception_2b/double_3x3_1
I1018 17:18:15.761917  2890 net.cpp:141] Setting up inception_2b/double_3x3_1
I1018 17:18:15.761929  2890 net.cpp:148] Top shape: 45 128 36 14 (2903040)
I1018 17:18:15.761931  2890 net.cpp:156] Memory required for data: 2347108020
I1018 17:18:15.761936  2890 layer_factory.hpp:77] Creating layer inception_2b/double_3x3_1_bn
I1018 17:18:15.761940  2890 layer_factory.cpp:265] Layer inception_2b/double_3x3_1_bn is using CAFFE engine.
I1018 17:18:15.761955  2890 net.cpp:91] Creating Layer inception_2b/double_3x3_1_bn
I1018 17:18:15.761958  2890 net.cpp:435] inception_2b/double_3x3_1_bn <- inception_2b/double_3x3_1
I1018 17:18:15.761963  2890 net.cpp:409] inception_2b/double_3x3_1_bn -> inception_2b/double_3x3_1_bn
I1018 17:18:15.762143  2890 net.cpp:141] Setting up inception_2b/double_3x3_1_bn
I1018 17:18:15.762150  2890 net.cpp:148] Top shape: 45 128 36 14 (2903040)
I1018 17:18:15.762152  2890 net.cpp:156] Memory required for data: 2358720180
I1018 17:18:15.762157  2890 layer_factory.hpp:77] Creating layer inception_2b/relu_double_3x3_1
I1018 17:18:15.762162  2890 net.cpp:91] Creating Layer inception_2b/relu_double_3x3_1
I1018 17:18:15.762166  2890 net.cpp:435] inception_2b/relu_double_3x3_1 <- inception_2b/double_3x3_1_bn
I1018 17:18:15.762178  2890 net.cpp:396] inception_2b/relu_double_3x3_1 -> inception_2b/double_3x3_1_bn (in-place)
I1018 17:18:15.762326  2890 net.cpp:141] Setting up inception_2b/relu_double_3x3_1
I1018 17:18:15.762333  2890 net.cpp:148] Top shape: 45 128 36 14 (2903040)
I1018 17:18:15.762336  2890 net.cpp:156] Memory required for data: 2370332340
I1018 17:18:15.762338  2890 layer_factory.hpp:77] Creating layer inception_2b/double_3x3_2
I1018 17:18:15.762346  2890 net.cpp:91] Creating Layer inception_2b/double_3x3_2
I1018 17:18:15.762349  2890 net.cpp:435] inception_2b/double_3x3_2 <- inception_2b/double_3x3_1_bn
I1018 17:18:15.762363  2890 net.cpp:409] inception_2b/double_3x3_2 -> inception_2b/double_3x3_2
I1018 17:18:15.764147  2890 net.cpp:141] Setting up inception_2b/double_3x3_2
I1018 17:18:15.764158  2890 net.cpp:148] Top shape: 45 128 18 7 (725760)
I1018 17:18:15.764160  2890 net.cpp:156] Memory required for data: 2373235380
I1018 17:18:15.764165  2890 layer_factory.hpp:77] Creating layer inception_2b/double_3x3_2_bn
I1018 17:18:15.764168  2890 layer_factory.cpp:265] Layer inception_2b/double_3x3_2_bn is using CAFFE engine.
I1018 17:18:15.764184  2890 net.cpp:91] Creating Layer inception_2b/double_3x3_2_bn
I1018 17:18:15.764187  2890 net.cpp:435] inception_2b/double_3x3_2_bn <- inception_2b/double_3x3_2
I1018 17:18:15.764192  2890 net.cpp:409] inception_2b/double_3x3_2_bn -> inception_2b/double_3x3_2_bn
I1018 17:18:15.764364  2890 net.cpp:141] Setting up inception_2b/double_3x3_2_bn
I1018 17:18:15.764371  2890 net.cpp:148] Top shape: 45 128 18 7 (725760)
I1018 17:18:15.764374  2890 net.cpp:156] Memory required for data: 2376138420
I1018 17:18:15.764379  2890 layer_factory.hpp:77] Creating layer inception_2b/relu_double_3x3_2
I1018 17:18:15.764384  2890 net.cpp:91] Creating Layer inception_2b/relu_double_3x3_2
I1018 17:18:15.764386  2890 net.cpp:435] inception_2b/relu_double_3x3_2 <- inception_2b/double_3x3_2_bn
I1018 17:18:15.764400  2890 net.cpp:396] inception_2b/relu_double_3x3_2 -> inception_2b/double_3x3_2_bn (in-place)
I1018 17:18:15.764539  2890 net.cpp:141] Setting up inception_2b/relu_double_3x3_2
I1018 17:18:15.764545  2890 net.cpp:148] Top shape: 45 128 18 7 (725760)
I1018 17:18:15.764547  2890 net.cpp:156] Memory required for data: 2379041460
I1018 17:18:15.764550  2890 layer_factory.hpp:77] Creating layer inception_2b/pool
I1018 17:18:15.764556  2890 net.cpp:91] Creating Layer inception_2b/pool
I1018 17:18:15.764559  2890 net.cpp:435] inception_2b/pool <- inception_2a/output_inception_2a/output_0_split_2
I1018 17:18:15.764574  2890 net.cpp:409] inception_2b/pool -> inception_2b/pool
I1018 17:18:15.764606  2890 net.cpp:141] Setting up inception_2b/pool
I1018 17:18:15.764621  2890 net.cpp:148] Top shape: 45 512 18 7 (2903040)
I1018 17:18:15.764623  2890 net.cpp:156] Memory required for data: 2390653620
I1018 17:18:15.764626  2890 layer_factory.hpp:77] Creating layer inception_2b/output
I1018 17:18:15.764641  2890 net.cpp:91] Creating Layer inception_2b/output
I1018 17:18:15.764643  2890 net.cpp:435] inception_2b/output <- inception_2b/3x3_bn
I1018 17:18:15.764647  2890 net.cpp:435] inception_2b/output <- inception_2b/double_3x3_2_bn
I1018 17:18:15.764649  2890 net.cpp:435] inception_2b/output <- inception_2b/pool
I1018 17:18:15.764652  2890 net.cpp:409] inception_2b/output -> inception_2b/output
I1018 17:18:15.764672  2890 net.cpp:141] Setting up inception_2b/output
I1018 17:18:15.764689  2890 net.cpp:148] Top shape: 45 768 18 7 (4354560)
I1018 17:18:15.764691  2890 net.cpp:156] Memory required for data: 2408071860
I1018 17:18:15.764693  2890 layer_factory.hpp:77] Creating layer inception_2b/output_inception_2b/output_0_split
I1018 17:18:15.764698  2890 net.cpp:91] Creating Layer inception_2b/output_inception_2b/output_0_split
I1018 17:18:15.764700  2890 net.cpp:435] inception_2b/output_inception_2b/output_0_split <- inception_2b/output
I1018 17:18:15.764704  2890 net.cpp:409] inception_2b/output_inception_2b/output_0_split -> inception_2b/output_inception_2b/output_0_split_0
I1018 17:18:15.764719  2890 net.cpp:409] inception_2b/output_inception_2b/output_0_split -> inception_2b/output_inception_2b/output_0_split_1
I1018 17:18:15.764722  2890 net.cpp:409] inception_2b/output_inception_2b/output_0_split -> inception_2b/output_inception_2b/output_0_split_2
I1018 17:18:15.764726  2890 net.cpp:409] inception_2b/output_inception_2b/output_0_split -> inception_2b/output_inception_2b/output_0_split_3
I1018 17:18:15.764783  2890 net.cpp:141] Setting up inception_2b/output_inception_2b/output_0_split
I1018 17:18:15.764788  2890 net.cpp:148] Top shape: 45 768 18 7 (4354560)
I1018 17:18:15.764791  2890 net.cpp:148] Top shape: 45 768 18 7 (4354560)
I1018 17:18:15.764794  2890 net.cpp:148] Top shape: 45 768 18 7 (4354560)
I1018 17:18:15.764797  2890 net.cpp:148] Top shape: 45 768 18 7 (4354560)
I1018 17:18:15.764799  2890 net.cpp:156] Memory required for data: 2477744820
I1018 17:18:15.764801  2890 layer_factory.hpp:77] Creating layer inception_3a/1x1
I1018 17:18:15.764817  2890 net.cpp:91] Creating Layer inception_3a/1x1
I1018 17:18:15.764819  2890 net.cpp:435] inception_3a/1x1 <- inception_2b/output_inception_2b/output_0_split_0
I1018 17:18:15.764824  2890 net.cpp:409] inception_3a/1x1 -> inception_3a/1x1
I1018 17:18:15.767577  2890 net.cpp:141] Setting up inception_3a/1x1
I1018 17:18:15.767601  2890 net.cpp:148] Top shape: 45 256 18 7 (1451520)
I1018 17:18:15.767604  2890 net.cpp:156] Memory required for data: 2483550900
I1018 17:18:15.767611  2890 layer_factory.hpp:77] Creating layer inception_3a/1x1_bn
I1018 17:18:15.767613  2890 layer_factory.cpp:265] Layer inception_3a/1x1_bn is using CAFFE engine.
I1018 17:18:15.767621  2890 net.cpp:91] Creating Layer inception_3a/1x1_bn
I1018 17:18:15.767626  2890 net.cpp:435] inception_3a/1x1_bn <- inception_3a/1x1
I1018 17:18:15.767629  2890 net.cpp:409] inception_3a/1x1_bn -> inception_3a/1x1_bn
I1018 17:18:15.767841  2890 net.cpp:141] Setting up inception_3a/1x1_bn
I1018 17:18:15.767849  2890 net.cpp:148] Top shape: 45 256 18 7 (1451520)
I1018 17:18:15.767851  2890 net.cpp:156] Memory required for data: 2489356980
I1018 17:18:15.767858  2890 layer_factory.hpp:77] Creating layer inception_3a/relu_1x1
I1018 17:18:15.767863  2890 net.cpp:91] Creating Layer inception_3a/relu_1x1
I1018 17:18:15.767866  2890 net.cpp:435] inception_3a/relu_1x1 <- inception_3a/1x1_bn
I1018 17:18:15.767869  2890 net.cpp:396] inception_3a/relu_1x1 -> inception_3a/1x1_bn (in-place)
I1018 17:18:15.767999  2890 net.cpp:141] Setting up inception_3a/relu_1x1
I1018 17:18:15.768007  2890 net.cpp:148] Top shape: 45 256 18 7 (1451520)
I1018 17:18:15.768010  2890 net.cpp:156] Memory required for data: 2495163060
I1018 17:18:15.768013  2890 layer_factory.hpp:77] Creating layer inception_3a/3x3_reduce
I1018 17:18:15.768021  2890 net.cpp:91] Creating Layer inception_3a/3x3_reduce
I1018 17:18:15.768025  2890 net.cpp:435] inception_3a/3x3_reduce <- inception_2b/output_inception_2b/output_0_split_1
I1018 17:18:15.768030  2890 net.cpp:409] inception_3a/3x3_reduce -> inception_3a/3x3_reduce
I1018 17:18:15.770334  2890 net.cpp:141] Setting up inception_3a/3x3_reduce
I1018 17:18:15.770359  2890 net.cpp:148] Top shape: 45 256 18 7 (1451520)
I1018 17:18:15.770362  2890 net.cpp:156] Memory required for data: 2500969140
I1018 17:18:15.770368  2890 layer_factory.hpp:77] Creating layer inception_3a/3x3_reduce_bn
I1018 17:18:15.770372  2890 layer_factory.cpp:265] Layer inception_3a/3x3_reduce_bn is using CAFFE engine.
I1018 17:18:15.770390  2890 net.cpp:91] Creating Layer inception_3a/3x3_reduce_bn
I1018 17:18:15.770395  2890 net.cpp:435] inception_3a/3x3_reduce_bn <- inception_3a/3x3_reduce
I1018 17:18:15.770400  2890 net.cpp:409] inception_3a/3x3_reduce_bn -> inception_3a/3x3_reduce_bn
I1018 17:18:15.770589  2890 net.cpp:141] Setting up inception_3a/3x3_reduce_bn
I1018 17:18:15.770596  2890 net.cpp:148] Top shape: 45 256 18 7 (1451520)
I1018 17:18:15.770598  2890 net.cpp:156] Memory required for data: 2506775220
I1018 17:18:15.770613  2890 layer_factory.hpp:77] Creating layer inception_3a/relu_3x3_reduce
I1018 17:18:15.770618  2890 net.cpp:91] Creating Layer inception_3a/relu_3x3_reduce
I1018 17:18:15.770632  2890 net.cpp:435] inception_3a/relu_3x3_reduce <- inception_3a/3x3_reduce_bn
I1018 17:18:15.770635  2890 net.cpp:396] inception_3a/relu_3x3_reduce -> inception_3a/3x3_reduce_bn (in-place)
I1018 17:18:15.770793  2890 net.cpp:141] Setting up inception_3a/relu_3x3_reduce
I1018 17:18:15.770802  2890 net.cpp:148] Top shape: 45 256 18 7 (1451520)
I1018 17:18:15.770813  2890 net.cpp:156] Memory required for data: 2512581300
I1018 17:18:15.770815  2890 layer_factory.hpp:77] Creating layer inception_3a/3x3
I1018 17:18:15.770833  2890 net.cpp:91] Creating Layer inception_3a/3x3
I1018 17:18:15.770836  2890 net.cpp:435] inception_3a/3x3 <- inception_3a/3x3_reduce_bn
I1018 17:18:15.770843  2890 net.cpp:409] inception_3a/3x3 -> inception_3a/3x3
I1018 17:18:15.776525  2890 net.cpp:141] Setting up inception_3a/3x3
I1018 17:18:15.776546  2890 net.cpp:148] Top shape: 45 256 18 7 (1451520)
I1018 17:18:15.776549  2890 net.cpp:156] Memory required for data: 2518387380
I1018 17:18:15.776558  2890 layer_factory.hpp:77] Creating layer inception_3a/3x3_bn
I1018 17:18:15.776562  2890 layer_factory.cpp:265] Layer inception_3a/3x3_bn is using CAFFE engine.
I1018 17:18:15.776571  2890 net.cpp:91] Creating Layer inception_3a/3x3_bn
I1018 17:18:15.776576  2890 net.cpp:435] inception_3a/3x3_bn <- inception_3a/3x3
I1018 17:18:15.776582  2890 net.cpp:409] inception_3a/3x3_bn -> inception_3a/3x3_bn
I1018 17:18:15.776764  2890 net.cpp:141] Setting up inception_3a/3x3_bn
I1018 17:18:15.776772  2890 net.cpp:148] Top shape: 45 256 18 7 (1451520)
I1018 17:18:15.776773  2890 net.cpp:156] Memory required for data: 2524193460
I1018 17:18:15.776779  2890 layer_factory.hpp:77] Creating layer inception_3a/relu_3x3
I1018 17:18:15.776784  2890 net.cpp:91] Creating Layer inception_3a/relu_3x3
I1018 17:18:15.776787  2890 net.cpp:435] inception_3a/relu_3x3 <- inception_3a/3x3_bn
I1018 17:18:15.776792  2890 net.cpp:396] inception_3a/relu_3x3 -> inception_3a/3x3_bn (in-place)
I1018 17:18:15.777379  2890 net.cpp:141] Setting up inception_3a/relu_3x3
I1018 17:18:15.777390  2890 net.cpp:148] Top shape: 45 256 18 7 (1451520)
I1018 17:18:15.777392  2890 net.cpp:156] Memory required for data: 2529999540
I1018 17:18:15.777395  2890 layer_factory.hpp:77] Creating layer inception_3a/double_3x3_reduce
I1018 17:18:15.777405  2890 net.cpp:91] Creating Layer inception_3a/double_3x3_reduce
I1018 17:18:15.777417  2890 net.cpp:435] inception_3a/double_3x3_reduce <- inception_2b/output_inception_2b/output_0_split_2
I1018 17:18:15.777423  2890 net.cpp:409] inception_3a/double_3x3_reduce -> inception_3a/double_3x3_reduce
I1018 17:18:15.780171  2890 net.cpp:141] Setting up inception_3a/double_3x3_reduce
I1018 17:18:15.780184  2890 net.cpp:148] Top shape: 45 256 18 7 (1451520)
I1018 17:18:15.780186  2890 net.cpp:156] Memory required for data: 2535805620
I1018 17:18:15.780192  2890 layer_factory.hpp:77] Creating layer inception_3a/double_3x3_reduce_bn
I1018 17:18:15.780196  2890 layer_factory.cpp:265] Layer inception_3a/double_3x3_reduce_bn is using CAFFE engine.
I1018 17:18:15.780202  2890 net.cpp:91] Creating Layer inception_3a/double_3x3_reduce_bn
I1018 17:18:15.780205  2890 net.cpp:435] inception_3a/double_3x3_reduce_bn <- inception_3a/double_3x3_reduce
I1018 17:18:15.780220  2890 net.cpp:409] inception_3a/double_3x3_reduce_bn -> inception_3a/double_3x3_reduce_bn
I1018 17:18:15.780398  2890 net.cpp:141] Setting up inception_3a/double_3x3_reduce_bn
I1018 17:18:15.780405  2890 net.cpp:148] Top shape: 45 256 18 7 (1451520)
I1018 17:18:15.780406  2890 net.cpp:156] Memory required for data: 2541611700
I1018 17:18:15.780412  2890 layer_factory.hpp:77] Creating layer inception_3a/relu_double_3x3_reduce
I1018 17:18:15.780416  2890 net.cpp:91] Creating Layer inception_3a/relu_double_3x3_reduce
I1018 17:18:15.780419  2890 net.cpp:435] inception_3a/relu_double_3x3_reduce <- inception_3a/double_3x3_reduce_bn
I1018 17:18:15.780423  2890 net.cpp:396] inception_3a/relu_double_3x3_reduce -> inception_3a/double_3x3_reduce_bn (in-place)
I1018 17:18:15.780570  2890 net.cpp:141] Setting up inception_3a/relu_double_3x3_reduce
I1018 17:18:15.780576  2890 net.cpp:148] Top shape: 45 256 18 7 (1451520)
I1018 17:18:15.780580  2890 net.cpp:156] Memory required for data: 2547417780
I1018 17:18:15.780581  2890 layer_factory.hpp:77] Creating layer inception_3a/double_3x3_1
I1018 17:18:15.780589  2890 net.cpp:91] Creating Layer inception_3a/double_3x3_1
I1018 17:18:15.780591  2890 net.cpp:435] inception_3a/double_3x3_1 <- inception_3a/double_3x3_reduce_bn
I1018 17:18:15.780598  2890 net.cpp:409] inception_3a/double_3x3_1 -> inception_3a/double_3x3_1
I1018 17:18:15.786296  2890 net.cpp:141] Setting up inception_3a/double_3x3_1
I1018 17:18:15.786309  2890 net.cpp:148] Top shape: 45 256 18 7 (1451520)
I1018 17:18:15.786314  2890 net.cpp:156] Memory required for data: 2553223860
I1018 17:18:15.786319  2890 layer_factory.hpp:77] Creating layer inception_3a/double_3x3_1_bn
I1018 17:18:15.786322  2890 layer_factory.cpp:265] Layer inception_3a/double_3x3_1_bn is using CAFFE engine.
I1018 17:18:15.786329  2890 net.cpp:91] Creating Layer inception_3a/double_3x3_1_bn
I1018 17:18:15.786342  2890 net.cpp:435] inception_3a/double_3x3_1_bn <- inception_3a/double_3x3_1
I1018 17:18:15.786348  2890 net.cpp:409] inception_3a/double_3x3_1_bn -> inception_3a/double_3x3_1_bn
I1018 17:18:15.786531  2890 net.cpp:141] Setting up inception_3a/double_3x3_1_bn
I1018 17:18:15.786538  2890 net.cpp:148] Top shape: 45 256 18 7 (1451520)
I1018 17:18:15.786540  2890 net.cpp:156] Memory required for data: 2559029940
I1018 17:18:15.786546  2890 layer_factory.hpp:77] Creating layer inception_3a/relu_double_3x3_1
I1018 17:18:15.786551  2890 net.cpp:91] Creating Layer inception_3a/relu_double_3x3_1
I1018 17:18:15.786554  2890 net.cpp:435] inception_3a/relu_double_3x3_1 <- inception_3a/double_3x3_1_bn
I1018 17:18:15.786557  2890 net.cpp:396] inception_3a/relu_double_3x3_1 -> inception_3a/double_3x3_1_bn (in-place)
I1018 17:18:15.786713  2890 net.cpp:141] Setting up inception_3a/relu_double_3x3_1
I1018 17:18:15.786720  2890 net.cpp:148] Top shape: 45 256 18 7 (1451520)
I1018 17:18:15.786722  2890 net.cpp:156] Memory required for data: 2564836020
I1018 17:18:15.786725  2890 layer_factory.hpp:77] Creating layer inception_3a/double_3x3_2
I1018 17:18:15.786734  2890 net.cpp:91] Creating Layer inception_3a/double_3x3_2
I1018 17:18:15.786737  2890 net.cpp:435] inception_3a/double_3x3_2 <- inception_3a/double_3x3_1_bn
I1018 17:18:15.786741  2890 net.cpp:409] inception_3a/double_3x3_2 -> inception_3a/double_3x3_2
I1018 17:18:15.792042  2890 net.cpp:141] Setting up inception_3a/double_3x3_2
I1018 17:18:15.792058  2890 net.cpp:148] Top shape: 45 256 18 7 (1451520)
I1018 17:18:15.792062  2890 net.cpp:156] Memory required for data: 2570642100
I1018 17:18:15.792068  2890 layer_factory.hpp:77] Creating layer inception_3a/double_3x3_2_bn
I1018 17:18:15.792073  2890 layer_factory.cpp:265] Layer inception_3a/double_3x3_2_bn is using CAFFE engine.
I1018 17:18:15.792078  2890 net.cpp:91] Creating Layer inception_3a/double_3x3_2_bn
I1018 17:18:15.792093  2890 net.cpp:435] inception_3a/double_3x3_2_bn <- inception_3a/double_3x3_2
I1018 17:18:15.792098  2890 net.cpp:409] inception_3a/double_3x3_2_bn -> inception_3a/double_3x3_2_bn
I1018 17:18:15.792286  2890 net.cpp:141] Setting up inception_3a/double_3x3_2_bn
I1018 17:18:15.792294  2890 net.cpp:148] Top shape: 45 256 18 7 (1451520)
I1018 17:18:15.792295  2890 net.cpp:156] Memory required for data: 2576448180
I1018 17:18:15.792301  2890 layer_factory.hpp:77] Creating layer inception_3a/relu_double_3x3_2
I1018 17:18:15.792306  2890 net.cpp:91] Creating Layer inception_3a/relu_double_3x3_2
I1018 17:18:15.792309  2890 net.cpp:435] inception_3a/relu_double_3x3_2 <- inception_3a/double_3x3_2_bn
I1018 17:18:15.792312  2890 net.cpp:396] inception_3a/relu_double_3x3_2 -> inception_3a/double_3x3_2_bn (in-place)
I1018 17:18:15.792467  2890 net.cpp:141] Setting up inception_3a/relu_double_3x3_2
I1018 17:18:15.792474  2890 net.cpp:148] Top shape: 45 256 18 7 (1451520)
I1018 17:18:15.792477  2890 net.cpp:156] Memory required for data: 2582254260
I1018 17:18:15.792479  2890 layer_factory.hpp:77] Creating layer inception_3a/pool
I1018 17:18:15.792485  2890 net.cpp:91] Creating Layer inception_3a/pool
I1018 17:18:15.792490  2890 net.cpp:435] inception_3a/pool <- inception_2b/output_inception_2b/output_0_split_3
I1018 17:18:15.792493  2890 net.cpp:409] inception_3a/pool -> inception_3a/pool
I1018 17:18:15.792659  2890 net.cpp:141] Setting up inception_3a/pool
I1018 17:18:15.792665  2890 net.cpp:148] Top shape: 45 768 18 7 (4354560)
I1018 17:18:15.792668  2890 net.cpp:156] Memory required for data: 2599672500
I1018 17:18:15.792670  2890 layer_factory.hpp:77] Creating layer inception_3a/pool_proj
I1018 17:18:15.792678  2890 net.cpp:91] Creating Layer inception_3a/pool_proj
I1018 17:18:15.792681  2890 net.cpp:435] inception_3a/pool_proj <- inception_3a/pool
I1018 17:18:15.792686  2890 net.cpp:409] inception_3a/pool_proj -> inception_3a/pool_proj
I1018 17:18:15.794750  2890 net.cpp:141] Setting up inception_3a/pool_proj
I1018 17:18:15.794762  2890 net.cpp:148] Top shape: 45 256 18 7 (1451520)
I1018 17:18:15.794765  2890 net.cpp:156] Memory required for data: 2605478580
I1018 17:18:15.794770  2890 layer_factory.hpp:77] Creating layer inception_3a/pool_proj_bn
I1018 17:18:15.794775  2890 layer_factory.cpp:265] Layer inception_3a/pool_proj_bn is using CAFFE engine.
I1018 17:18:15.794780  2890 net.cpp:91] Creating Layer inception_3a/pool_proj_bn
I1018 17:18:15.794782  2890 net.cpp:435] inception_3a/pool_proj_bn <- inception_3a/pool_proj
I1018 17:18:15.794797  2890 net.cpp:409] inception_3a/pool_proj_bn -> inception_3a/pool_proj_bn
I1018 17:18:15.794977  2890 net.cpp:141] Setting up inception_3a/pool_proj_bn
I1018 17:18:15.794983  2890 net.cpp:148] Top shape: 45 256 18 7 (1451520)
I1018 17:18:15.794986  2890 net.cpp:156] Memory required for data: 2611284660
I1018 17:18:15.794991  2890 layer_factory.hpp:77] Creating layer inception_3a/relu_pool_proj
I1018 17:18:15.794996  2890 net.cpp:91] Creating Layer inception_3a/relu_pool_proj
I1018 17:18:15.794998  2890 net.cpp:435] inception_3a/relu_pool_proj <- inception_3a/pool_proj_bn
I1018 17:18:15.795001  2890 net.cpp:396] inception_3a/relu_pool_proj -> inception_3a/pool_proj_bn (in-place)
I1018 17:18:15.795604  2890 net.cpp:141] Setting up inception_3a/relu_pool_proj
I1018 17:18:15.795614  2890 net.cpp:148] Top shape: 45 256 18 7 (1451520)
I1018 17:18:15.795617  2890 net.cpp:156] Memory required for data: 2617090740
I1018 17:18:15.795619  2890 layer_factory.hpp:77] Creating layer inception_3a/output
I1018 17:18:15.795625  2890 net.cpp:91] Creating Layer inception_3a/output
I1018 17:18:15.795629  2890 net.cpp:435] inception_3a/output <- inception_3a/1x1_bn
I1018 17:18:15.795632  2890 net.cpp:435] inception_3a/output <- inception_3a/3x3_bn
I1018 17:18:15.795645  2890 net.cpp:435] inception_3a/output <- inception_3a/double_3x3_2_bn
I1018 17:18:15.795648  2890 net.cpp:435] inception_3a/output <- inception_3a/pool_proj_bn
I1018 17:18:15.795652  2890 net.cpp:409] inception_3a/output -> inception_3a/output
I1018 17:18:15.795677  2890 net.cpp:141] Setting up inception_3a/output
I1018 17:18:15.795683  2890 net.cpp:148] Top shape: 45 1024 18 7 (5806080)
I1018 17:18:15.795686  2890 net.cpp:156] Memory required for data: 2640315060
I1018 17:18:15.795688  2890 layer_factory.hpp:77] Creating layer inception_3a/output_inception_3a/output_0_split
I1018 17:18:15.795694  2890 net.cpp:91] Creating Layer inception_3a/output_inception_3a/output_0_split
I1018 17:18:15.795696  2890 net.cpp:435] inception_3a/output_inception_3a/output_0_split <- inception_3a/output
I1018 17:18:15.795701  2890 net.cpp:409] inception_3a/output_inception_3a/output_0_split -> inception_3a/output_inception_3a/output_0_split_0
I1018 17:18:15.795704  2890 net.cpp:409] inception_3a/output_inception_3a/output_0_split -> inception_3a/output_inception_3a/output_0_split_1
I1018 17:18:15.795709  2890 net.cpp:409] inception_3a/output_inception_3a/output_0_split -> inception_3a/output_inception_3a/output_0_split_2
I1018 17:18:15.795778  2890 net.cpp:141] Setting up inception_3a/output_inception_3a/output_0_split
I1018 17:18:15.795792  2890 net.cpp:148] Top shape: 45 1024 18 7 (5806080)
I1018 17:18:15.795795  2890 net.cpp:148] Top shape: 45 1024 18 7 (5806080)
I1018 17:18:15.795797  2890 net.cpp:148] Top shape: 45 1024 18 7 (5806080)
I1018 17:18:15.795809  2890 net.cpp:156] Memory required for data: 2709988020
I1018 17:18:15.795812  2890 layer_factory.hpp:77] Creating layer inception_3b/3x3_reduce
I1018 17:18:15.795828  2890 net.cpp:91] Creating Layer inception_3b/3x3_reduce
I1018 17:18:15.795831  2890 net.cpp:435] inception_3b/3x3_reduce <- inception_3a/output_inception_3a/output_0_split_0
I1018 17:18:15.795846  2890 net.cpp:409] inception_3b/3x3_reduce -> inception_3b/3x3_reduce
I1018 17:18:15.798434  2890 net.cpp:141] Setting up inception_3b/3x3_reduce
I1018 17:18:15.798445  2890 net.cpp:148] Top shape: 45 256 18 7 (1451520)
I1018 17:18:15.798449  2890 net.cpp:156] Memory required for data: 2715794100
I1018 17:18:15.798454  2890 layer_factory.hpp:77] Creating layer inception_3b/3x3_reduce_bn
I1018 17:18:15.798458  2890 layer_factory.cpp:265] Layer inception_3b/3x3_reduce_bn is using CAFFE engine.
I1018 17:18:15.798463  2890 net.cpp:91] Creating Layer inception_3b/3x3_reduce_bn
I1018 17:18:15.798467  2890 net.cpp:435] inception_3b/3x3_reduce_bn <- inception_3b/3x3_reduce
I1018 17:18:15.798482  2890 net.cpp:409] inception_3b/3x3_reduce_bn -> inception_3b/3x3_reduce_bn
I1018 17:18:15.798662  2890 net.cpp:141] Setting up inception_3b/3x3_reduce_bn
I1018 17:18:15.798668  2890 net.cpp:148] Top shape: 45 256 18 7 (1451520)
I1018 17:18:15.798671  2890 net.cpp:156] Memory required for data: 2721600180
I1018 17:18:15.798676  2890 layer_factory.hpp:77] Creating layer inception_3b/relu_3x3_reduce
I1018 17:18:15.798681  2890 net.cpp:91] Creating Layer inception_3b/relu_3x3_reduce
I1018 17:18:15.798683  2890 net.cpp:435] inception_3b/relu_3x3_reduce <- inception_3b/3x3_reduce_bn
I1018 17:18:15.798697  2890 net.cpp:396] inception_3b/relu_3x3_reduce -> inception_3b/3x3_reduce_bn (in-place)
I1018 17:18:15.799304  2890 net.cpp:141] Setting up inception_3b/relu_3x3_reduce
I1018 17:18:15.799314  2890 net.cpp:148] Top shape: 45 256 18 7 (1451520)
I1018 17:18:15.799317  2890 net.cpp:156] Memory required for data: 2727406260
I1018 17:18:15.799319  2890 layer_factory.hpp:77] Creating layer inception_3b/3x3
I1018 17:18:15.799329  2890 net.cpp:91] Creating Layer inception_3b/3x3
I1018 17:18:15.799340  2890 net.cpp:435] inception_3b/3x3 <- inception_3b/3x3_reduce_bn
I1018 17:18:15.799345  2890 net.cpp:409] inception_3b/3x3 -> inception_3b/3x3
I1018 17:18:15.804636  2890 net.cpp:141] Setting up inception_3b/3x3
I1018 17:18:15.804668  2890 net.cpp:148] Top shape: 45 256 9 4 (414720)
I1018 17:18:15.804672  2890 net.cpp:156] Memory required for data: 2729065140
I1018 17:18:15.804680  2890 layer_factory.hpp:77] Creating layer inception_3b/3x3_bn
I1018 17:18:15.804684  2890 layer_factory.cpp:265] Layer inception_3b/3x3_bn is using CAFFE engine.
I1018 17:18:15.804703  2890 net.cpp:91] Creating Layer inception_3b/3x3_bn
I1018 17:18:15.804708  2890 net.cpp:435] inception_3b/3x3_bn <- inception_3b/3x3
I1018 17:18:15.804715  2890 net.cpp:409] inception_3b/3x3_bn -> inception_3b/3x3_bn
I1018 17:18:15.804963  2890 net.cpp:141] Setting up inception_3b/3x3_bn
I1018 17:18:15.804970  2890 net.cpp:148] Top shape: 45 256 9 4 (414720)
I1018 17:18:15.804982  2890 net.cpp:156] Memory required for data: 2730724020
I1018 17:18:15.804989  2890 layer_factory.hpp:77] Creating layer inception_3b/relu_3x3
I1018 17:18:15.804993  2890 net.cpp:91] Creating Layer inception_3b/relu_3x3
I1018 17:18:15.804996  2890 net.cpp:435] inception_3b/relu_3x3 <- inception_3b/3x3_bn
I1018 17:18:15.805011  2890 net.cpp:396] inception_3b/relu_3x3 -> inception_3b/3x3_bn (in-place)
I1018 17:18:15.805161  2890 net.cpp:141] Setting up inception_3b/relu_3x3
I1018 17:18:15.805169  2890 net.cpp:148] Top shape: 45 256 9 4 (414720)
I1018 17:18:15.805181  2890 net.cpp:156] Memory required for data: 2732382900
I1018 17:18:15.805184  2890 layer_factory.hpp:77] Creating layer inception_3b/double_3x3_reduce
I1018 17:18:15.805194  2890 net.cpp:91] Creating Layer inception_3b/double_3x3_reduce
I1018 17:18:15.805207  2890 net.cpp:435] inception_3b/double_3x3_reduce <- inception_3a/output_inception_3a/output_0_split_1
I1018 17:18:15.805212  2890 net.cpp:409] inception_3b/double_3x3_reduce -> inception_3b/double_3x3_reduce
I1018 17:18:15.807684  2890 net.cpp:141] Setting up inception_3b/double_3x3_reduce
I1018 17:18:15.807695  2890 net.cpp:148] Top shape: 45 256 18 7 (1451520)
I1018 17:18:15.807698  2890 net.cpp:156] Memory required for data: 2738188980
I1018 17:18:15.807703  2890 layer_factory.hpp:77] Creating layer inception_3b/double_3x3_reduce_bn
I1018 17:18:15.807706  2890 layer_factory.cpp:265] Layer inception_3b/double_3x3_reduce_bn is using CAFFE engine.
I1018 17:18:15.807713  2890 net.cpp:91] Creating Layer inception_3b/double_3x3_reduce_bn
I1018 17:18:15.807715  2890 net.cpp:435] inception_3b/double_3x3_reduce_bn <- inception_3b/double_3x3_reduce
I1018 17:18:15.807730  2890 net.cpp:409] inception_3b/double_3x3_reduce_bn -> inception_3b/double_3x3_reduce_bn
I1018 17:18:15.807940  2890 net.cpp:141] Setting up inception_3b/double_3x3_reduce_bn
I1018 17:18:15.807948  2890 net.cpp:148] Top shape: 45 256 18 7 (1451520)
I1018 17:18:15.807950  2890 net.cpp:156] Memory required for data: 2743995060
I1018 17:18:15.807956  2890 layer_factory.hpp:77] Creating layer inception_3b/relu_double_3x3_reduce
I1018 17:18:15.807965  2890 net.cpp:91] Creating Layer inception_3b/relu_double_3x3_reduce
I1018 17:18:15.807967  2890 net.cpp:435] inception_3b/relu_double_3x3_reduce <- inception_3b/double_3x3_reduce_bn
I1018 17:18:15.807981  2890 net.cpp:396] inception_3b/relu_double_3x3_reduce -> inception_3b/double_3x3_reduce_bn (in-place)
I1018 17:18:15.808120  2890 net.cpp:141] Setting up inception_3b/relu_double_3x3_reduce
I1018 17:18:15.808126  2890 net.cpp:148] Top shape: 45 256 18 7 (1451520)
I1018 17:18:15.808128  2890 net.cpp:156] Memory required for data: 2749801140
I1018 17:18:15.808131  2890 layer_factory.hpp:77] Creating layer inception_3b/double_3x3_1
I1018 17:18:15.808138  2890 net.cpp:91] Creating Layer inception_3b/double_3x3_1
I1018 17:18:15.808141  2890 net.cpp:435] inception_3b/double_3x3_1 <- inception_3b/double_3x3_reduce_bn
I1018 17:18:15.808146  2890 net.cpp:409] inception_3b/double_3x3_1 -> inception_3b/double_3x3_1
I1018 17:18:15.813470  2890 net.cpp:141] Setting up inception_3b/double_3x3_1
I1018 17:18:15.813485  2890 net.cpp:148] Top shape: 45 256 18 7 (1451520)
I1018 17:18:15.813488  2890 net.cpp:156] Memory required for data: 2755607220
I1018 17:18:15.813495  2890 layer_factory.hpp:77] Creating layer inception_3b/double_3x3_1_bn
I1018 17:18:15.813499  2890 layer_factory.cpp:265] Layer inception_3b/double_3x3_1_bn is using CAFFE engine.
I1018 17:18:15.813505  2890 net.cpp:91] Creating Layer inception_3b/double_3x3_1_bn
I1018 17:18:15.813520  2890 net.cpp:435] inception_3b/double_3x3_1_bn <- inception_3b/double_3x3_1
I1018 17:18:15.813525  2890 net.cpp:409] inception_3b/double_3x3_1_bn -> inception_3b/double_3x3_1_bn
I1018 17:18:15.813715  2890 net.cpp:141] Setting up inception_3b/double_3x3_1_bn
I1018 17:18:15.813722  2890 net.cpp:148] Top shape: 45 256 18 7 (1451520)
I1018 17:18:15.813724  2890 net.cpp:156] Memory required for data: 2761413300
I1018 17:18:15.813730  2890 layer_factory.hpp:77] Creating layer inception_3b/relu_double_3x3_1
I1018 17:18:15.813735  2890 net.cpp:91] Creating Layer inception_3b/relu_double_3x3_1
I1018 17:18:15.813737  2890 net.cpp:435] inception_3b/relu_double_3x3_1 <- inception_3b/double_3x3_1_bn
I1018 17:18:15.813740  2890 net.cpp:396] inception_3b/relu_double_3x3_1 -> inception_3b/double_3x3_1_bn (in-place)
I1018 17:18:15.813894  2890 net.cpp:141] Setting up inception_3b/relu_double_3x3_1
I1018 17:18:15.813900  2890 net.cpp:148] Top shape: 45 256 18 7 (1451520)
I1018 17:18:15.813904  2890 net.cpp:156] Memory required for data: 2767219380
I1018 17:18:15.813905  2890 layer_factory.hpp:77] Creating layer inception_3b/double_3x3_2
I1018 17:18:15.813913  2890 net.cpp:91] Creating Layer inception_3b/double_3x3_2
I1018 17:18:15.813916  2890 net.cpp:435] inception_3b/double_3x3_2 <- inception_3b/double_3x3_1_bn
I1018 17:18:15.813921  2890 net.cpp:409] inception_3b/double_3x3_2 -> inception_3b/double_3x3_2
I1018 17:18:15.818783  2890 net.cpp:141] Setting up inception_3b/double_3x3_2
I1018 17:18:15.818807  2890 net.cpp:148] Top shape: 45 256 9 4 (414720)
I1018 17:18:15.818810  2890 net.cpp:156] Memory required for data: 2768878260
I1018 17:18:15.818817  2890 layer_factory.hpp:77] Creating layer inception_3b/double_3x3_2_bn
I1018 17:18:15.818820  2890 layer_factory.cpp:265] Layer inception_3b/double_3x3_2_bn is using CAFFE engine.
I1018 17:18:15.818838  2890 net.cpp:91] Creating Layer inception_3b/double_3x3_2_bn
I1018 17:18:15.818842  2890 net.cpp:435] inception_3b/double_3x3_2_bn <- inception_3b/double_3x3_2
I1018 17:18:15.818847  2890 net.cpp:409] inception_3b/double_3x3_2_bn -> inception_3b/double_3x3_2_bn
I1018 17:18:15.819041  2890 net.cpp:141] Setting up inception_3b/double_3x3_2_bn
I1018 17:18:15.819047  2890 net.cpp:148] Top shape: 45 256 9 4 (414720)
I1018 17:18:15.819059  2890 net.cpp:156] Memory required for data: 2770537140
I1018 17:18:15.819066  2890 layer_factory.hpp:77] Creating layer inception_3b/relu_double_3x3_2
I1018 17:18:15.819070  2890 net.cpp:91] Creating Layer inception_3b/relu_double_3x3_2
I1018 17:18:15.819073  2890 net.cpp:435] inception_3b/relu_double_3x3_2 <- inception_3b/double_3x3_2_bn
I1018 17:18:15.819087  2890 net.cpp:396] inception_3b/relu_double_3x3_2 -> inception_3b/double_3x3_2_bn (in-place)
I1018 17:18:15.819239  2890 net.cpp:141] Setting up inception_3b/relu_double_3x3_2
I1018 17:18:15.819247  2890 net.cpp:148] Top shape: 45 256 9 4 (414720)
I1018 17:18:15.819258  2890 net.cpp:156] Memory required for data: 2772196020
I1018 17:18:15.819262  2890 layer_factory.hpp:77] Creating layer inception_3b/pool
I1018 17:18:15.819267  2890 net.cpp:91] Creating Layer inception_3b/pool
I1018 17:18:15.819272  2890 net.cpp:435] inception_3b/pool <- inception_3a/output_inception_3a/output_0_split_2
I1018 17:18:15.819285  2890 net.cpp:409] inception_3b/pool -> inception_3b/pool
I1018 17:18:15.819331  2890 net.cpp:141] Setting up inception_3b/pool
I1018 17:18:15.819337  2890 net.cpp:148] Top shape: 45 1024 9 4 (1658880)
I1018 17:18:15.819350  2890 net.cpp:156] Memory required for data: 2778831540
I1018 17:18:15.819351  2890 layer_factory.hpp:77] Creating layer inception_3b/output
I1018 17:18:15.819356  2890 net.cpp:91] Creating Layer inception_3b/output
I1018 17:18:15.819360  2890 net.cpp:435] inception_3b/output <- inception_3b/3x3_bn
I1018 17:18:15.819363  2890 net.cpp:435] inception_3b/output <- inception_3b/double_3x3_2_bn
I1018 17:18:15.819375  2890 net.cpp:435] inception_3b/output <- inception_3b/pool
I1018 17:18:15.819380  2890 net.cpp:409] inception_3b/output -> inception_3b/output
I1018 17:18:15.819399  2890 net.cpp:141] Setting up inception_3b/output
I1018 17:18:15.819404  2890 net.cpp:148] Top shape: 45 1536 9 4 (2488320)
I1018 17:18:15.819408  2890 net.cpp:156] Memory required for data: 2788784820
I1018 17:18:15.819411  2890 layer_factory.hpp:77] Creating layer global_pool
I1018 17:18:15.819414  2890 net.cpp:91] Creating Layer global_pool
I1018 17:18:15.819417  2890 net.cpp:435] global_pool <- inception_3b/output
I1018 17:18:15.819422  2890 net.cpp:409] global_pool -> global_pool
I1018 17:18:15.821574  2890 net.cpp:141] Setting up global_pool
I1018 17:18:15.821594  2890 net.cpp:148] Top shape: 45 1536 1 1 (69120)
I1018 17:18:15.821597  2890 net.cpp:156] Memory required for data: 2789061300
I1018 17:18:15.821599  2890 layer_factory.hpp:77] Creating layer fc7
I1018 17:18:15.821606  2890 net.cpp:91] Creating Layer fc7
I1018 17:18:15.821619  2890 net.cpp:435] fc7 <- global_pool
I1018 17:18:15.821624  2890 net.cpp:409] fc7 -> fc7
I1018 17:18:15.824527  2890 net.cpp:141] Setting up fc7
I1018 17:18:15.824542  2890 net.cpp:148] Top shape: 45 256 (11520)
I1018 17:18:15.824544  2890 net.cpp:156] Memory required for data: 2789107380
I1018 17:18:15.824550  2890 layer_factory.hpp:77] Creating layer fc7_bn
I1018 17:18:15.824554  2890 layer_factory.cpp:265] Layer fc7_bn is using CAFFE engine.
I1018 17:18:15.824560  2890 net.cpp:91] Creating Layer fc7_bn
I1018 17:18:15.824563  2890 net.cpp:435] fc7_bn <- fc7
I1018 17:18:15.824579  2890 net.cpp:409] fc7_bn -> fc7_bn
I1018 17:18:15.824771  2890 net.cpp:141] Setting up fc7_bn
I1018 17:18:15.824777  2890 net.cpp:148] Top shape: 45 256 (11520)
I1018 17:18:15.824780  2890 net.cpp:156] Memory required for data: 2789153460
I1018 17:18:15.824786  2890 layer_factory.hpp:77] Creating layer relu7
I1018 17:18:15.824790  2890 net.cpp:91] Creating Layer relu7
I1018 17:18:15.824792  2890 net.cpp:435] relu7 <- fc7_bn
I1018 17:18:15.824796  2890 net.cpp:396] relu7 -> fc7_bn (in-place)
I1018 17:18:15.824980  2890 net.cpp:141] Setting up relu7
I1018 17:18:15.824986  2890 net.cpp:148] Top shape: 45 256 (11520)
I1018 17:18:15.824998  2890 net.cpp:156] Memory required for data: 2789199540
I1018 17:18:15.825001  2890 layer_factory.hpp:77] Creating layer drop7
I1018 17:18:15.825006  2890 net.cpp:91] Creating Layer drop7
I1018 17:18:15.825008  2890 net.cpp:435] drop7 <- fc7_bn
I1018 17:18:15.825012  2890 net.cpp:396] drop7 -> fc7_bn (in-place)
I1018 17:18:15.825049  2890 net.cpp:141] Setting up drop7
I1018 17:18:15.825055  2890 net.cpp:148] Top shape: 45 256 (11520)
I1018 17:18:15.825057  2890 net.cpp:156] Memory required for data: 2789245620
I1018 17:18:15.825060  2890 layer_factory.hpp:77] Creating layer fc8_jstl
I1018 17:18:15.825067  2890 net.cpp:91] Creating Layer fc8_jstl
I1018 17:18:15.825069  2890 net.cpp:435] fc8_jstl <- fc7_bn
I1018 17:18:15.825074  2890 net.cpp:409] fc8_jstl -> fc8_jstl
I1018 17:18:15.830109  2890 net.cpp:141] Setting up fc8_jstl
I1018 17:18:15.830132  2890 net.cpp:148] Top shape: 45 702 (31590)
I1018 17:18:15.830134  2890 net.cpp:156] Memory required for data: 2789371980
I1018 17:18:15.830140  2890 layer_factory.hpp:77] Creating layer loss
I1018 17:18:15.830145  2890 net.cpp:91] Creating Layer loss
I1018 17:18:15.830158  2890 net.cpp:435] loss <- fc8_jstl
I1018 17:18:15.830163  2890 net.cpp:435] loss <- label
I1018 17:18:15.830168  2890 net.cpp:409] loss -> loss
I1018 17:18:15.830175  2890 layer_factory.hpp:77] Creating layer loss
…
I1018 17:18:15.833590  2890 net.cpp:323] The NetState phase (1) differed from the phase (0) specified by a rule in layer data
I1018 17:18:15.834600  2890 net.cpp:49] Initializing net from parameters: 
state {
  phase: TEST
}
layer {
  name: "data"
  type: "ImageData"
  top: "data"
  top: "label"
  include {
    phase: TEST
  }
  transform_param {
    mirror: true
    mean_value: 102
    mean_value: 102
    mean_value: 101
  }
  image_data_param {
    source: "/home/nikoong/Algorithm_test/attribute/external/exp/dataset/Market-1501/train.txt"
    batch_size: 20
    shuffle: true
    new_height: 144
    new_width: 56
  }
}
layer {
  name: "conv1"
  type: "Convolution"
  bottom: "data"
  top: "conv1"
  param {
    lr_mult: 1
    decay_mult: 1
  }
  param {
    lr_mult: 2
    decay_mult: 0
  }
  convolution_param {
    num_output: 32
    pad: 1
    kernel_size: 3
    stride: 1
    weight_filler {
      type: "xavier"
    }
    bias_filler {
      type: "constant"
      value: 0.2
    }
  }
}
layer {
  name: "conv1_bn"
  type: "BN"
  bottom: "conv1"
  top: "conv1_bn"
  param {
    lr_mult: 1
    decay_mult: 0
  }
  param {
    lr_mult: 1
    decay_mult: 0
  }
  bn_param {
    slope_filler {
      type: "constant"
      value: 1
    }
    bias_filler {
      type: "constant"
      value: 0
    }
  }
}
layer {
  name: "relu1"
  type: "ReLU"
  bottom: "conv1_bn"
  top: "conv1_bn"
}
layer {
  name: "conv2"
  type: "Convolution"
  bottom: "conv1_bn"
  top: "conv2"
  param {
    lr_mult: 1
    decay_mult: 1
  }
  param {
    lr_mult: 2
    decay_mult: 0
  }
  convolution_param {
    num_output: 32
    pad: 1
    kernel_size: 3
    stride: 1
    weight_filler {
      type: "xavier"
    }
    bias_filler {
      type: "constant"
      value: 0.2
    }
  }
}
layer {
  name: "conv2_bn"
  type: "BN"
  bottom: "conv2"
  top: "conv2_bn"
  param {
    lr_mult: 1
    decay_mult: 0
  }
  param {
    lr_mult: 1
    decay_mult: 0
  }
  bn_param {
    slope_filler {
      type: "constant"
      value: 1
    }
    bias_filler {
      type: "constant"
      value: 0
    }
  }
}
layer {
  name: "relu2"
  type: "ReLU"
  bottom: "conv2_bn"
  top: "conv2_bn"
}
layer {
  name: "conv3"
  type: "Convolution"
  bottom: "conv2_bn"
  top: "conv3"
  param {
    lr_mult: 1
    decay_mult: 1
  }
  param {
    lr_mult: 2
    decay_mult: 0
  }
  convolution_param {
    num_output: 32
    pad: 1
    kernel_size: 3
    stride: 1
    weight_filler {
      type: "xavier"
    }
    bias_filler {
      type: "constant"
      value: 0.2
    }
  }
}
layer {
  name: "conv3_bn"
  type: "BN"
  bottom: "conv3"
  top: "conv3_bn"
  param {
    lr_mult: 1
    decay_mult: 0
  }
  param {
    lr_mult: 1
    decay_mult: 0
  }
  bn_param {
    slope_filler {
      type: "constant"
      value: 1
    }
    bias_filler {
      type: "constant"
      value: 0
    }
  }
}
layer {
  name: "relu3"
  type: "ReLU"
  bottom: "conv3_bn"
  top: "conv3_bn"
}
layer {
  name: "pool1"
  type: "Pooling"
  bottom: "conv3_bn"
  top: "pool1"
  pooling_param {
    pool: MAX
    kernel_size: 2
    stride: 2
  }
}
layer {
  name: "inception_1a/1x1"
  type: "Convolution"
  bottom: "pool1"
  top: "inception_1a/1x1"
  param {
    lr_mult: 1
    decay_mult: 1
  }
  param {
    lr_mult: 2
    decay_mult: 0
  }
  convolution_param {
    num_output: 64
    kernel_size: 1
    weight_filler {
      type: "xavier"
    }
    bias_filler {
      type: "constant"
      value: 0.2
    }
  }
}
layer {
  name: "inception_1a/1x1_bn"
  type: "BN"
  bottom: "inception_1a/1x1"
  top: "inception_1a/1x1_bn"
  param {
    lr_mult: 1
    decay_mult: 0
  }
  param {
    lr_mult: 1
    decay_mult: 0
  }
  bn_param {
    slope_filler {
      type: "constant"
      value: 1
    }
    bias_filler {
      type: "constant"
      value: 0
    }
  }
}
layer {
  name: "inception_1a/relu_1x1"
  type: "ReLU"
  bottom: "inception_1a/1x1_bn"
  top: "inception_1a/1x1_bn"
}
layer {
  name: "inception_1a/3x3_reduce"
  type: "Convolution"
  bottom: "pool1"
  top: "inception_1a/3x3_reduce"
  param {
    lr_mult: 1
    decay_mult: 1
  }
  param {
    lr_mult: 2
    decay_mult: 0
  }
  convolution_param {
    num_output: 64
    kernel_size: 1
    weight_filler {
      type: "xavier"
    }
    bias_filler {
      type: "constant"
      value: 0.2
    }
  }
}
layer {
  name: "inception_1a/3x3_reduce_bn"
  type: "BN"
  bottom: "inception_1a/3x3_reduce"
  top: "inception_1a/3x3_reduce_bn"
  param {
    lr_mult: 1
    decay_mult: 0
  }
  param {
    lr_mult: 1
    decay_mult: 0
  }
  bn_param {
    slope_filler {
      type: "constant"
      value: 1
    }
    bias_filler {
      type: "constant"
      value: 0
    }
  }
}
layer {
  name: "inception_1a/relu_3x3_reduce"
  type: "ReLU"
  bottom: "inception_1a/3x3_reduce_bn"
  top: "inception_1a/3x3_reduce_bn"
}
layer {
  name: "inception_1a/3x3"
  type: "Convolution"
  bottom: "inception_1a/3x3_reduce_bn"
  top: "inception_1a/3x3"
  param {
    lr_mult: 1
    decay_mult: 1
  }
  param {
    lr_mult: 2
    decay_mult: 0
  }
  convolution_param {
    num_output: 64
    pad: 1
    kernel_size: 3
    weight_filler {
      type: "xavier"
    }
    bias_filler {
      type: "constant"
      value: 0.2
    }
  }
}
layer {
  name: "inception_1a/3x3_bn"
  type: "BN"
  bottom: "inception_1a/3x3"
  top: "inception_1a/3x3_bn"
  param {
    lr_mult: 1
    decay_mult: 0
  }
  param {
    lr_mult: 1
    decay_mult: 0
  }
  bn_param {
    slope_filler {
      type: "constant"
      value: 1
    }
    bias_filler {
      type: "constant"
      value: 0
    }
  }
}
layer {
  name: "inception_1a/relu_3x3"
  type: "ReLU"
  bottom: "inception_1a/3x3_bn"
  top: "inception_1a/3x3_bn"
}
layer {
  name: "inception_1a/double_3x3_reduce"
  type: "Convolution"
  bottom: "pool1"
  top: "inception_1a/double_3x3_reduce"
  param {
    lr_mult: 1
    decay_mult: 1
  }
  param {
    lr_mult: 2
    decay_mult: 0
  }
  convolution_param {
    num_output: 64
    kernel_size: 1
    weight_filler {
      type: "xavier"
    }
    bias_filler {
      type: "constant"
      value: 0.2
    }
  }
}
layer {
  name: "inception_1a/double_3x3_reduce_bn"
  type: "BN"
  bottom: "inception_1a/double_3x3_reduce"
  top: "inception_1a/double_3x3_reduce_bn"
  param {
    lr_mult: 1
    decay_mult: 0
  }
  param {
    lr_mult: 1
    decay_mult: 0
  }
  bn_param {
    slope_filler {
      type: "constant"
      value: 1
    }
    bias_filler {
      type: "constant"
      value: 0
    }
  }
}
layer {
  name: "inception_1a/relu_double_3x3_reduce"
  type: "ReLU"
  bottom: "inception_1a/double_3x3_reduce_bn"
  top: "inception_1a/double_3x3_reduce_bn"
}
layer {
  name: "inception_1a/double_3x3_1"
  type: "Convolution"
  bottom: "inception_1a/double_3x3_reduce_bn"
  top: "inception_1a/double_3x3_1"
  param {
    lr_mult: 1
    decay_mult: 1
  }
  param {
    lr_mult: 2
    decay_mult: 0
  }
  convolution_param {
    num_output: 64
    pad: 1
    kernel_size: 3
    weight_filler {
      type: "xavier"
    }
    bias_filler {
      type: "constant"
      value: 0.2
    }
  }
}
layer {
  name: "inception_1a/double_3x3_1_bn"
  type: "BN"
  bottom: "inception_1a/double_3x3_1"
  top: "inception_1a/double_3x3_1_bn"
  param {
    lr_mult: 1
    decay_mult: 0
  }
  param {
    lr_mult: 1
    decay_mult: 0
  }
  bn_param {
    slope_filler {
      type: "constant"
      value: 1
    }
    bias_filler {
      type: "constant"
      value: 0
    }
  }
}
layer {
  name: "inception_1a/relu_double_3x3_1"
  type: "ReLU"
  bottom: "inception_1a/double_3x3_1_bn"
  top: "inception_1a/double_3x3_1_bn"
}
layer {
  name: "inception_1a/double_3x3_2"
  type: "Convolution"
  bottom: "inception_1a/double_3x3_1_bn"
  top: "inception_1a/double_3x3_2"
  param {
    lr_mult: 1
    decay_mult: 1
  }
  param {
    lr_mult: 2
    decay_mult: 0
  }
  convolution_param {
    num_output: 64
    pad: 1
    kernel_size: 3
    weight_filler {
      type: "xavier"
    }
    bias_filler {
      type: "constant"
      value: 0.2
    }
  }
}
layer {
  name: "inception_1a/double_3x3_2_bn"
  type: "BN"
  bottom: "inception_1a/double_3x3_2"
  top: "inception_1a/double_3x3_2_bn"
  param {
    lr_mult: 1
    decay_mult: 0
  }
  param {
    lr_mult: 1
    decay_mult: 0
  }
  bn_param {
    slope_filler {
      type: "constant"
      value: 1
    }
    bias_filler {
      type: "constant"
      value: 0
    }
  }
}
layer {
  name: "inception_1a/relu_double_3x3_2"
  type: "ReLU"
  bottom: "inception_1a/double_3x3_2_bn"
  top: "inception_1a/double_3x3_2_bn"
}
layer {
  name: "inception_1a/pool"
  type: "Pooling"
  bottom: "pool1"
  top: "inception_1a/pool"
  pooling_param {
    pool: AVE
    kernel_size: 3
    stride: 1
    pad: 1
  }
}
layer {
  name: "inception_1a/pool_proj"
  type: "Convolution"
  bottom: "inception_1a/pool"
  top: "inception_1a/pool_proj"
  param {
    lr_mult: 1
    decay_mult: 1
  }
  param {
    lr_mult: 2
    decay_mult: 0
  }
  convolution_param {
    num_output: 64
    kernel_size: 1
    weight_filler {
      type: "xavier"
    }
    bias_filler {
      type: "constant"
      value: 0.2
    }
  }
}
layer {
  name: "inception_1a/pool_proj_bn"
  type: "BN"
  bottom: "inception_1a/pool_proj"
  top: "inception_1a/pool_proj_bn"
  param {
    lr_mult: 1
    decay_mult: 0
  }
  param {
    lr_mult: 1
    decay_mult: 0
  }
  bn_param {
    slope_filler {
      type: "constant"
      value: 1
    }
    bias_filler {
      type: "constant"
      value: 0
    }
  }
}
layer {
  name: "inception_1a/relu_pool_proj"
  type: "ReLU"
  bottom: "inception_1a/pool_proj_bn"
  top: "inception_1a/pool_proj_bn"
}
layer {
  name: "inception_1a/output"
  type: "Concat"
  bottom: "inception_1a/1x1_bn"
  bottom: "inception_1a/3x3_bn"
  bottom: "inception_1a/double_3x3_2_bn"
  bottom: "inception_1a/pool_proj_bn"
  top: "inception_1a/output"
}
layer {
  name: "inception_1b/3x3_reduce"
  type: "Convolution"
  bottom: "inception_1a/output"
  top: "inception_1b/3x3_reduce"
  param {
    lr_mult: 1
    decay_mult: 1
  }
  param {
    lr_mult: 2
    decay_mult: 0
  }
  convolution_param {
    num_output: 64
    kernel_size: 1
    weight_filler {
      type: "xavier"
    }
    bias_filler {
      type: "constant"
      value: 0.2
    }
  }
}
layer {
  name: "inception_1b/3x3_reduce_bn"
  type: "BN"
  bottom: "inception_1b/3x3_reduce"
  top: "inception_1b/3x3_reduce_bn"
  param {
    lr_mult: 1
    decay_mult: 0
  }
  param {
    lr_mult: 1
    decay_mult: 0
  }
  bn_param {
    slope_filler {
      type: "constant"
      value: 1
    }
    bias_filler {
      type: "constant"
      value: 0
    }
  }
}
layer {
  name: "inception_1b/relu_3x3_reduce"
  type: "ReLU"
  bottom: "inception_1b/3x3_reduce_bn"
  top: "inception_1b/3x3_reduce_bn"
}
layer {
  name: "inception_1b/3x3"
  type: "Convolution"
  bottom: "inception_1b/3x3_reduce_bn"
  top: "inception_1b/3x3"
  param {
    lr_mult: 1
    decay_mult: 1
  }
  param {
    lr_mult: 2
    decay_mult: 0
  }
  convolution_param {
    num_output: 64
    pad: 1
    kernel_size: 3
    stride: 2
    weight_filler {
      type: "xavier"
    }
    bias_filler {
      type: "constant"
      value: 0.2
    }
  }
}
layer {
  name: "inception_1b/3x3_bn"
  type: "BN"
  bottom: "inception_1b/3x3"
  top: "inception_1b/3x3_bn"
  param {
    lr_mult: 1
    decay_mult: 0
  }
  param {
    lr_mult: 1
    decay_mult: 0
  }
  bn_param {
    slope_filler {
      type: "constant"
      value: 1
    }
    bias_filler {
      type: "constant"
      value: 0
    }
  }
}
layer {
  name: "inception_1b/relu_3x3"
  type: "ReLU"
  bottom: "inception_1b/3x3_bn"
  top: "inception_1b/3x3_bn"
}
layer {
  name: "inception_1b/double_3x3_reduce"
  type: "Convolution"
  bottom: "inception_1a/output"
  top: "inception_1b/double_3x3_reduce"
  param {
    lr_mult: 1
    decay_mult: 1
  }
  param {
    lr_mult: 2
    decay_mult: 0
  }
  convolution_param {
    num_output: 64
    kernel_size: 1
    weight_filler {
      type: "xavier"
    }
    bias_filler {
      type: "constant"
      value: 0.2
    }
  }
}
layer {
  name: "inception_1b/double_3x3_reduce_bn"
  type: "BN"
  bottom: "inception_1b/double_3x3_reduce"
  top: "inception_1b/double_3x3_reduce_bn"
  param {
    lr_mult: 1
    decay_mult: 0
  }
  param {
    lr_mult: 1
    decay_mult: 0
  }
  bn_param {
    slope_filler {
      type: "constant"
      value: 1
    }
    bias_filler {
      type: "constant"
      value: 0
    }
  }
}
layer {
  name: "inception_1b/relu_double_3x3_reduce"
  type: "ReLU"
  bottom: "inception_1b/double_3x3_reduce_bn"
  top: "inception_1b/double_3x3_reduce_bn"
}
layer {
  name: "inception_1b/double_3x3_1"
  type: "Convolution"
  bottom: "inception_1b/double_3x3_reduce_bn"
  top: "inception_1b/double_3x3_1"
  param {
    lr_mult: 1
    decay_mult: 1
  }
  param {
    lr_mult: 2
    decay_mult: 0
  }
  convolution_param {
    num_output: 64
    pad: 1
    kernel_size: 3
    weight_filler {
      type: "xavier"
    }
    bias_filler {
      type: "constant"
      value: 0.2
    }
  }
}
layer {
  name: "inception_1b/double_3x3_1_bn"
  type: "BN"
  bottom: "inception_1b/double_3x3_1"
  top: "inception_1b/double_3x3_1_bn"
  param {
    lr_mult: 1
    decay_mult: 0
  }
  param {
    lr_mult: 1
    decay_mult: 0
  }
  bn_param {
    slope_filler {
      type: "constant"
      value: 1
    }
    bias_filler {
      type: "constant"
      value: 0
    }
  }
}
layer {
  name: "inception_1b/relu_double_3x3_1"
  type: "ReLU"
  bottom: "inception_1b/double_3x3_1_bn"
  top: "inception_1b/double_3x3_1_bn"
}
layer {
  name: "inception_1b/double_3x3_2"
  type: "Convolution"
  bottom: "inception_1b/double_3x3_1_bn"
  top: "inception_1b/double_3x3_2"
  param {
    lr_mult: 1
    decay_mult: 1
  }
  param {
    lr_mult: 2
    decay_mult: 0
  }
  convolution_param {
    num_output: 64
    pad: 1
    kernel_size: 3
    stride: 2
    weight_filler {
      type: "xavier"
    }
    bias_filler {
      type: "constant"
      value: 0.2
    }
  }
}
layer {
  name: "inception_1b/double_3x3_2_bn"
  type: "BN"
  bottom: "inception_1b/double_3x3_2"
  top: "inception_1b/double_3x3_2_bn"
  param {
    lr_mult: 1
    decay_mult: 0
  }
  param {
    lr_mult: 1
    decay_mult: 0
  }
  bn_param {
    slope_filler {
      type: "constant"
      value: 1
    }
    bias_filler {
      type: "constant"
      value: 0
    }
  }
}
layer {
  name: "inception_1b/relu_double_3x3_2"
  type: "ReLU"
  bottom: "inception_1b/double_3x3_2_bn"
  top: "inception_1b/double_3x3_2_bn"
}
layer {
  name: "inception_1b/pool"
  type: "Pooling"
  bottom: "inception_1a/output"
  top: "inception_1b/pool"
  pooling_param {
    pool: MAX
    kernel_size: 3
    stride: 2
  }
}
layer {
  name: "inception_1b/output"
  type: "Concat"
  bottom: "inception_1b/3x3_bn"
  bottom: "inception_1b/double_3x3_2_bn"
  bottom: "inception_1b/pool"
  top: "inception_1b/output"
}
layer {
  name: "inception_2a/1x1"
  type: "Convolution"
  bottom: "inception_1b/output"
  top: "inception_2a/1x1"
  param {
    lr_mult: 1
    decay_mult: 1
  }
  param {
    lr_mult: 2
    decay_mult: 0
  }
  convolution_param {
    num_output: 128
    kernel_size: 1
    weight_filler {
      type: "xavier"
    }
    bias_filler {
      type: "constant"
      value: 0.2
    }
  }
}
layer {
  name: "inception_2a/1x1_bn"
  type: "BN"
  bottom: "inception_2a/1x1"
  top: "inception_2a/1x1_bn"
  param {
    lr_mult: 1
    decay_mult: 0
  }
  param {
    lr_mult: 1
    decay_mult: 0
  }
  bn_param {
    slope_filler {
      type: "constant"
      value: 1
    }
    bias_filler {
      type: "constant"
      value: 0
    }
  }
}
layer {
  name: "inception_2a/relu_1x1"
  type: "ReLU"
  bottom: "inception_2a/1x1_bn"
  top: "inception_2a/1x1_bn"
}
layer {
  name: "inception_2a/3x3_reduce"
  type: "Convolution"
  bottom: "inception_1b/output"
  top: "inception_2a/3x3_reduce"
  param {
    lr_mult: 1
    decay_mult: 1
  }
  param {
    lr_mult: 2
    decay_mult: 0
  }
  convolution_param {
    num_output: 128
    kernel_size: 1
    weight_filler {
      type: "xavier"
    }
    bias_filler {
      type: "constant"
      value: 0.2
    }
  }
}
layer {
  name: "inception_2a/3x3_reduce_bn"
  type: "BN"
  bottom: "inception_2a/3x3_reduce"
  top: "inception_2a/3x3_reduce_bn"
  param {
    lr_mult: 1
    decay_mult: 0
  }
  param {
    lr_mult: 1
    decay_mult: 0
  }
  bn_param {
    slope_filler {
      type: "constant"
      value: 1
    }
    bias_filler {
      type: "constant"
      value: 0
    }
  }
}
layer {
  name: "inception_2a/relu_3x3_reduce"
  type: "ReLU"
  bottom: "inception_2a/3x3_reduce_bn"
  top: "inception_2a/3x3_reduce_bn"
}
layer {
  name: "inception_2a/3x3"
  type: "Convolution"
  bottom: "inception_2a/3x3_reduce_bn"
  top: "inception_2a/3x3"
  param {
    lr_mult: 1
    decay_mult: 1
  }
  param {
    lr_mult: 2
    decay_mult: 0
  }
  convolution_param {
    num_output: 128
    pad: 1
    kernel_size: 3
    weight_filler {
      type: "xavier"
    }
    bias_filler {
      type: "constant"
      value: 0.2
    }
  }
}
layer {
  name: "inception_2a/3x3_bn"
  type: "BN"
  bottom: "inception_2a/3x3"
  top: "inception_2a/3x3_bn"
  param {
    lr_mult: 1
    decay_mult: 0
  }
  param {
    lr_mult: 1
    decay_mult: 0
  }
  bn_param {
    slope_filler {
      type: "constant"
      value: 1
    }
    bias_filler {
      type: "constant"
      value: 0
    }
  }
}
layer {
  name: "inception_2a/relu_3x3"
  type: "ReLU"
  bottom: "inception_2a/3x3_bn"
  top: "inception_2a/3x3_bn"
}
layer {
  name: "inception_2a/double_3x3_reduce"
  type: "Convolution"
  bottom: "inception_1b/output"
  top: "inception_2a/double_3x3_reduce"
  param {
    lr_mult: 1
    decay_mult: 1
  }
  param {
    lr_mult: 2
    decay_mult: 0
  }
  convolution_param {
    num_output: 128
    kernel_size: 1
    weight_filler {
      type: "xavier"
    }
    bias_filler {
      type: "constant"
      value: 0.2
    }
  }
}
layer {
  name: "inception_2a/double_3x3_reduce_bn"
  type: "BN"
  bottom: "inception_2a/double_3x3_reduce"
  top: "inception_2a/double_3x3_reduce_bn"
  param {
    lr_mult: 1
    decay_mult: 0
  }
  param {
    lr_mult: 1
    decay_mult: 0
  }
  bn_param {
    slope_filler {
      type: "constant"
      value: 1
    }
    bias_filler {
      type: "constant"
      value: 0
    }
  }
}
layer {
  name: "inception_2a/relu_double_3x3_reduce"
  type: "ReLU"
  bottom: "inception_2a/double_3x3_reduce_bn"
  top: "inception_2a/double_3x3_reduce_bn"
}
layer {
  name: "inception_2a/double_3x3_1"
  type: "Convolution"
  bottom: "inception_2a/double_3x3_reduce_bn"
  top: "inception_2a/double_3x3_1"
  param {
    lr_mult: 1
    decay_mult: 1
  }
  param {
    lr_mult: 2
    decay_mult: 0
  }
  convolution_param {
    num_output: 128
    pad: 1
    kernel_size: 3
    weight_filler {
      type: "xavier"
    }
    bias_filler {
      type: "constant"
      value: 0.2
    }
  }
}
layer {
  name: "inception_2a/double_3x3_1_bn"
  type: "BN"
  bottom: "inception_2a/double_3x3_1"
  top: "inception_2a/double_3x3_1_bn"
  param {
    lr_mult: 1
    decay_mult: 0
  }
  param {
    lr_mult: 1
    decay_mult: 0
  }
  bn_param {
    slope_filler {
      type: "constant"
      value: 1
    }
    bias_filler {
      type: "constant"
      value: 0
    }
  }
}
layer {
  name: "inception_2a/relu_double_3x3_1"
  type: "ReLU"
  bottom: "inception_2a/double_3x3_1_bn"
  top: "inception_2a/double_3x3_1_bn"
}
layer {
  name: "inception_2a/double_3x3_2"
  type: "Convolution"
  bottom: "inception_2a/double_3x3_1_bn"
  top: "inception_2a/double_3x3_2"
  param {
    lr_mult: 1
    decay_mult: 1
  }
  param {
    lr_mult: 2
    decay_mult: 0
  }
  convolution_param {
    num_output: 128
    pad: 1
    kernel_size: 3
    weight_filler {
      type: "xavier"
    }
    bias_filler {
      type: "constant"
      value: 0.2
    }
  }
}
layer {
  name: "inception_2a/double_3x3_2_bn"
  type: "BN"
  bottom: "inception_2a/double_3x3_2"
  top: "inception_2a/double_3x3_2_bn"
  param {
    lr_mult: 1
    decay_mult: 0
  }
  param {
    lr_mult: 1
    decay_mult: 0
  }
  bn_param {
    slope_filler {
      type: "constant"
      value: 1
    }
    bias_filler {
      type: "constant"
      value: 0
    }
  }
}
layer {
  name: "inception_2a/relu_double_3x3_2"
  type: "ReLU"
  bottom: "inception_2a/double_3x3_2_bn"
  top: "inception_2a/double_3x3_2_bn"
}
layer {
  name: "inception_2a/pool"
  type: "Pooling"
  bottom: "inception_1b/output"
  top: "inception_2a/pool"
  pooling_param {
    pool: AVE
    kernel_size: 3
    stride: 1
    pad: 1
  }
}
layer {
  name: "inception_2a/pool_proj"
  type: "Convolution"
  bottom: "inception_2a/pool"
  top: "inception_2a/pool_proj"
  param {
    lr_mult: 1
    decay_mult: 1
  }
  param {
    lr_mult: 2
    decay_mult: 0
  }
  convolution_param {
    num_output: 128
    kernel_size: 1
    weight_filler {
      type: "xavier"
    }
    bias_filler {
      type: "constant"
      value: 0.2
    }
  }
}
layer {
  name: "inception_2a/pool_proj_bn"
  type: "BN"
  bottom: "inception_2a/pool_proj"
  top: "inception_2a/pool_proj_bn"
  param {
    lr_mult: 1
    decay_mult: 0
  }
  param {
    lr_mult: 1
    decay_mult: 0
  }
  bn_param {
    slope_filler {
      type: "constant"
      value: 1
    }
    bias_filler {
      type: "constant"
      value: 0
    }
  }
}
layer {
  name: "inception_2a/relu_pool_proj"
  type: "ReLU"
  bottom: "inception_2a/pool_proj_bn"
  top: "inception_2a/pool_proj_bn"
}
layer {
  name: "inception_2a/output"
  type: "Concat"
  bottom: "inception_2a/1x1_bn"
  bottom: "inception_2a/3x3_bn"
  bottom: "inception_2a/double_3x3_2_bn"
  bottom: "inception_2a/pool_proj_bn"
  top: "inception_2a/output"
}
layer {
  name: "inception_2b/3x3_reduce"
  type: "Convolution"
  bottom: "inception_2a/output"
  top: "inception_2b/3x3_reduce"
  param {
    lr_mult: 1
    decay_mult: 1
  }
  param {
    lr_mult: 2
    decay_mult: 0
  }
  convolution_param {
    num_output: 128
    kernel_size: 1
    weight_filler {
      type: "xavier"
    }
    bias_filler {
      type: "constant"
      value: 0.2
    }
  }
}
layer {
  name: "inception_2b/3x3_reduce_bn"
  type: "BN"
  bottom: "inception_2b/3x3_reduce"
  top: "inception_2b/3x3_reduce_bn"
  param {
    lr_mult: 1
    decay_mult: 0
  }
  param {
    lr_mult: 1
    decay_mult: 0
  }
  bn_param {
    slope_filler {
      type: "constant"
      value: 1
    }
    bias_filler {
      type: "constant"
      value: 0
    }
  }
}
layer {
  name: "inception_2b/relu_3x3_reduce"
  type: "ReLU"
  bottom: "inception_2b/3x3_reduce_bn"
  top: "inception_2b/3x3_reduce_bn"
}
layer {
  name: "inception_2b/3x3"
  type: "Convolution"
  bottom: "inception_2b/3x3_reduce_bn"
  top: "inception_2b/3x3"
  param {
    lr_mult: 1
    decay_mult: 1
  }
  param {
    lr_mult: 2
    decay_mult: 0
  }
  convolution_param {
    num_output: 128
    pad: 1
    kernel_size: 3
    stride: 2
    weight_filler {
      type: "xavier"
    }
    bias_filler {
      type: "constant"
      value: 0.2
    }
  }
}
layer {
  name: "inception_2b/3x3_bn"
  type: "BN"
  bottom: "inception_2b/3x3"
  top: "inception_2b/3x3_bn"
  param {
    lr_mult: 1
    decay_mult: 0
  }
  param {
    lr_mult: 1
    decay_mult: 0
  }
  bn_param {
    slope_filler {
      type: "constant"
      value: 1
    }
    bias_filler {
      type: "constant"
      value: 0
    }
  }
}
layer {
  name: "inception_2b/relu_3x3"
  type: "ReLU"
  bottom: "inception_2b/3x3_bn"
  top: "inception_2b/3x3_bn"
}
layer {
  name: "inception_2b/double_3x3_reduce"
  type: "Convolution"
  bottom: "inception_2a/output"
  top: "inception_2b/double_3x3_reduce"
  param {
    lr_mult: 1
    decay_mult: 1
  }
  param {
    lr_mult: 2
    decay_mult: 0
  }
  convolution_param {
    num_output: 128
    kernel_size: 1
    weight_filler {
      type: "xavier"
    }
    bias_filler {
      type: "constant"
      value: 0.2
    }
  }
}
layer {
  name: "inception_2b/double_3x3_reduce_bn"
  type: "BN"
  bottom: "inception_2b/double_3x3_reduce"
  top: "inception_2b/double_3x3_reduce_bn"
  param {
    lr_mult: 1
    decay_mult: 0
  }
  param {
    lr_mult: 1
    decay_mult: 0
  }
  bn_param {
    slope_filler {
      type: "constant"
      value: 1
    }
    bias_filler {
      type: "constant"
      value: 0
    }
  }
}
layer {
  name: "inception_2b/relu_double_3x3_reduce"
  type: "ReLU"
  bottom: "inception_2b/double_3x3_reduce_bn"
  top: "inception_2b/double_3x3_reduce_bn"
}
layer {
  name: "inception_2b/double_3x3_1"
  type: "Convolution"
  bottom: "inception_2b/double_3x3_reduce_bn"
  top: "inception_2b/double_3x3_1"
  param {
    lr_mult: 1
    decay_mult: 1
  }
  param {
    lr_mult: 2
    decay_mult: 0
  }
  convolution_param {
    num_output: 128
    pad: 1
    kernel_size: 3
    weight_filler {
      type: "xavier"
    }
    bias_filler {
      type: "constant"
      value: 0.2
    }
  }
}
layer {
  name: "inception_2b/double_3x3_1_bn"
  type: "BN"
  bottom: "inception_2b/double_3x3_1"
  top: "inception_2b/double_3x3_1_bn"
  param {
    lr_mult: 1
    decay_mult: 0
  }
  param {
    lr_mult: 1
    decay_mult: 0
  }
  bn_param {
    slope_filler {
      type: "constant"
      value: 1
    }
    bias_filler {
      type: "constant"
      value: 0
    }
  }
}
layer {
  name: "inception_2b/relu_double_3x3_1"
  type: "ReLU"
  bottom: "inception_2b/double_3x3_1_bn"
  top: "inception_2b/double_3x3_1_bn"
}
layer {
  name: "inception_2b/double_3x3_2"
  type: "Convolution"
  bottom: "inception_2b/double_3x3_1_bn"
  top: "inception_2b/double_3x3_2"
  param {
    lr_mult: 1
    decay_mult: 1
  }
  param {
    lr_mult: 2
    decay_mult: 0
  }
  convolution_param {
    num_output: 128
    pad: 1
    kernel_size: 3
    stride: 2
    weight_filler {
      type: "xavier"
    }
    bias_filler {
      type: "constant"
      value: 0.2
    }
  }
}
layer {
  name: "inception_2b/double_3x3_2_bn"
  type: "BN"
  bottom: "inception_2b/double_3x3_2"
  top: "inception_2b/double_3x3_2_bn"
  param {
    lr_mult: 1
    decay_mult: 0
  }
  param {
    lr_mult: 1
    decay_mult: 0
  }
  bn_param {
    slope_filler {
      type: "constant"
      value: 1
    }
    bias_filler {
      type: "constant"
      value: 0
    }
  }
}
layer {
  name: "inception_2b/relu_double_3x3_2"
  type: "ReLU"
  bottom: "inception_2b/double_3x3_2_bn"
  top: "inception_2b/double_3x3_2_bn"
}
layer {
  name: "inception_2b/pool"
  type: "Pooling"
  bottom: "inception_2a/output"
  top: "inception_2b/pool"
  pooling_param {
    pool: MAX
    kernel_size: 3
…
I1018 17:18:15.901902  2890 net.cpp:91] Creating Layer inception_2a/relu_double_3x3_1
I1018 17:18:15.901906  2890 net.cpp:435] inception_2a/relu_double_3x3_1 <- inception_2a/double_3x3_1_bn
I1018 17:18:15.901908  2890 net.cpp:396] inception_2a/relu_double_3x3_1 -> inception_2a/double_3x3_1_bn (in-place)
I1018 17:18:15.902076  2890 net.cpp:141] Setting up inception_2a/relu_double_3x3_1
I1018 17:18:15.902086  2890 net.cpp:148] Top shape: 20 128 36 14 (1290240)
I1018 17:18:15.902098  2890 net.cpp:156] Memory required for data: 874137840
I1018 17:18:15.902101  2890 layer_factory.hpp:77] Creating layer inception_2a/double_3x3_2
I1018 17:18:15.902109  2890 net.cpp:91] Creating Layer inception_2a/double_3x3_2
I1018 17:18:15.902112  2890 net.cpp:435] inception_2a/double_3x3_2 <- inception_2a/double_3x3_1_bn
I1018 17:18:15.902117  2890 net.cpp:409] inception_2a/double_3x3_2 -> inception_2a/double_3x3_2
I1018 17:18:15.905772  2890 net.cpp:141] Setting up inception_2a/double_3x3_2
I1018 17:18:15.905797  2890 net.cpp:148] Top shape: 20 128 36 14 (1290240)
I1018 17:18:15.905800  2890 net.cpp:156] Memory required for data: 879298800
I1018 17:18:15.905812  2890 layer_factory.hpp:77] Creating layer inception_2a/double_3x3_2_bn
I1018 17:18:15.905817  2890 layer_factory.cpp:265] Layer inception_2a/double_3x3_2_bn is using CAFFE engine.
I1018 17:18:15.905827  2890 net.cpp:91] Creating Layer inception_2a/double_3x3_2_bn
I1018 17:18:15.905833  2890 net.cpp:435] inception_2a/double_3x3_2_bn <- inception_2a/double_3x3_2
I1018 17:18:15.905840  2890 net.cpp:409] inception_2a/double_3x3_2_bn -> inception_2a/double_3x3_2_bn
I1018 17:18:15.906085  2890 net.cpp:141] Setting up inception_2a/double_3x3_2_bn
I1018 17:18:15.906093  2890 net.cpp:148] Top shape: 20 128 36 14 (1290240)
I1018 17:18:15.906096  2890 net.cpp:156] Memory required for data: 884459760
I1018 17:18:15.906103  2890 layer_factory.hpp:77] Creating layer inception_2a/relu_double_3x3_2
I1018 17:18:15.906110  2890 net.cpp:91] Creating Layer inception_2a/relu_double_3x3_2
I1018 17:18:15.906112  2890 net.cpp:435] inception_2a/relu_double_3x3_2 <- inception_2a/double_3x3_2_bn
I1018 17:18:15.906117  2890 net.cpp:396] inception_2a/relu_double_3x3_2 -> inception_2a/double_3x3_2_bn (in-place)
I1018 17:18:15.906293  2890 net.cpp:141] Setting up inception_2a/relu_double_3x3_2
I1018 17:18:15.906301  2890 net.cpp:148] Top shape: 20 128 36 14 (1290240)
I1018 17:18:15.906313  2890 net.cpp:156] Memory required for data: 889620720
I1018 17:18:15.906316  2890 layer_factory.hpp:77] Creating layer inception_2a/pool
I1018 17:18:15.906322  2890 net.cpp:91] Creating Layer inception_2a/pool
I1018 17:18:15.906325  2890 net.cpp:435] inception_2a/pool <- inception_1b/output_inception_1b/output_0_split_3
I1018 17:18:15.906340  2890 net.cpp:409] inception_2a/pool -> inception_2a/pool
I1018 17:18:15.906515  2890 net.cpp:141] Setting up inception_2a/pool
I1018 17:18:15.906523  2890 net.cpp:148] Top shape: 20 384 36 14 (3870720)
I1018 17:18:15.906536  2890 net.cpp:156] Memory required for data: 905103600
I1018 17:18:15.906539  2890 layer_factory.hpp:77] Creating layer inception_2a/pool_proj
I1018 17:18:15.906546  2890 net.cpp:91] Creating Layer inception_2a/pool_proj
I1018 17:18:15.906559  2890 net.cpp:435] inception_2a/pool_proj <- inception_2a/pool
I1018 17:18:15.906565  2890 net.cpp:409] inception_2a/pool_proj -> inception_2a/pool_proj
I1018 17:18:15.908013  2890 net.cpp:141] Setting up inception_2a/pool_proj
I1018 17:18:15.908025  2890 net.cpp:148] Top shape: 20 128 36 14 (1290240)
I1018 17:18:15.908037  2890 net.cpp:156] Memory required for data: 910264560
I1018 17:18:15.908044  2890 layer_factory.hpp:77] Creating layer inception_2a/pool_proj_bn
I1018 17:18:15.908047  2890 layer_factory.cpp:265] Layer inception_2a/pool_proj_bn is using CAFFE engine.
I1018 17:18:15.908063  2890 net.cpp:91] Creating Layer inception_2a/pool_proj_bn
I1018 17:18:15.908066  2890 net.cpp:435] inception_2a/pool_proj_bn <- inception_2a/pool_proj
I1018 17:18:15.908073  2890 net.cpp:409] inception_2a/pool_proj_bn -> inception_2a/pool_proj_bn
I1018 17:18:15.908296  2890 net.cpp:141] Setting up inception_2a/pool_proj_bn
I1018 17:18:15.908303  2890 net.cpp:148] Top shape: 20 128 36 14 (1290240)
I1018 17:18:15.908316  2890 net.cpp:156] Memory required for data: 915425520
I1018 17:18:15.908329  2890 layer_factory.hpp:77] Creating layer inception_2a/relu_pool_proj
I1018 17:18:15.908344  2890 net.cpp:91] Creating Layer inception_2a/relu_pool_proj
I1018 17:18:15.908349  2890 net.cpp:435] inception_2a/relu_pool_proj <- inception_2a/pool_proj_bn
I1018 17:18:15.908352  2890 net.cpp:396] inception_2a/relu_pool_proj -> inception_2a/pool_proj_bn (in-place)
I1018 17:18:15.909008  2890 net.cpp:141] Setting up inception_2a/relu_pool_proj
I1018 17:18:15.909027  2890 net.cpp:148] Top shape: 20 128 36 14 (1290240)
I1018 17:18:15.909030  2890 net.cpp:156] Memory required for data: 920586480
I1018 17:18:15.909034  2890 layer_factory.hpp:77] Creating layer inception_2a/output
I1018 17:18:15.909039  2890 net.cpp:91] Creating Layer inception_2a/output
I1018 17:18:15.909054  2890 net.cpp:435] inception_2a/output <- inception_2a/1x1_bn
I1018 17:18:15.909057  2890 net.cpp:435] inception_2a/output <- inception_2a/3x3_bn
I1018 17:18:15.909060  2890 net.cpp:435] inception_2a/output <- inception_2a/double_3x3_2_bn
I1018 17:18:15.909065  2890 net.cpp:435] inception_2a/output <- inception_2a/pool_proj_bn
I1018 17:18:15.909068  2890 net.cpp:409] inception_2a/output -> inception_2a/output
I1018 17:18:15.909117  2890 net.cpp:141] Setting up inception_2a/output
I1018 17:18:15.909122  2890 net.cpp:148] Top shape: 20 512 36 14 (5160960)
I1018 17:18:15.909124  2890 net.cpp:156] Memory required for data: 941230320
I1018 17:18:15.909127  2890 layer_factory.hpp:77] Creating layer inception_2a/output_inception_2a/output_0_split
I1018 17:18:15.909149  2890 net.cpp:91] Creating Layer inception_2a/output_inception_2a/output_0_split
I1018 17:18:15.909152  2890 net.cpp:435] inception_2a/output_inception_2a/output_0_split <- inception_2a/output
I1018 17:18:15.909155  2890 net.cpp:409] inception_2a/output_inception_2a/output_0_split -> inception_2a/output_inception_2a/output_0_split_0
I1018 17:18:15.909171  2890 net.cpp:409] inception_2a/output_inception_2a/output_0_split -> inception_2a/output_inception_2a/output_0_split_1
I1018 17:18:15.909176  2890 net.cpp:409] inception_2a/output_inception_2a/output_0_split -> inception_2a/output_inception_2a/output_0_split_2
I1018 17:18:15.909240  2890 net.cpp:141] Setting up inception_2a/output_inception_2a/output_0_split
I1018 17:18:15.909245  2890 net.cpp:148] Top shape: 20 512 36 14 (5160960)
I1018 17:18:15.909247  2890 net.cpp:148] Top shape: 20 512 36 14 (5160960)
I1018 17:18:15.909260  2890 net.cpp:148] Top shape: 20 512 36 14 (5160960)
I1018 17:18:15.909262  2890 net.cpp:156] Memory required for data: 1003161840
I1018 17:18:15.909265  2890 layer_factory.hpp:77] Creating layer inception_2b/3x3_reduce
I1018 17:18:15.909272  2890 net.cpp:91] Creating Layer inception_2b/3x3_reduce
I1018 17:18:15.909284  2890 net.cpp:435] inception_2b/3x3_reduce <- inception_2a/output_inception_2a/output_0_split_0
I1018 17:18:15.909291  2890 net.cpp:409] inception_2b/3x3_reduce -> inception_2b/3x3_reduce
I1018 17:18:15.911492  2890 net.cpp:141] Setting up inception_2b/3x3_reduce
I1018 17:18:15.911504  2890 net.cpp:148] Top shape: 20 128 36 14 (1290240)
I1018 17:18:15.911515  2890 net.cpp:156] Memory required for data: 1008322800
I1018 17:18:15.911520  2890 layer_factory.hpp:77] Creating layer inception_2b/3x3_reduce_bn
I1018 17:18:15.911533  2890 layer_factory.cpp:265] Layer inception_2b/3x3_reduce_bn is using CAFFE engine.
I1018 17:18:15.911540  2890 net.cpp:91] Creating Layer inception_2b/3x3_reduce_bn
I1018 17:18:15.911543  2890 net.cpp:435] inception_2b/3x3_reduce_bn <- inception_2b/3x3_reduce
I1018 17:18:15.911548  2890 net.cpp:409] inception_2b/3x3_reduce_bn -> inception_2b/3x3_reduce_bn
I1018 17:18:15.911798  2890 net.cpp:141] Setting up inception_2b/3x3_reduce_bn
I1018 17:18:15.911804  2890 net.cpp:148] Top shape: 20 128 36 14 (1290240)
I1018 17:18:15.911816  2890 net.cpp:156] Memory required for data: 1013483760
I1018 17:18:15.911823  2890 layer_factory.hpp:77] Creating layer inception_2b/relu_3x3_reduce
I1018 17:18:15.911837  2890 net.cpp:91] Creating Layer inception_2b/relu_3x3_reduce
I1018 17:18:15.911840  2890 net.cpp:435] inception_2b/relu_3x3_reduce <- inception_2b/3x3_reduce_bn
I1018 17:18:15.911844  2890 net.cpp:396] inception_2b/relu_3x3_reduce -> inception_2b/3x3_reduce_bn (in-place)
I1018 17:18:15.912479  2890 net.cpp:141] Setting up inception_2b/relu_3x3_reduce
I1018 17:18:15.912489  2890 net.cpp:148] Top shape: 20 128 36 14 (1290240)
I1018 17:18:15.912502  2890 net.cpp:156] Memory required for data: 1018644720
I1018 17:18:15.912504  2890 layer_factory.hpp:77] Creating layer inception_2b/3x3
I1018 17:18:15.912523  2890 net.cpp:91] Creating Layer inception_2b/3x3
I1018 17:18:15.912526  2890 net.cpp:435] inception_2b/3x3 <- inception_2b/3x3_reduce_bn
I1018 17:18:15.912531  2890 net.cpp:409] inception_2b/3x3 -> inception_2b/3x3
I1018 17:18:15.914418  2890 net.cpp:141] Setting up inception_2b/3x3
I1018 17:18:15.914429  2890 net.cpp:148] Top shape: 20 128 18 7 (322560)
I1018 17:18:15.914441  2890 net.cpp:156] Memory required for data: 1019934960
I1018 17:18:15.914446  2890 layer_factory.hpp:77] Creating layer inception_2b/3x3_bn
I1018 17:18:15.914459  2890 layer_factory.cpp:265] Layer inception_2b/3x3_bn is using CAFFE engine.
I1018 17:18:15.914465  2890 net.cpp:91] Creating Layer inception_2b/3x3_bn
I1018 17:18:15.914469  2890 net.cpp:435] inception_2b/3x3_bn <- inception_2b/3x3
I1018 17:18:15.914474  2890 net.cpp:409] inception_2b/3x3_bn -> inception_2b/3x3_bn
I1018 17:18:15.914690  2890 net.cpp:141] Setting up inception_2b/3x3_bn
I1018 17:18:15.914697  2890 net.cpp:148] Top shape: 20 128 18 7 (322560)
I1018 17:18:15.914708  2890 net.cpp:156] Memory required for data: 1021225200
I1018 17:18:15.914714  2890 layer_factory.hpp:77] Creating layer inception_2b/relu_3x3
I1018 17:18:15.914728  2890 net.cpp:91] Creating Layer inception_2b/relu_3x3
I1018 17:18:15.914731  2890 net.cpp:435] inception_2b/relu_3x3 <- inception_2b/3x3_bn
I1018 17:18:15.914736  2890 net.cpp:396] inception_2b/relu_3x3 -> inception_2b/3x3_bn (in-place)
I1018 17:18:15.914891  2890 net.cpp:141] Setting up inception_2b/relu_3x3
I1018 17:18:15.914898  2890 net.cpp:148] Top shape: 20 128 18 7 (322560)
I1018 17:18:15.914911  2890 net.cpp:156] Memory required for data: 1022515440
I1018 17:18:15.914912  2890 layer_factory.hpp:77] Creating layer inception_2b/double_3x3_reduce
I1018 17:18:15.914930  2890 net.cpp:91] Creating Layer inception_2b/double_3x3_reduce
I1018 17:18:15.914933  2890 net.cpp:435] inception_2b/double_3x3_reduce <- inception_2a/output_inception_2a/output_0_split_1
I1018 17:18:15.914938  2890 net.cpp:409] inception_2b/double_3x3_reduce -> inception_2b/double_3x3_reduce
I1018 17:18:15.916460  2890 net.cpp:141] Setting up inception_2b/double_3x3_reduce
I1018 17:18:15.916481  2890 net.cpp:148] Top shape: 20 128 36 14 (1290240)
I1018 17:18:15.916483  2890 net.cpp:156] Memory required for data: 1027676400
I1018 17:18:15.916488  2890 layer_factory.hpp:77] Creating layer inception_2b/double_3x3_reduce_bn
I1018 17:18:15.916501  2890 layer_factory.cpp:265] Layer inception_2b/double_3x3_reduce_bn is using CAFFE engine.
I1018 17:18:15.916507  2890 net.cpp:91] Creating Layer inception_2b/double_3x3_reduce_bn
I1018 17:18:15.916512  2890 net.cpp:435] inception_2b/double_3x3_reduce_bn <- inception_2b/double_3x3_reduce
I1018 17:18:15.916517  2890 net.cpp:409] inception_2b/double_3x3_reduce_bn -> inception_2b/double_3x3_reduce_bn
I1018 17:18:15.916734  2890 net.cpp:141] Setting up inception_2b/double_3x3_reduce_bn
I1018 17:18:15.916741  2890 net.cpp:148] Top shape: 20 128 36 14 (1290240)
I1018 17:18:15.916754  2890 net.cpp:156] Memory required for data: 1032837360
I1018 17:18:15.916759  2890 layer_factory.hpp:77] Creating layer inception_2b/relu_double_3x3_reduce
I1018 17:18:15.916774  2890 net.cpp:91] Creating Layer inception_2b/relu_double_3x3_reduce
I1018 17:18:15.916776  2890 net.cpp:435] inception_2b/relu_double_3x3_reduce <- inception_2b/double_3x3_reduce_bn
I1018 17:18:15.916781  2890 net.cpp:396] inception_2b/relu_double_3x3_reduce -> inception_2b/double_3x3_reduce_bn (in-place)
I1018 17:18:15.916939  2890 net.cpp:141] Setting up inception_2b/relu_double_3x3_reduce
I1018 17:18:15.916946  2890 net.cpp:148] Top shape: 20 128 36 14 (1290240)
I1018 17:18:15.916959  2890 net.cpp:156] Memory required for data: 1037998320
I1018 17:18:15.916961  2890 layer_factory.hpp:77] Creating layer inception_2b/double_3x3_1
I1018 17:18:15.916980  2890 net.cpp:91] Creating Layer inception_2b/double_3x3_1
I1018 17:18:15.916982  2890 net.cpp:435] inception_2b/double_3x3_1 <- inception_2b/double_3x3_reduce_bn
I1018 17:18:15.916987  2890 net.cpp:409] inception_2b/double_3x3_1 -> inception_2b/double_3x3_1
I1018 17:18:15.919322  2890 net.cpp:141] Setting up inception_2b/double_3x3_1
I1018 17:18:15.919332  2890 net.cpp:148] Top shape: 20 128 36 14 (1290240)
I1018 17:18:15.919344  2890 net.cpp:156] Memory required for data: 1043159280
I1018 17:18:15.919351  2890 layer_factory.hpp:77] Creating layer inception_2b/double_3x3_1_bn
I1018 17:18:15.919364  2890 layer_factory.cpp:265] Layer inception_2b/double_3x3_1_bn is using CAFFE engine.
I1018 17:18:15.919369  2890 net.cpp:91] Creating Layer inception_2b/double_3x3_1_bn
I1018 17:18:15.919373  2890 net.cpp:435] inception_2b/double_3x3_1_bn <- inception_2b/double_3x3_1
I1018 17:18:15.919378  2890 net.cpp:409] inception_2b/double_3x3_1_bn -> inception_2b/double_3x3_1_bn
I1018 17:18:15.919602  2890 net.cpp:141] Setting up inception_2b/double_3x3_1_bn
I1018 17:18:15.919608  2890 net.cpp:148] Top shape: 20 128 36 14 (1290240)
I1018 17:18:15.919620  2890 net.cpp:156] Memory required for data: 1048320240
I1018 17:18:15.919626  2890 layer_factory.hpp:77] Creating layer inception_2b/relu_double_3x3_1
I1018 17:18:15.919631  2890 net.cpp:91] Creating Layer inception_2b/relu_double_3x3_1
I1018 17:18:15.919633  2890 net.cpp:435] inception_2b/relu_double_3x3_1 <- inception_2b/double_3x3_1_bn
I1018 17:18:15.919646  2890 net.cpp:396] inception_2b/relu_double_3x3_1 -> inception_2b/double_3x3_1_bn (in-place)
I1018 17:18:15.919817  2890 net.cpp:141] Setting up inception_2b/relu_double_3x3_1
I1018 17:18:15.919826  2890 net.cpp:148] Top shape: 20 128 36 14 (1290240)
I1018 17:18:15.919839  2890 net.cpp:156] Memory required for data: 1053481200
I1018 17:18:15.919842  2890 layer_factory.hpp:77] Creating layer inception_2b/double_3x3_2
I1018 17:18:15.919849  2890 net.cpp:91] Creating Layer inception_2b/double_3x3_2
I1018 17:18:15.919852  2890 net.cpp:435] inception_2b/double_3x3_2 <- inception_2b/double_3x3_1_bn
I1018 17:18:15.919867  2890 net.cpp:409] inception_2b/double_3x3_2 -> inception_2b/double_3x3_2
I1018 17:18:15.922468  2890 net.cpp:141] Setting up inception_2b/double_3x3_2
I1018 17:18:15.922479  2890 net.cpp:148] Top shape: 20 128 18 7 (322560)
I1018 17:18:15.922482  2890 net.cpp:156] Memory required for data: 1054771440
I1018 17:18:15.922487  2890 layer_factory.hpp:77] Creating layer inception_2b/double_3x3_2_bn
I1018 17:18:15.922490  2890 layer_factory.cpp:265] Layer inception_2b/double_3x3_2_bn is using CAFFE engine.
I1018 17:18:15.922497  2890 net.cpp:91] Creating Layer inception_2b/double_3x3_2_bn
I1018 17:18:15.922500  2890 net.cpp:435] inception_2b/double_3x3_2_bn <- inception_2b/double_3x3_2
I1018 17:18:15.922515  2890 net.cpp:409] inception_2b/double_3x3_2_bn -> inception_2b/double_3x3_2_bn
I1018 17:18:15.922744  2890 net.cpp:141] Setting up inception_2b/double_3x3_2_bn
I1018 17:18:15.922750  2890 net.cpp:148] Top shape: 20 128 18 7 (322560)
I1018 17:18:15.922762  2890 net.cpp:156] Memory required for data: 1056061680
I1018 17:18:15.922768  2890 layer_factory.hpp:77] Creating layer inception_2b/relu_double_3x3_2
I1018 17:18:15.922773  2890 net.cpp:91] Creating Layer inception_2b/relu_double_3x3_2
I1018 17:18:15.922776  2890 net.cpp:435] inception_2b/relu_double_3x3_2 <- inception_2b/double_3x3_2_bn
I1018 17:18:15.922790  2890 net.cpp:396] inception_2b/relu_double_3x3_2 -> inception_2b/double_3x3_2_bn (in-place)
I1018 17:18:15.922937  2890 net.cpp:141] Setting up inception_2b/relu_double_3x3_2
I1018 17:18:15.922945  2890 net.cpp:148] Top shape: 20 128 18 7 (322560)
I1018 17:18:15.922948  2890 net.cpp:156] Memory required for data: 1057351920
I1018 17:18:15.922950  2890 layer_factory.hpp:77] Creating layer inception_2b/pool
I1018 17:18:15.922955  2890 net.cpp:91] Creating Layer inception_2b/pool
I1018 17:18:15.922958  2890 net.cpp:435] inception_2b/pool <- inception_2a/output_inception_2a/output_0_split_2
I1018 17:18:15.922963  2890 net.cpp:409] inception_2b/pool -> inception_2b/pool
I1018 17:18:15.923013  2890 net.cpp:141] Setting up inception_2b/pool
I1018 17:18:15.923029  2890 net.cpp:148] Top shape: 20 512 18 7 (1290240)
I1018 17:18:15.923032  2890 net.cpp:156] Memory required for data: 1062512880
I1018 17:18:15.923033  2890 layer_factory.hpp:77] Creating layer inception_2b/output
I1018 17:18:15.923038  2890 net.cpp:91] Creating Layer inception_2b/output
I1018 17:18:15.923040  2890 net.cpp:435] inception_2b/output <- inception_2b/3x3_bn
I1018 17:18:15.923043  2890 net.cpp:435] inception_2b/output <- inception_2b/double_3x3_2_bn
I1018 17:18:15.923056  2890 net.cpp:435] inception_2b/output <- inception_2b/pool
I1018 17:18:15.923060  2890 net.cpp:409] inception_2b/output -> inception_2b/output
I1018 17:18:15.923082  2890 net.cpp:141] Setting up inception_2b/output
I1018 17:18:15.923087  2890 net.cpp:148] Top shape: 20 768 18 7 (1935360)
I1018 17:18:15.923089  2890 net.cpp:156] Memory required for data: 1070254320
I1018 17:18:15.923101  2890 layer_factory.hpp:77] Creating layer inception_2b/output_inception_2b/output_0_split
I1018 17:18:15.923106  2890 net.cpp:91] Creating Layer inception_2b/output_inception_2b/output_0_split
I1018 17:18:15.923108  2890 net.cpp:435] inception_2b/output_inception_2b/output_0_split <- inception_2b/output
I1018 17:18:15.923112  2890 net.cpp:409] inception_2b/output_inception_2b/output_0_split -> inception_2b/output_inception_2b/output_0_split_0
I1018 17:18:15.923116  2890 net.cpp:409] inception_2b/output_inception_2b/output_0_split -> inception_2b/output_inception_2b/output_0_split_1
I1018 17:18:15.923130  2890 net.cpp:409] inception_2b/output_inception_2b/output_0_split -> inception_2b/output_inception_2b/output_0_split_2
I1018 17:18:15.923133  2890 net.cpp:409] inception_2b/output_inception_2b/output_0_split -> inception_2b/output_inception_2b/output_0_split_3
I1018 17:18:15.923194  2890 net.cpp:141] Setting up inception_2b/output_inception_2b/output_0_split
I1018 17:18:15.923199  2890 net.cpp:148] Top shape: 20 768 18 7 (1935360)
I1018 17:18:15.923202  2890 net.cpp:148] Top shape: 20 768 18 7 (1935360)
I1018 17:18:15.923205  2890 net.cpp:148] Top shape: 20 768 18 7 (1935360)
I1018 17:18:15.923207  2890 net.cpp:148] Top shape: 20 768 18 7 (1935360)
I1018 17:18:15.923209  2890 net.cpp:156] Memory required for data: 1101220080
I1018 17:18:15.923213  2890 layer_factory.hpp:77] Creating layer inception_3a/1x1
I1018 17:18:15.923228  2890 net.cpp:91] Creating Layer inception_3a/1x1
I1018 17:18:15.923230  2890 net.cpp:435] inception_3a/1x1 <- inception_2b/output_inception_2b/output_0_split_0
I1018 17:18:15.923235  2890 net.cpp:409] inception_3a/1x1 -> inception_3a/1x1
I1018 17:18:15.925400  2890 net.cpp:141] Setting up inception_3a/1x1
I1018 17:18:15.925412  2890 net.cpp:148] Top shape: 20 256 18 7 (645120)
I1018 17:18:15.925415  2890 net.cpp:156] Memory required for data: 1103800560
I1018 17:18:15.925420  2890 layer_factory.hpp:77] Creating layer inception_3a/1x1_bn
I1018 17:18:15.925423  2890 layer_factory.cpp:265] Layer inception_3a/1x1_bn is using CAFFE engine.
I1018 17:18:15.925437  2890 net.cpp:91] Creating Layer inception_3a/1x1_bn
I1018 17:18:15.925441  2890 net.cpp:435] inception_3a/1x1_bn <- inception_3a/1x1
I1018 17:18:15.925446  2890 net.cpp:409] inception_3a/1x1_bn -> inception_3a/1x1_bn
I1018 17:18:15.925653  2890 net.cpp:141] Setting up inception_3a/1x1_bn
I1018 17:18:15.925659  2890 net.cpp:148] Top shape: 20 256 18 7 (645120)
I1018 17:18:15.925662  2890 net.cpp:156] Memory required for data: 1106381040
I1018 17:18:15.925668  2890 layer_factory.hpp:77] Creating layer inception_3a/relu_1x1
I1018 17:18:15.925673  2890 net.cpp:91] Creating Layer inception_3a/relu_1x1
I1018 17:18:15.925674  2890 net.cpp:435] inception_3a/relu_1x1 <- inception_3a/1x1_bn
I1018 17:18:15.925688  2890 net.cpp:396] inception_3a/relu_1x1 -> inception_3a/1x1_bn (in-place)
I1018 17:18:15.925837  2890 net.cpp:141] Setting up inception_3a/relu_1x1
I1018 17:18:15.925845  2890 net.cpp:148] Top shape: 20 256 18 7 (645120)
I1018 17:18:15.925848  2890 net.cpp:156] Memory required for data: 1108961520
I1018 17:18:15.925850  2890 layer_factory.hpp:77] Creating layer inception_3a/3x3_reduce
I1018 17:18:15.925856  2890 net.cpp:91] Creating Layer inception_3a/3x3_reduce
I1018 17:18:15.925859  2890 net.cpp:435] inception_3a/3x3_reduce <- inception_2b/output_inception_2b/output_0_split_1
I1018 17:18:15.925875  2890 net.cpp:409] inception_3a/3x3_reduce -> inception_3a/3x3_reduce
I1018 17:18:15.928683  2890 net.cpp:141] Setting up inception_3a/3x3_reduce
I1018 17:18:15.928694  2890 net.cpp:148] Top shape: 20 256 18 7 (645120)
I1018 17:18:15.928697  2890 net.cpp:156] Memory required for data: 1111542000
I1018 17:18:15.928702  2890 layer_factory.hpp:77] Creating layer inception_3a/3x3_reduce_bn
I1018 17:18:15.928705  2890 layer_factory.cpp:265] Layer inception_3a/3x3_reduce_bn is using CAFFE engine.
I1018 17:18:15.928720  2890 net.cpp:91] Creating Layer inception_3a/3x3_reduce_bn
I1018 17:18:15.928725  2890 net.cpp:435] inception_3a/3x3_reduce_bn <- inception_3a/3x3_reduce
I1018 17:18:15.928738  2890 net.cpp:409] inception_3a/3x3_reduce_bn -> inception_3a/3x3_reduce_bn
I1018 17:18:15.928970  2890 net.cpp:141] Setting up inception_3a/3x3_reduce_bn
I1018 17:18:15.928977  2890 net.cpp:148] Top shape: 20 256 18 7 (645120)
I1018 17:18:15.928989  2890 net.cpp:156] Memory required for data: 1114122480
I1018 17:18:15.928995  2890 layer_factory.hpp:77] Creating layer inception_3a/relu_3x3_reduce
I1018 17:18:15.929000  2890 net.cpp:91] Creating Layer inception_3a/relu_3x3_reduce
I1018 17:18:15.929003  2890 net.cpp:435] inception_3a/relu_3x3_reduce <- inception_3a/3x3_reduce_bn
I1018 17:18:15.929018  2890 net.cpp:396] inception_3a/relu_3x3_reduce -> inception_3a/3x3_reduce_bn (in-place)
I1018 17:18:15.929664  2890 net.cpp:141] Setting up inception_3a/relu_3x3_reduce
I1018 17:18:15.929677  2890 net.cpp:148] Top shape: 20 256 18 7 (645120)
I1018 17:18:15.929690  2890 net.cpp:156] Memory required for data: 1116702960
I1018 17:18:15.929693  2890 layer_factory.hpp:77] Creating layer inception_3a/3x3
I1018 17:18:15.929702  2890 net.cpp:91] Creating Layer inception_3a/3x3
I1018 17:18:15.929714  2890 net.cpp:435] inception_3a/3x3 <- inception_3a/3x3_reduce_bn
I1018 17:18:15.929720  2890 net.cpp:409] inception_3a/3x3 -> inception_3a/3x3
I1018 17:18:15.935148  2890 net.cpp:141] Setting up inception_3a/3x3
I1018 17:18:15.935169  2890 net.cpp:148] Top shape: 20 256 18 7 (645120)
I1018 17:18:15.935173  2890 net.cpp:156] Memory required for data: 1119283440
I1018 17:18:15.935179  2890 layer_factory.hpp:77] Creating layer inception_3a/3x3_bn
I1018 17:18:15.935184  2890 layer_factory.cpp:265] Layer inception_3a/3x3_bn is using CAFFE engine.
I1018 17:18:15.935189  2890 net.cpp:91] Creating Layer inception_3a/3x3_bn
I1018 17:18:15.935194  2890 net.cpp:435] inception_3a/3x3_bn <- inception_3a/3x3
I1018 17:18:15.935200  2890 net.cpp:409] inception_3a/3x3_bn -> inception_3a/3x3_bn
I1018 17:18:15.935447  2890 net.cpp:141] Setting up inception_3a/3x3_bn
I1018 17:18:15.935454  2890 net.cpp:148] Top shape: 20 256 18 7 (645120)
I1018 17:18:15.935467  2890 net.cpp:156] Memory required for data: 1121863920
I1018 17:18:15.935473  2890 layer_factory.hpp:77] Creating layer inception_3a/relu_3x3
I1018 17:18:15.935478  2890 net.cpp:91] Creating Layer inception_3a/relu_3x3
I1018 17:18:15.935482  2890 net.cpp:435] inception_3a/relu_3x3 <- inception_3a/3x3_bn
I1018 17:18:15.935485  2890 net.cpp:396] inception_3a/relu_3x3 -> inception_3a/3x3_bn (in-place)
I1018 17:18:15.935643  2890 net.cpp:141] Setting up inception_3a/relu_3x3
I1018 17:18:15.935652  2890 net.cpp:148] Top shape: 20 256 18 7 (645120)
I1018 17:18:15.935655  2890 net.cpp:156] Memory required for data: 1124444400
I1018 17:18:15.935657  2890 layer_factory.hpp:77] Creating layer inception_3a/double_3x3_reduce
I1018 17:18:15.935668  2890 net.cpp:91] Creating Layer inception_3a/double_3x3_reduce
I1018 17:18:15.935672  2890 net.cpp:435] inception_3a/double_3x3_reduce <- inception_2b/output_inception_2b/output_0_split_2
I1018 17:18:15.935678  2890 net.cpp:409] inception_3a/double_3x3_reduce -> inception_3a/double_3x3_reduce
I1018 17:18:15.938148  2890 net.cpp:141] Setting up inception_3a/double_3x3_reduce
I1018 17:18:15.938172  2890 net.cpp:148] Top shape: 20 256 18 7 (645120)
I1018 17:18:15.938175  2890 net.cpp:156] Memory required for data: 1127024880
I1018 17:18:15.938180  2890 layer_factory.hpp:77] Creating layer inception_3a/double_3x3_reduce_bn
I1018 17:18:15.938184  2890 layer_factory.cpp:265] Layer inception_3a/double_3x3_reduce_bn is using CAFFE engine.
I1018 17:18:15.938191  2890 net.cpp:91] Creating Layer inception_3a/double_3x3_reduce_bn
I1018 17:18:15.938195  2890 net.cpp:435] inception_3a/double_3x3_reduce_bn <- inception_3a/double_3x3_reduce
I1018 17:18:15.938201  2890 net.cpp:409] inception_3a/double_3x3_reduce_bn -> inception_3a/double_3x3_reduce_bn
I1018 17:18:15.938493  2890 net.cpp:141] Setting up inception_3a/double_3x3_reduce_bn
I1018 17:18:15.938511  2890 net.cpp:148] Top shape: 20 256 18 7 (645120)
I1018 17:18:15.938513  2890 net.cpp:156] Memory required for data: 1129605360
I1018 17:18:15.938529  2890 layer_factory.hpp:77] Creating layer inception_3a/relu_double_3x3_reduce
I1018 17:18:15.938534  2890 net.cpp:91] Creating Layer inception_3a/relu_double_3x3_reduce
I1018 17:18:15.938537  2890 net.cpp:435] inception_3a/relu_double_3x3_reduce <- inception_3a/double_3x3_reduce_bn
I1018 17:18:15.938542  2890 net.cpp:396] inception_3a/relu_double_3x3_reduce -> inception_3a/double_3x3_reduce_bn (in-place)
I1018 17:18:15.938727  2890 net.cpp:141] Setting up inception_3a/relu_double_3x3_reduce
I1018 17:18:15.938735  2890 net.cpp:148] Top shape: 20 256 18 7 (645120)
I1018 17:18:15.938747  2890 net.cpp:156] Memory required for data: 1132185840
I1018 17:18:15.938750  2890 layer_factory.hpp:77] Creating layer inception_3a/double_3x3_1
I1018 17:18:15.938767  2890 net.cpp:91] Creating Layer inception_3a/double_3x3_1
I1018 17:18:15.938771  2890 net.cpp:435] inception_3a/double_3x3_1 <- inception_3a/double_3x3_reduce_bn
I1018 17:18:15.938776  2890 net.cpp:409] inception_3a/double_3x3_1 -> inception_3a/double_3x3_1
I1018 17:18:15.944450  2890 net.cpp:141] Setting up inception_3a/double_3x3_1
I1018 17:18:15.944464  2890 net.cpp:148] Top shape: 20 256 18 7 (645120)
I1018 17:18:15.944468  2890 net.cpp:156] Memory required for data: 1134766320
I1018 17:18:15.944474  2890 layer_factory.hpp:77] Creating layer inception_3a/double_3x3_1_bn
I1018 17:18:15.944478  2890 layer_factory.cpp:265] Layer inception_3a/double_3x3_1_bn is using CAFFE engine.
I1018 17:18:15.944494  2890 net.cpp:91] Creating Layer inception_3a/double_3x3_1_bn
I1018 17:18:15.944499  2890 net.cpp:435] inception_3a/double_3x3_1_bn <- inception_3a/double_3x3_1
I1018 17:18:15.944505  2890 net.cpp:409] inception_3a/double_3x3_1_bn -> inception_3a/double_3x3_1_bn
I1018 17:18:15.944728  2890 net.cpp:141] Setting up inception_3a/double_3x3_1_bn
I1018 17:18:15.944736  2890 net.cpp:148] Top shape: 20 256 18 7 (645120)
I1018 17:18:15.944737  2890 net.cpp:156] Memory required for data: 1137346800
I1018 17:18:15.944743  2890 layer_factory.hpp:77] Creating layer inception_3a/relu_double_3x3_1
I1018 17:18:15.944749  2890 net.cpp:91] Creating Layer inception_3a/relu_double_3x3_1
I1018 17:18:15.944762  2890 net.cpp:435] inception_3a/relu_double_3x3_1 <- inception_3a/double_3x3_1_bn
I1018 17:18:15.944766  2890 net.cpp:396] inception_3a/relu_double_3x3_1 -> inception_3a/double_3x3_1_bn (in-place)
I1018 17:18:15.944924  2890 net.cpp:141] Setting up inception_3a/relu_double_3x3_1
I1018 17:18:15.944932  2890 net.cpp:148] Top shape: 20 256 18 7 (645120)
I1018 17:18:15.944934  2890 net.cpp:156] Memory required for data: 1139927280
I1018 17:18:15.944947  2890 layer_factory.hpp:77] Creating layer inception_3a/double_3x3_2
I1018 17:18:15.944957  2890 net.cpp:91] Creating Layer inception_3a/double_3x3_2
I1018 17:18:15.944959  2890 net.cpp:435] inception_3a/double_3x3_2 <- inception_3a/double_3x3_1_bn
I1018 17:18:15.944964  2890 net.cpp:409] inception_3a/double_3x3_2 -> inception_3a/double_3x3_2
I1018 17:18:15.950518  2890 net.cpp:141] Setting up inception_3a/double_3x3_2
I1018 17:18:15.950532  2890 net.cpp:148] Top shape: 20 256 18 7 (645120)
I1018 17:18:15.950536  2890 net.cpp:156] Memory required for data: 1142507760
I1018 17:18:15.950542  2890 layer_factory.hpp:77] Creating layer inception_3a/double_3x3_2_bn
I1018 17:18:15.950546  2890 layer_factory.cpp:265] Layer inception_3a/double_3x3_2_bn is using CAFFE engine.
I1018 17:18:15.950554  2890 net.cpp:91] Creating Layer inception_3a/double_3x3_2_bn
I1018 17:18:15.950558  2890 net.cpp:435] inception_3a/double_3x3_2_bn <- inception_3a/double_3x3_2
I1018 17:18:15.950563  2890 net.cpp:409] inception_3a/double_3x3_2_bn -> inception_3a/double_3x3_2_bn
I1018 17:18:15.950793  2890 net.cpp:141] Setting up inception_3a/double_3x3_2_bn
I1018 17:18:15.950800  2890 net.cpp:148] Top shape: 20 256 18 7 (645120)
I1018 17:18:15.950803  2890 net.cpp:156] Memory required for data: 1145088240
I1018 17:18:15.950809  2890 layer_factory.hpp:77] Creating layer inception_3a/relu_double_3x3_2
I1018 17:18:15.950814  2890 net.cpp:91] Creating Layer inception_3a/relu_double_3x3_2
I1018 17:18:15.950817  2890 net.cpp:435] inception_3a/relu_double_3x3_2 <- inception_3a/double_3x3_2_bn
I1018 17:18:15.950821  2890 net.cpp:396] inception_3a/relu_double_3x3_2 -> inception_3a/double_3x3_2_bn (in-place)
I1018 17:18:15.950979  2890 net.cpp:141] Setting up inception_3a/relu_double_3x3_2
I1018 17:18:15.950987  2890 net.cpp:148] Top shape: 20 256 18 7 (645120)
I1018 17:18:15.950990  2890 net.cpp:156] Memory required for data: 1147668720
I1018 17:18:15.950992  2890 layer_factory.hpp:77] Creating layer inception_3a/pool
I1018 17:18:15.950999  2890 net.cpp:91] Creating Layer inception_3a/pool
I1018 17:18:15.951002  2890 net.cpp:435] inception_3a/pool <- inception_2b/output_inception_2b/output_0_split_3
I1018 17:18:15.951007  2890 net.cpp:409] inception_3a/pool -> inception_3a/pool
I1018 17:18:15.951946  2890 net.cpp:141] Setting up inception_3a/pool
I1018 17:18:15.951957  2890 net.cpp:148] Top shape: 20 768 18 7 (1935360)
I1018 17:18:15.951969  2890 net.cpp:156] Memory required for data: 1155410160
I1018 17:18:15.951972  2890 layer_factory.hpp:77] Creating layer inception_3a/pool_proj
I1018 17:18:15.951982  2890 net.cpp:91] Creating Layer inception_3a/pool_proj
I1018 17:18:15.951995  2890 net.cpp:435] inception_3a/pool_proj <- inception_3a/pool
I1018 17:18:15.952002  2890 net.cpp:409] inception_3a/pool_proj -> inception_3a/pool_proj
I1018 17:18:15.954773  2890 net.cpp:141] Setting up inception_3a/pool_proj
I1018 17:18:15.954787  2890 net.cpp:148] Top shape: 20 256 18 7 (645120)
I1018 17:18:15.954790  2890 net.cpp:156] Memory required for data: 1157990640
I1018 17:18:15.954807  2890 layer_factory.hpp:77] Creating layer inception_3a/pool_proj_bn
I1018 17:18:15.954809  2890 layer_factory.cpp:265] Layer inception_3a/pool_proj_bn is using CAFFE engine.
I1018 17:18:15.954816  2890 net.cpp:91] Creating Layer inception_3a/pool_proj_bn
I1018 17:18:15.954820  2890 net.cpp:435] inception_3a/pool_proj_bn <- inception_3a/pool_proj
I1018 17:18:15.954825  2890 net.cpp:409] inception_3a/pool_proj_bn -> inception_3a/pool_proj_bn
I1018 17:18:15.955060  2890 net.cpp:141] Setting up inception_3a/pool_proj_bn
I1018 17:18:15.955067  2890 net.cpp:148] Top shape: 20 256 18 7 (645120)
I1018 17:18:15.955070  2890 net.cpp:156] Memory required for data: 1160571120
I1018 17:18:15.955076  2890 layer_factory.hpp:77] Creating layer inception_3a/relu_pool_proj
I1018 17:18:15.955080  2890 net.cpp:91] Creating Layer inception_3a/relu_pool_proj
I1018 17:18:15.955085  2890 net.cpp:435] inception_3a/relu_pool_proj <- inception_3a/pool_proj_bn
I1018 17:18:15.955088  2890 net.cpp:396] inception_3a/relu_pool_proj -> inception_3a/pool_proj_bn (in-place)
I1018 17:18:15.955785  2890 net.cpp:141] Setting up inception_3a/relu_pool_proj
I1018 17:18:15.955796  2890 net.cpp:148] Top shape: 20 256 18 7 (645120)
I1018 17:18:15.955799  2890 net.cpp:156] Memory required for data: 1163151600
I1018 17:18:15.955802  2890 layer_factory.hpp:77] Creating layer inception_3a/output
I1018 17:18:15.955808  2890 net.cpp:91] Creating Layer inception_3a/output
I1018 17:18:15.955811  2890 net.cpp:435] inception_3a/output <- inception_3a/1x1_bn
I1018 17:18:15.955816  2890 net.cpp:435] inception_3a/output <- inception_3a/3x3_bn
I1018 17:18:15.955819  2890 net.cpp:435] inception_3a/output <- inception_3a/double_3x3_2_bn
I1018 17:18:15.955822  2890 net.cpp:435] inception_3a/output <- inception_3a/pool_proj_bn
I1018 17:18:15.955827  2890 net.cpp:409] inception_3a/output -> inception_3a/output
I1018 17:18:15.955859  2890 net.cpp:141] Setting up inception_3a/output
I1018 17:18:15.955866  2890 net.cpp:148] Top shape: 20 1024 18 7 (2580480)
I1018 17:18:15.955868  2890 net.cpp:156] Memory required for data: 1173473520
I1018 17:18:15.955870  2890 layer_factory.hpp:77] Creating layer inception_3a/output_inception_3a/output_0_split
I1018 17:18:15.955875  2890 net.cpp:91] Creating Layer inception_3a/output_inception_3a/output_0_split
I1018 17:18:15.955878  2890 net.cpp:435] inception_3a/output_inception_3a/output_0_split <- inception_3a/output
I1018 17:18:15.955883  2890 net.cpp:409] inception_3a/output_inception_3a/output_0_split -> inception_3a/output_inception_3a/output_0_split_0
I1018 17:18:15.955888  2890 net.cpp:409] inception_3a/output_inception_3a/output_0_split -> inception_3a/output_inception_3a/output_0_split_1
I1018 17:18:15.955893  2890 net.cpp:409] inception_3a/output_inception_3a/output_0_split -> inception_3a/output_inception_3a/output_0_split_2
I1018 17:18:15.955962  2890 net.cpp:141] Setting up inception_3a/output_inception_3a/output_0_split
I1018 17:18:15.955967  2890 net.cpp:148] Top shape: 20 1024 18 7 (2580480)
I1018 17:18:15.955981  2890 net.cpp:148] Top shape: 20 1024 18 7 (2580480)
I1018 17:18:15.955983  2890 net.cpp:148] Top shape: 20 1024 18 7 (2580480)
I1018 17:18:15.955986  2890 net.cpp:156] Memory required for data: 1204439280
I1018 17:18:15.955987  2890 layer_factory.hpp:77] Creating layer inception_3b/3x3_reduce
I1018 17:18:15.956006  2890 net.cpp:91] Creating Layer inception_3b/3x3_reduce
I1018 17:18:15.956008  2890 net.cpp:435] inception_3b/3x3_reduce <- inception_3a/output_inception_3a/output_0_split_0
I1018 17:18:15.956014  2890 net.cpp:409] inception_3b/3x3_reduce -> inception_3b/3x3_reduce
I1018 17:18:15.958541  2890 net.cpp:141] Setting up inception_3b/3x3_reduce
I1018 17:18:15.958552  2890 net.cpp:148] Top shape: 20 256 18 7 (645120)
I1018 17:18:15.958564  2890 net.cpp:156] Memory required for data: 1207019760
I1018 17:18:15.958570  2890 layer_factory.hpp:77] Creating layer inception_3b/3x3_reduce_bn
I1018 17:18:15.958582  2890 layer_factory.cpp:265] Layer inception_3b/3x3_reduce_bn is using CAFFE engine.
I1018 17:18:15.958588  2890 net.cpp:91] Creating Layer inception_3b/3x3_reduce_bn
I1018 17:18:15.958592  2890 net.cpp:435] inception_3b/3x3_reduce_bn <- inception_3b/3x3_reduce
I1018 17:18:15.958597  2890 net.cpp:409] inception_3b/3x3_reduce_bn -> inception_3b/3x3_reduce_bn
I1018 17:18:15.958819  2890 net.cpp:141] Setting up inception_3b/3x3_reduce_bn
I1018 17:18:15.958827  2890 net.cpp:148] Top shape: 20 256 18 7 (645120)
I1018 17:18:15.958829  2890 net.cpp:156] Memory required for data: 1209600240
I1018 17:18:15.958845  2890 layer_factory.hpp:77] Creating layer inception_3b/relu_3x3_reduce
I1018 17:18:15.958849  2890 net.cpp:91] Creating Layer inception_3b/relu_3x3_reduce
I1018 17:18:15.958853  2890 net.cpp:435] inception_3b/relu_3x3_reduce <- inception_3b/3x3_reduce_bn
I1018 17:18:15.958855  2890 net.cpp:396] inception_3b/relu_3x3_reduce -> inception_3b/3x3_reduce_bn (in-place)
I1018 17:18:15.959017  2890 net.cpp:141] Setting up inception_3b/relu_3x3_reduce
I1018 17:18:15.959025  2890 net.cpp:148] Top shape: 20 256 18 7 (645120)
I1018 17:18:15.959038  2890 net.cpp:156] Memory required for data: 1212180720
I1018 17:18:15.959040  2890 layer_factory.hpp:77] Creating layer inception_3b/3x3
I1018 17:18:15.959058  2890 net.cpp:91] Creating Layer inception_3b/3x3
I1018 17:18:15.959060  2890 net.cpp:435] inception_3b/3x3 <- inception_3b/3x3_reduce_bn
I1018 17:18:15.959065  2890 net.cpp:409] inception_3b/3x3 -> inception_3b/3x3
I1018 17:18:15.964251  2890 net.cpp:141] Setting up inception_3b/3x3
I1018 17:18:15.964277  2890 net.cpp:148] Top shape: 20 256 9 4 (184320)
I1018 17:18:15.964280  2890 net.cpp:156] Memory required for data: 1212918000
I1018 17:18:15.964287  2890 layer_factory.hpp:77] Creating layer inception_3b/3x3_bn
I1018 17:18:15.964292  2890 layer_factory.cpp:265] Layer inception_3b/3x3_bn is using CAFFE engine.
I1018 17:18:15.964299  2890 net.cpp:91] Creating Layer inception_3b/3x3_bn
I1018 17:18:15.964303  2890 net.cpp:435] inception_3b/3x3_bn <- inception_3b/3x3
I1018 17:18:15.964310  2890 net.cpp:409] inception_3b/3x3_bn -> inception_3b/3x3_bn
I1018 17:18:15.964541  2890 net.cpp:141] Setting up inception_3b/3x3_bn
I1018 17:18:15.964548  2890 net.cpp:148] Top shape: 20 256 9 4 (184320)
I1018 17:18:15.964560  2890 net.cpp:156] Memory required for data: 1213655280
I1018 17:18:15.964567  2890 layer_factory.hpp:77] Creating layer inception_3b/relu_3x3
I1018 17:18:15.964572  2890 net.cpp:91] Creating Layer inception_3b/relu_3x3
I1018 17:18:15.964574  2890 net.cpp:435] inception_3b/relu_3x3 <- inception_3b/3x3_bn
I1018 17:18:15.964579  2890 net.cpp:396] inception_3b/relu_3x3 -> inception_3b/3x3_bn (in-place)
I1018 17:18:15.964736  2890 net.cpp:141] Setting up inception_3b/relu_3x3
I1018 17:18:15.964743  2890 net.cpp:148] Top shape: 20 256 9 4 (184320)
I1018 17:18:15.964756  2890 net.cpp:156] Memory required for data: 1214392560
I1018 17:18:15.964758  2890 layer_factory.hpp:77] Creating layer inception_3b/double_3x3_reduce
I1018 17:18:15.964768  2890 net.cpp:91] Creating Layer inception_3b/double_3x3_reduce
I1018 17:18:15.964771  2890 net.cpp:435] inception_3b/double_3x3_reduce <- inception_3a/output_inception_3a/output_0_split_1
I1018 17:18:15.964776  2890 net.cpp:409] inception_3b/double_3x3_reduce -> inception_3b/double_3x3_reduce
I1018 17:18:15.969801  2890 net.cpp:141] Setting up inception_3b/double_3x3_reduce
I1018 17:18:15.969828  2890 net.cpp:148] Top shape: 20 256 18 7 (645120)
I1018 17:18:15.969831  2890 net.cpp:156] Memory required for data: 1216973040
I1018 17:18:15.969838  2890 layer_factory.hpp:77] Creating layer inception_3b/double_3x3_reduce_bn
I1018 17:18:15.969842  2890 layer_factory.cpp:265] Layer inception_3b/double_3x3_reduce_bn is using CAFFE engine.
I1018 17:18:15.969854  2890 net.cpp:91] Creating Layer inception_3b/double_3x3_reduce_bn
I1018 17:18:15.969859  2890 net.cpp:435] inception_3b/double_3x3_reduce_bn <- inception_3b/double_3x3_reduce
I1018 17:18:15.969866  2890 net.cpp:409] inception_3b/double_3x3_reduce_bn -> inception_3b/double_3x3_reduce_bn
I1018 17:18:15.970131  2890 net.cpp:141] Setting up inception_3b/double_3x3_reduce_bn
I1018 17:18:15.970149  2890 net.cpp:148] Top shape: 20 256 18 7 (645120)
I1018 17:18:15.970152  2890 net.cpp:156] Memory required for data: 1219553520
I1018 17:18:15.970158  2890 layer_factory.hpp:77] Creating layer inception_3b/relu_double_3x3_reduce
I1018 17:18:15.970163  2890 net.cpp:91] Creating Layer inception_3b/relu_double_3x3_reduce
I1018 17:18:15.970166  2890 net.cpp:435] inception_3b/relu_double_3x3_reduce <- inception_3b/double_3x3_reduce_bn
I1018 17:18:15.970171  2890 net.cpp:396] inception_3b/relu_double_3x3_reduce -> inception_3b/double_3x3_reduce_bn (in-place)
I1018 17:18:15.970320  2890 net.cpp:141] Setting up inception_3b/relu_double_3x3_reduce
I1018 17:18:15.970329  2890 net.cpp:148] Top shape: 20 256 18 7 (645120)
I1018 17:18:15.970331  2890 net.cpp:156] Memory required for data: 1222134000
I1018 17:18:15.970335  2890 layer_factory.hpp:77] Creating layer inception_3b/double_3x3_1
I1018 17:18:15.970343  2890 net.cpp:91] Creating Layer inception_3b/double_3x3_1
I1018 17:18:15.970346  2890 net.cpp:435] inception_3b/double_3x3_1 <- inception_3b/double_3x3_reduce_bn
I1018 17:18:15.970351  2890 net.cpp:409] inception_3b/double_3x3_1 -> inception_3b/double_3x3_1
I1018 17:18:15.976717  2890 net.cpp:141] Setting up inception_3b/double_3x3_1
I1018 17:18:15.976737  2890 net.cpp:148] Top shape: 20 256 18 7 (645120)
I1018 17:18:15.976740  2890 net.cpp:156] Memory required for data: 1224714480
I1018 17:18:15.976747  2890 layer_factory.hpp:77] Creating layer inception_3b/double_3x3_1_bn
I1018 17:18:15.976752  2890 layer_factory.cpp:265] Layer inception_3b/double_3x3_1_bn is using CAFFE engine.
I1018 17:18:15.976759  2890 net.cpp:91] Creating Layer inception_3b/double_3x3_1_bn
I1018 17:18:15.976764  2890 net.cpp:435] inception_3b/double_3x3_1_bn <- inception_3b/double_3x3_1
I1018 17:18:15.976769  2890 net.cpp:409] inception_3b/double_3x3_1_bn -> inception_3b/double_3x3_1_bn
I1018 17:18:15.976994  2890 net.cpp:141] Setting up inception_3b/double_3x3_1_bn
I1018 17:18:15.977000  2890 net.cpp:148] Top shape: 20 256 18 7 (645120)
I1018 17:18:15.977003  2890 net.cpp:156] Memory required for data: 1227294960
I1018 17:18:15.977008  2890 layer_factory.hpp:77] Creating layer inception_3b/relu_double_3x3_1
I1018 17:18:15.977013  2890 net.cpp:91] Creating Layer inception_3b/relu_double_3x3_1
I1018 17:18:15.977016  2890 net.cpp:435] inception_3b/relu_double_3x3_1 <- inception_3b/double_3x3_1_bn
I1018 17:18:15.977020  2890 net.cpp:396] inception_3b/relu_double_3x3_1 -> inception_3b/double_3x3_1_bn (in-place)
I1018 17:18:15.977175  2890 net.cpp:141] Setting up inception_3b/relu_double_3x3_1
I1018 17:18:15.977183  2890 net.cpp:148] Top shape: 20 256 18 7 (645120)
I1018 17:18:15.977186  2890 net.cpp:156] Memory required for data: 1229875440
I1018 17:18:15.977188  2890 layer_factory.hpp:77] Creating layer inception_3b/double_3x3_2
I1018 17:18:15.977196  2890 net.cpp:91] Creating Layer inception_3b/double_3x3_2
I1018 17:18:15.977200  2890 net.cpp:435] inception_3b/double_3x3_2 <- inception_3b/double_3x3_1_bn
I1018 17:18:15.977205  2890 net.cpp:409] inception_3b/double_3x3_2 -> inception_3b/double_3x3_2
I1018 17:18:15.982249  2890 net.cpp:141] Setting up inception_3b/double_3x3_2
I1018 17:18:15.982262  2890 net.cpp:148] Top shape: 20 256 9 4 (184320)
I1018 17:18:15.982265  2890 net.cpp:156] Memory required for data: 1230612720
I1018 17:18:15.982270  2890 layer_factory.hpp:77] Creating layer inception_3b/double_3x3_2_bn
I1018 17:18:15.982273  2890 layer_factory.cpp:265] Layer inception_3b/double_3x3_2_bn is using CAFFE engine.
I1018 17:18:15.982280  2890 net.cpp:91] Creating Layer inception_3b/double_3x3_2_bn
I1018 17:18:15.982282  2890 net.cpp:435] inception_3b/double_3x3_2_bn <- inception_3b/double_3x3_2
I1018 17:18:15.982298  2890 net.cpp:409] inception_3b/double_3x3_2_bn -> inception_3b/double_3x3_2_bn
I1018 17:18:15.982527  2890 net.cpp:141] Setting up inception_3b/double_3x3_2_bn
I1018 17:18:15.982533  2890 net.cpp:148] Top shape: 20 256 9 4 (184320)
I1018 17:18:15.982545  2890 net.cpp:156] Memory required for data: 1231350000
I1018 17:18:15.982551  2890 layer_factory.hpp:77] Creating layer inception_3b/relu_double_3x3_2
I1018 17:18:15.982565  2890 net.cpp:91] Creating Layer inception_3b/relu_double_3x3_2
I1018 17:18:15.982568  2890 net.cpp:435] inception_3b/relu_double_3x3_2 <- inception_3b/double_3x3_2_bn
I1018 17:18:15.982573  2890 net.cpp:396] inception_3b/relu_double_3x3_2 -> inception_3b/double_3x3_2_bn (in-place)
I1018 17:18:15.983240  2890 net.cpp:141] Setting up inception_3b/relu_double_3x3_2
I1018 17:18:15.983252  2890 net.cpp:148] Top shape: 20 256 9 4 (184320)
I1018 17:18:15.983254  2890 net.cpp:156] Memory required for data: 1232087280
I1018 17:18:15.983258  2890 layer_factory.hpp:77] Creating layer inception_3b/pool
I1018 17:18:15.983263  2890 net.cpp:91] Creating Layer inception_3b/pool
I1018 17:18:15.983266  2890 net.cpp:435] inception_3b/pool <- inception_3a/output_inception_3a/output_0_split_2
I1018 17:18:15.983281  2890 net.cpp:409] inception_3b/pool -> inception_3b/pool
I1018 17:18:15.983336  2890 net.cpp:141] Setting up inception_3b/pool
I1018 17:18:15.983343  2890 net.cpp:148] Top shape: 20 1024 9 4 (737280)
I1018 17:18:15.983345  2890 net.cpp:156] Memory required for data: 1235036400
I1018 17:18:15.983347  2890 layer_factory.hpp:77] Creating layer inception_3b/output
I1018 17:18:15.983352  2890 net.cpp:91] Creating Layer inception_3b/output
I1018 17:18:15.983355  2890 net.cpp:435] inception_3b/output <- inception_3b/3x3_bn
I1018 17:18:15.983368  2890 net.cpp:435] inception_3b/output <- inception_3b/double_3x3_2_bn
I1018 17:18:15.983371  2890 net.cpp:435] inception_3b/output <- inception_3b/pool
I1018 17:18:15.983376  2890 net.cpp:409] inception_3b/output -> inception_3b/output
I1018 17:18:15.983400  2890 net.cpp:141] Setting up inception_3b/output
I1018 17:18:15.983417  2890 net.cpp:148] Top shape: 20 1536 9 4 (1105920)
I1018 17:18:15.983419  2890 net.cpp:156] Memory required for data: 1239460080
I1018 17:18:15.983422  2890 layer_factory.hpp:77] Creating layer global_pool
I1018 17:18:15.983427  2890 net.cpp:91] Creating Layer global_pool
I1018 17:18:15.983428  2890 net.cpp:435] global_pool <- inception_3b/output
I1018 17:18:15.983433  2890 net.cpp:409] global_pool -> global_pool
I1018 17:18:15.983608  2890 net.cpp:141] Setting up global_pool
I1018 17:18:15.983615  2890 net.cpp:148] Top shape: 20 1536 1 1 (30720)
I1018 17:18:15.983618  2890 net.cpp:156] Memory required for data: 1239582960
I1018 17:18:15.983620  2890 layer_factory.hpp:77] Creating layer fc7
I1018 17:18:15.983626  2890 net.cpp:91] Creating Layer fc7
I1018 17:18:15.983629  2890 net.cpp:435] fc7 <- global_pool
I1018 17:18:15.983644  2890 net.cpp:409] fc7 -> fc7
I1018 17:18:15.986439  2890 net.cpp:141] Setting up fc7
I1018 17:18:15.986451  2890 net.cpp:148] Top shape: 20 256 (5120)
I1018 17:18:15.986454  2890 net.cpp:156] Memory required for data: 1239603440
I1018 17:18:15.986459  2890 layer_factory.hpp:77] Creating layer fc7_bn
I1018 17:18:15.986464  2890 layer_factory.cpp:265] Layer fc7_bn is using CAFFE engine.
I1018 17:18:15.986469  2890 net.cpp:91] Creating Layer fc7_bn
I1018 17:18:15.986472  2890 net.cpp:435] fc7_bn <- fc7
I1018 17:18:15.986487  2890 net.cpp:409] fc7_bn -> fc7_bn
I1018 17:18:15.986706  2890 net.cpp:141] Setting up fc7_bn
I1018 17:18:15.986712  2890 net.cpp:148] Top shape: 20 256 (5120)
I1018 17:18:15.986716  2890 net.cpp:156] Memory required for data: 1239623920
I1018 17:18:15.986721  2890 layer_factory.hpp:77] Creating layer relu7
I1018 17:18:15.986726  2890 net.cpp:91] Creating Layer relu7
I1018 17:18:15.986727  2890 net.cpp:435] relu7 <- fc7_bn
I1018 17:18:15.986732  2890 net.cpp:396] relu7 -> fc7_bn (in-place)
I1018 17:18:15.986904  2890 net.cpp:141] Setting up relu7
I1018 17:18:15.986912  2890 net.cpp:148] Top shape: 20 256 (5120)
I1018 17:18:15.986913  2890 net.cpp:156] Memory required for data: 1239644400
I1018 17:18:15.986917  2890 layer_factory.hpp:77] Creating layer drop7
I1018 17:18:15.986922  2890 net.cpp:91] Creating Layer drop7
I1018 17:18:15.986924  2890 net.cpp:435] drop7 <- fc7_bn
I1018 17:18:15.986927  2890 net.cpp:396] drop7 -> fc7_bn (in-place)
I1018 17:18:15.986964  2890 net.cpp:141] Setting up drop7
I1018 17:18:15.986970  2890 net.cpp:148] Top shape: 20 256 (5120)
I1018 17:18:15.986973  2890 net.cpp:156] Memory required for data: 1239664880
I1018 17:18:15.986974  2890 layer_factory.hpp:77] Creating layer fc8_jstl
I1018 17:18:15.986980  2890 net.cpp:91] Creating Layer fc8_jstl
I1018 17:18:15.986992  2890 net.cpp:435] fc8_jstl <- fc7_bn
I1018 17:18:15.986995  2890 net.cpp:409] fc8_jstl -> fc8_jstl
I1018 17:18:15.992239  2890 net.cpp:141] Setting up fc8_jstl
I1018 17:18:15.992247  2890 net.cpp:148] Top shape: 20 702 (14040)
I1018 17:18:15.992260  2890 net.cpp:156] Memory required for data: 1239721040
I1018 17:18:15.992265  2890 layer_factory.hpp:77] Creating layer fc8_jstl_fc8_jstl_0_split
I1018 17:18:15.992270  2890 net.cpp:91] Creating Layer fc8_jstl_fc8_jstl_0_split
I1018 17:18:15.992274  2890 net.cpp:435] fc8_jstl_fc8_jstl_0_split <- fc8_jstl
I1018 17:18:15.992288  2890 net.cpp:409] fc8_jstl_fc8_jstl_0_split -> fc8_jstl_fc8_jstl_0_split_0
I1018 17:18:15.992293  2890 net.cpp:409] fc8_jstl_fc8_jstl_0_split -> fc8_jstl_fc8_jstl_0_split_1
I1018 17:18:15.992331  2890 net.cpp:141] Setting up fc8_jstl_fc8_jstl_0_split
I1018 17:18:15.992347  2890 net.cpp:148] Top shape: 20 702 (14040)
I1018 17:18:15.992349  2890 net.cpp:148] Top shape: 20 702 (14040)
I1018 17:18:15.992352  2890 net.cpp:156] Memory required for data: 1239833360
I1018 17:18:15.992362  2890 layer_factory.hpp:77] Creating layer loss
I1018 17:18:15.992367  2890 net.cpp:91] Creating Layer loss
I1018 17:18:15.992369  2890 net.cpp:435] loss <- fc8_jstl_fc8_jstl_0_split_0
I1018 17:18:15.992383  2890 net.cpp:435] loss <- label_data_1_split_0
I1018 17:18:15.992386  2890 net.cpp:409] loss -> loss
…
