…
I1019 15:29:06.257880  4186 net.cpp:323] The NetState phase (0) differed from the phase (1) specified by a rule in layer accuracy
I1019 15:29:06.258867  4186 net.cpp:49] Initializing net from parameters: 
state {
  phase: TRAIN
}
layer {
  name: "data"
  type: "ImageData"
  top: "data"
  top: "label"
  include {
    phase: TRAIN
  }
  transform_param {
    mirror: true
    mean_value: 102
    mean_value: 102
    mean_value: 101
  }
  image_data_param {
    source: "/home/nikoong/Algorithm_test/attribute/external/exp/dataset/Market-1501/train.txt"
    batch_size: 45
    shuffle: true
    new_height: 144
    new_width: 56
  }
}
layer {
  name: "conv1"
  type: "Convolution"
  bottom: "data"
  top: "conv1"
  param {
    lr_mult: 1
    decay_mult: 1
  }
  param {
    lr_mult: 2
    decay_mult: 0
  }
  convolution_param {
    num_output: 32
    pad: 1
    kernel_size: 3
    stride: 1
    weight_filler {
      type: "xavier"
    }
    bias_filler {
      type: "constant"
      value: 0.2
    }
  }
}
layer {
  name: "conv1_bn"
  type: "BN"
  bottom: "conv1"
  top: "conv1_bn"
  param {
    lr_mult: 1
    decay_mult: 0
  }
  param {
    lr_mult: 1
    decay_mult: 0
  }
  bn_param {
    slope_filler {
      type: "constant"
      value: 1
    }
    bias_filler {
      type: "constant"
      value: 0
    }
  }
}
layer {
  name: "relu1"
  type: "ReLU"
  bottom: "conv1_bn"
  top: "conv1_bn"
}
layer {
  name: "conv2"
  type: "Convolution"
  bottom: "conv1_bn"
  top: "conv2"
  param {
    lr_mult: 1
    decay_mult: 1
  }
  param {
    lr_mult: 2
    decay_mult: 0
  }
  convolution_param {
    num_output: 32
    pad: 1
    kernel_size: 3
    stride: 1
    weight_filler {
      type: "xavier"
    }
    bias_filler {
      type: "constant"
      value: 0.2
    }
  }
}
layer {
  name: "conv2_bn"
  type: "BN"
  bottom: "conv2"
  top: "conv2_bn"
  param {
    lr_mult: 1
    decay_mult: 0
  }
  param {
    lr_mult: 1
    decay_mult: 0
  }
  bn_param {
    slope_filler {
      type: "constant"
      value: 1
    }
    bias_filler {
      type: "constant"
      value: 0
    }
  }
}
layer {
  name: "relu2"
  type: "ReLU"
  bottom: "conv2_bn"
  top: "conv2_bn"
}
layer {
  name: "conv3"
  type: "Convolution"
  bottom: "conv2_bn"
  top: "conv3"
  param {
    lr_mult: 1
    decay_mult: 1
  }
  param {
    lr_mult: 2
    decay_mult: 0
  }
  convolution_param {
    num_output: 32
    pad: 1
    kernel_size: 3
    stride: 1
    weight_filler {
      type: "xavier"
    }
    bias_filler {
      type: "constant"
      value: 0.2
    }
  }
}
layer {
  name: "conv3_bn"
  type: "BN"
  bottom: "conv3"
  top: "conv3_bn"
  param {
    lr_mult: 1
    decay_mult: 0
  }
  param {
    lr_mult: 1
    decay_mult: 0
  }
  bn_param {
    slope_filler {
      type: "constant"
      value: 1
    }
    bias_filler {
      type: "constant"
      value: 0
    }
  }
}
layer {
  name: "relu3"
  type: "ReLU"
  bottom: "conv3_bn"
  top: "conv3_bn"
}
layer {
  name: "pool1"
  type: "Pooling"
  bottom: "conv3_bn"
  top: "pool1"
  pooling_param {
    pool: MAX
    kernel_size: 2
    stride: 2
  }
}
layer {
  name: "inception_1a/1x1"
  type: "Convolution"
  bottom: "pool1"
  top: "inception_1a/1x1"
  param {
    lr_mult: 1
    decay_mult: 1
  }
  param {
    lr_mult: 2
    decay_mult: 0
  }
  convolution_param {
    num_output: 64
    kernel_size: 1
    weight_filler {
      type: "xavier"
    }
    bias_filler {
      type: "constant"
      value: 0.2
    }
  }
}
layer {
  name: "inception_1a/1x1_bn"
  type: "BN"
  bottom: "inception_1a/1x1"
  top: "inception_1a/1x1_bn"
  param {
    lr_mult: 1
    decay_mult: 0
  }
  param {
    lr_mult: 1
    decay_mult: 0
  }
  bn_param {
    slope_filler {
      type: "constant"
      value: 1
    }
    bias_filler {
      type: "constant"
      value: 0
    }
  }
}
layer {
  name: "inception_1a/relu_1x1"
  type: "ReLU"
  bottom: "inception_1a/1x1_bn"
  top: "inception_1a/1x1_bn"
}
layer {
  name: "inception_1a/3x3_reduce"
  type: "Convolution"
  bottom: "pool1"
  top: "inception_1a/3x3_reduce"
  param {
    lr_mult: 1
    decay_mult: 1
  }
  param {
    lr_mult: 2
    decay_mult: 0
  }
  convolution_param {
    num_output: 64
    kernel_size: 1
    weight_filler {
      type: "xavier"
    }
    bias_filler {
      type: "constant"
      value: 0.2
    }
  }
}
layer {
  name: "inception_1a/3x3_reduce_bn"
  type: "BN"
  bottom: "inception_1a/3x3_reduce"
  top: "inception_1a/3x3_reduce_bn"
  param {
    lr_mult: 1
    decay_mult: 0
  }
  param {
    lr_mult: 1
    decay_mult: 0
  }
  bn_param {
    slope_filler {
      type: "constant"
      value: 1
    }
    bias_filler {
      type: "constant"
      value: 0
    }
  }
}
layer {
  name: "inception_1a/relu_3x3_reduce"
  type: "ReLU"
  bottom: "inception_1a/3x3_reduce_bn"
  top: "inception_1a/3x3_reduce_bn"
}
layer {
  name: "inception_1a/3x3"
  type: "Convolution"
  bottom: "inception_1a/3x3_reduce_bn"
  top: "inception_1a/3x3"
  param {
    lr_mult: 1
    decay_mult: 1
  }
  param {
    lr_mult: 2
    decay_mult: 0
  }
  convolution_param {
    num_output: 64
    pad: 1
    kernel_size: 3
    weight_filler {
      type: "xavier"
    }
    bias_filler {
      type: "constant"
      value: 0.2
    }
  }
}
layer {
  name: "inception_1a/3x3_bn"
  type: "BN"
  bottom: "inception_1a/3x3"
  top: "inception_1a/3x3_bn"
  param {
    lr_mult: 1
    decay_mult: 0
  }
  param {
    lr_mult: 1
    decay_mult: 0
  }
  bn_param {
    slope_filler {
      type: "constant"
      value: 1
    }
    bias_filler {
      type: "constant"
      value: 0
    }
  }
}
layer {
  name: "inception_1a/relu_3x3"
  type: "ReLU"
  bottom: "inception_1a/3x3_bn"
  top: "inception_1a/3x3_bn"
}
layer {
  name: "inception_1a/double_3x3_reduce"
  type: "Convolution"
  bottom: "pool1"
  top: "inception_1a/double_3x3_reduce"
  param {
    lr_mult: 1
    decay_mult: 1
  }
  param {
    lr_mult: 2
    decay_mult: 0
  }
  convolution_param {
    num_output: 64
    kernel_size: 1
    weight_filler {
      type: "xavier"
    }
    bias_filler {
      type: "constant"
      value: 0.2
    }
  }
}
layer {
  name: "inception_1a/double_3x3_reduce_bn"
  type: "BN"
  bottom: "inception_1a/double_3x3_reduce"
  top: "inception_1a/double_3x3_reduce_bn"
  param {
    lr_mult: 1
    decay_mult: 0
  }
  param {
    lr_mult: 1
    decay_mult: 0
  }
  bn_param {
    slope_filler {
      type: "constant"
      value: 1
    }
    bias_filler {
      type: "constant"
      value: 0
    }
  }
}
layer {
  name: "inception_1a/relu_double_3x3_reduce"
  type: "ReLU"
  bottom: "inception_1a/double_3x3_reduce_bn"
  top: "inception_1a/double_3x3_reduce_bn"
}
layer {
  name: "inception_1a/double_3x3_1"
  type: "Convolution"
  bottom: "inception_1a/double_3x3_reduce_bn"
  top: "inception_1a/double_3x3_1"
  param {
    lr_mult: 1
    decay_mult: 1
  }
  param {
    lr_mult: 2
    decay_mult: 0
  }
  convolution_param {
    num_output: 64
    pad: 1
    kernel_size: 3
    weight_filler {
      type: "xavier"
    }
    bias_filler {
      type: "constant"
      value: 0.2
    }
  }
}
layer {
  name: "inception_1a/double_3x3_1_bn"
  type: "BN"
  bottom: "inception_1a/double_3x3_1"
  top: "inception_1a/double_3x3_1_bn"
  param {
    lr_mult: 1
    decay_mult: 0
  }
  param {
    lr_mult: 1
    decay_mult: 0
  }
  bn_param {
    slope_filler {
      type: "constant"
      value: 1
    }
    bias_filler {
      type: "constant"
      value: 0
    }
  }
}
layer {
  name: "inception_1a/relu_double_3x3_1"
  type: "ReLU"
  bottom: "inception_1a/double_3x3_1_bn"
  top: "inception_1a/double_3x3_1_bn"
}
layer {
  name: "inception_1a/double_3x3_2"
  type: "Convolution"
  bottom: "inception_1a/double_3x3_1_bn"
  top: "inception_1a/double_3x3_2"
  param {
    lr_mult: 1
    decay_mult: 1
  }
  param {
    lr_mult: 2
    decay_mult: 0
  }
  convolution_param {
    num_output: 64
    pad: 1
    kernel_size: 3
    weight_filler {
      type: "xavier"
    }
    bias_filler {
      type: "constant"
      value: 0.2
    }
  }
}
layer {
  name: "inception_1a/double_3x3_2_bn"
  type: "BN"
  bottom: "inception_1a/double_3x3_2"
  top: "inception_1a/double_3x3_2_bn"
  param {
    lr_mult: 1
    decay_mult: 0
  }
  param {
    lr_mult: 1
    decay_mult: 0
  }
  bn_param {
    slope_filler {
      type: "constant"
      value: 1
    }
    bias_filler {
      type: "constant"
      value: 0
    }
  }
}
layer {
  name: "inception_1a/relu_double_3x3_2"
  type: "ReLU"
  bottom: "inception_1a/double_3x3_2_bn"
  top: "inception_1a/double_3x3_2_bn"
}
layer {
  name: "inception_1a/pool"
  type: "Pooling"
  bottom: "pool1"
  top: "inception_1a/pool"
  pooling_param {
    pool: AVE
    kernel_size: 3
    stride: 1
    pad: 1
  }
}
layer {
  name: "inception_1a/pool_proj"
  type: "Convolution"
  bottom: "inception_1a/pool"
  top: "inception_1a/pool_proj"
  param {
    lr_mult: 1
    decay_mult: 1
  }
  param {
    lr_mult: 2
    decay_mult: 0
  }
  convolution_param {
    num_output: 64
    kernel_size: 1
    weight_filler {
      type: "xavier"
    }
    bias_filler {
      type: "constant"
      value: 0.2
    }
  }
}
layer {
  name: "inception_1a/pool_proj_bn"
  type: "BN"
  bottom: "inception_1a/pool_proj"
  top: "inception_1a/pool_proj_bn"
  param {
    lr_mult: 1
    decay_mult: 0
  }
  param {
    lr_mult: 1
    decay_mult: 0
  }
  bn_param {
    slope_filler {
      type: "constant"
      value: 1
    }
    bias_filler {
      type: "constant"
      value: 0
    }
  }
}
layer {
  name: "inception_1a/relu_pool_proj"
  type: "ReLU"
  bottom: "inception_1a/pool_proj_bn"
  top: "inception_1a/pool_proj_bn"
}
layer {
  name: "inception_1a/output"
  type: "Concat"
  bottom: "inception_1a/1x1_bn"
  bottom: "inception_1a/3x3_bn"
  bottom: "inception_1a/double_3x3_2_bn"
  bottom: "inception_1a/pool_proj_bn"
  top: "inception_1a/output"
}
layer {
  name: "inception_1b/3x3_reduce"
  type: "Convolution"
  bottom: "inception_1a/output"
  top: "inception_1b/3x3_reduce"
  param {
    lr_mult: 1
    decay_mult: 1
  }
  param {
    lr_mult: 2
    decay_mult: 0
  }
  convolution_param {
    num_output: 64
    kernel_size: 1
    weight_filler {
      type: "xavier"
    }
    bias_filler {
      type: "constant"
      value: 0.2
    }
  }
}
layer {
  name: "inception_1b/3x3_reduce_bn"
  type: "BN"
  bottom: "inception_1b/3x3_reduce"
  top: "inception_1b/3x3_reduce_bn"
  param {
    lr_mult: 1
    decay_mult: 0
  }
  param {
    lr_mult: 1
    decay_mult: 0
  }
  bn_param {
    slope_filler {
      type: "constant"
      value: 1
    }
    bias_filler {
      type: "constant"
      value: 0
    }
  }
}
layer {
  name: "inception_1b/relu_3x3_reduce"
  type: "ReLU"
  bottom: "inception_1b/3x3_reduce_bn"
  top: "inception_1b/3x3_reduce_bn"
}
layer {
  name: "inception_1b/3x3"
  type: "Convolution"
  bottom: "inception_1b/3x3_reduce_bn"
  top: "inception_1b/3x3"
  param {
    lr_mult: 1
    decay_mult: 1
  }
  param {
    lr_mult: 2
    decay_mult: 0
  }
  convolution_param {
    num_output: 64
    pad: 1
    kernel_size: 3
    stride: 2
    weight_filler {
      type: "xavier"
    }
    bias_filler {
      type: "constant"
      value: 0.2
    }
  }
}
layer {
  name: "inception_1b/3x3_bn"
  type: "BN"
  bottom: "inception_1b/3x3"
  top: "inception_1b/3x3_bn"
  param {
    lr_mult: 1
    decay_mult: 0
  }
  param {
    lr_mult: 1
    decay_mult: 0
  }
  bn_param {
    slope_filler {
      type: "constant"
      value: 1
    }
    bias_filler {
      type: "constant"
      value: 0
    }
  }
}
layer {
  name: "inception_1b/relu_3x3"
  type: "ReLU"
  bottom: "inception_1b/3x3_bn"
  top: "inception_1b/3x3_bn"
}
layer {
  name: "inception_1b/double_3x3_reduce"
  type: "Convolution"
  bottom: "inception_1a/output"
  top: "inception_1b/double_3x3_reduce"
  param {
    lr_mult: 1
    decay_mult: 1
  }
  param {
    lr_mult: 2
    decay_mult: 0
  }
  convolution_param {
    num_output: 64
    kernel_size: 1
    weight_filler {
      type: "xavier"
    }
    bias_filler {
      type: "constant"
      value: 0.2
    }
  }
}
layer {
  name: "inception_1b/double_3x3_reduce_bn"
  type: "BN"
  bottom: "inception_1b/double_3x3_reduce"
  top: "inception_1b/double_3x3_reduce_bn"
  param {
    lr_mult: 1
    decay_mult: 0
  }
  param {
    lr_mult: 1
    decay_mult: 0
  }
  bn_param {
    slope_filler {
      type: "constant"
      value: 1
    }
    bias_filler {
      type: "constant"
      value: 0
    }
  }
}
layer {
  name: "inception_1b/relu_double_3x3_reduce"
  type: "ReLU"
  bottom: "inception_1b/double_3x3_reduce_bn"
  top: "inception_1b/double_3x3_reduce_bn"
}
layer {
  name: "inception_1b/double_3x3_1"
  type: "Convolution"
  bottom: "inception_1b/double_3x3_reduce_bn"
  top: "inception_1b/double_3x3_1"
  param {
    lr_mult: 1
    decay_mult: 1
  }
  param {
    lr_mult: 2
    decay_mult: 0
  }
  convolution_param {
    num_output: 64
    pad: 1
    kernel_size: 3
    weight_filler {
      type: "xavier"
    }
    bias_filler {
      type: "constant"
      value: 0.2
    }
  }
}
layer {
  name: "inception_1b/double_3x3_1_bn"
  type: "BN"
  bottom: "inception_1b/double_3x3_1"
  top: "inception_1b/double_3x3_1_bn"
  param {
    lr_mult: 1
    decay_mult: 0
  }
  param {
    lr_mult: 1
    decay_mult: 0
  }
  bn_param {
    slope_filler {
      type: "constant"
      value: 1
    }
    bias_filler {
      type: "constant"
      value: 0
    }
  }
}
layer {
  name: "inception_1b/relu_double_3x3_1"
  type: "ReLU"
  bottom: "inception_1b/double_3x3_1_bn"
  top: "inception_1b/double_3x3_1_bn"
}
layer {
  name: "inception_1b/double_3x3_2"
  type: "Convolution"
  bottom: "inception_1b/double_3x3_1_bn"
  top: "inception_1b/double_3x3_2"
  param {
    lr_mult: 1
    decay_mult: 1
  }
  param {
    lr_mult: 2
    decay_mult: 0
  }
  convolution_param {
    num_output: 64
    pad: 1
    kernel_size: 3
    stride: 2
    weight_filler {
      type: "xavier"
    }
    bias_filler {
      type: "constant"
      value: 0.2
    }
  }
}
layer {
  name: "inception_1b/double_3x3_2_bn"
  type: "BN"
  bottom: "inception_1b/double_3x3_2"
  top: "inception_1b/double_3x3_2_bn"
  param {
    lr_mult: 1
    decay_mult: 0
  }
  param {
    lr_mult: 1
    decay_mult: 0
  }
  bn_param {
    slope_filler {
      type: "constant"
      value: 1
    }
    bias_filler {
      type: "constant"
      value: 0
    }
  }
}
layer {
  name: "inception_1b/relu_double_3x3_2"
  type: "ReLU"
  bottom: "inception_1b/double_3x3_2_bn"
  top: "inception_1b/double_3x3_2_bn"
}
layer {
  name: "inception_1b/pool"
  type: "Pooling"
  bottom: "inception_1a/output"
  top: "inception_1b/pool"
  pooling_param {
    pool: MAX
    kernel_size: 3
    stride: 2
  }
}
layer {
  name: "inception_1b/output"
  type: "Concat"
  bottom: "inception_1b/3x3_bn"
  bottom: "inception_1b/double_3x3_2_bn"
  bottom: "inception_1b/pool"
  top: "inception_1b/output"
}
layer {
  name: "inception_2a/1x1"
  type: "Convolution"
  bottom: "inception_1b/output"
  top: "inception_2a/1x1"
  param {
    lr_mult: 1
    decay_mult: 1
  }
  param {
    lr_mult: 2
    decay_mult: 0
  }
  convolution_param {
    num_output: 128
    kernel_size: 1
    weight_filler {
      type: "xavier"
    }
    bias_filler {
      type: "constant"
      value: 0.2
    }
  }
}
layer {
  name: "inception_2a/1x1_bn"
  type: "BN"
  bottom: "inception_2a/1x1"
  top: "inception_2a/1x1_bn"
  param {
    lr_mult: 1
    decay_mult: 0
  }
  param {
    lr_mult: 1
    decay_mult: 0
  }
  bn_param {
    slope_filler {
      type: "constant"
      value: 1
    }
    bias_filler {
      type: "constant"
      value: 0
    }
  }
}
layer {
  name: "inception_2a/relu_1x1"
  type: "ReLU"
  bottom: "inception_2a/1x1_bn"
  top: "inception_2a/1x1_bn"
}
layer {
  name: "inception_2a/3x3_reduce"
  type: "Convolution"
  bottom: "inception_1b/output"
  top: "inception_2a/3x3_reduce"
  param {
    lr_mult: 1
    decay_mult: 1
  }
  param {
    lr_mult: 2
    decay_mult: 0
  }
  convolution_param {
    num_output: 128
    kernel_size: 1
    weight_filler {
      type: "xavier"
    }
    bias_filler {
      type: "constant"
      value: 0.2
    }
  }
}
layer {
  name: "inception_2a/3x3_reduce_bn"
  type: "BN"
  bottom: "inception_2a/3x3_reduce"
  top: "inception_2a/3x3_reduce_bn"
  param {
    lr_mult: 1
    decay_mult: 0
  }
  param {
    lr_mult: 1
    decay_mult: 0
  }
  bn_param {
    slope_filler {
      type: "constant"
      value: 1
    }
    bias_filler {
      type: "constant"
      value: 0
    }
  }
}
layer {
  name: "inception_2a/relu_3x3_reduce"
  type: "ReLU"
  bottom: "inception_2a/3x3_reduce_bn"
  top: "inception_2a/3x3_reduce_bn"
}
layer {
  name: "inception_2a/3x3"
  type: "Convolution"
  bottom: "inception_2a/3x3_reduce_bn"
  top: "inception_2a/3x3"
  param {
    lr_mult: 1
    decay_mult: 1
  }
  param {
    lr_mult: 2
    decay_mult: 0
  }
  convolution_param {
    num_output: 128
    pad: 1
    kernel_size: 3
    weight_filler {
      type: "xavier"
    }
    bias_filler {
      type: "constant"
      value: 0.2
    }
  }
}
layer {
  name: "inception_2a/3x3_bn"
  type: "BN"
  bottom: "inception_2a/3x3"
  top: "inception_2a/3x3_bn"
  param {
    lr_mult: 1
    decay_mult: 0
  }
  param {
    lr_mult: 1
    decay_mult: 0
  }
  bn_param {
    slope_filler {
      type: "constant"
      value: 1
    }
    bias_filler {
      type: "constant"
      value: 0
    }
  }
}
layer {
  name: "inception_2a/relu_3x3"
  type: "ReLU"
  bottom: "inception_2a/3x3_bn"
  top: "inception_2a/3x3_bn"
}
layer {
  name: "inception_2a/double_3x3_reduce"
  type: "Convolution"
  bottom: "inception_1b/output"
  top: "inception_2a/double_3x3_reduce"
  param {
    lr_mult: 1
    decay_mult: 1
  }
  param {
    lr_mult: 2
    decay_mult: 0
  }
  convolution_param {
    num_output: 128
    kernel_size: 1
    weight_filler {
      type: "xavier"
    }
    bias_filler {
      type: "constant"
      value: 0.2
    }
  }
}
layer {
  name: "inception_2a/double_3x3_reduce_bn"
  type: "BN"
  bottom: "inception_2a/double_3x3_reduce"
  top: "inception_2a/double_3x3_reduce_bn"
  param {
    lr_mult: 1
    decay_mult: 0
  }
  param {
    lr_mult: 1
    decay_mult: 0
  }
  bn_param {
    slope_filler {
      type: "constant"
      value: 1
    }
    bias_filler {
      type: "constant"
      value: 0
    }
  }
}
layer {
  name: "inception_2a/relu_double_3x3_reduce"
  type: "ReLU"
  bottom: "inception_2a/double_3x3_reduce_bn"
  top: "inception_2a/double_3x3_reduce_bn"
}
layer {
  name: "inception_2a/double_3x3_1"
  type: "Convolution"
  bottom: "inception_2a/double_3x3_reduce_bn"
  top: "inception_2a/double_3x3_1"
  param {
    lr_mult: 1
    decay_mult: 1
  }
  param {
    lr_mult: 2
    decay_mult: 0
  }
  convolution_param {
    num_output: 128
    pad: 1
    kernel_size: 3
    weight_filler {
      type: "xavier"
    }
    bias_filler {
      type: "constant"
      value: 0.2
    }
  }
}
layer {
  name: "inception_2a/double_3x3_1_bn"
  type: "BN"
  bottom: "inception_2a/double_3x3_1"
  top: "inception_2a/double_3x3_1_bn"
  param {
    lr_mult: 1
    decay_mult: 0
  }
  param {
    lr_mult: 1
    decay_mult: 0
  }
  bn_param {
    slope_filler {
      type: "constant"
      value: 1
    }
    bias_filler {
      type: "constant"
      value: 0
    }
  }
}
layer {
  name: "inception_2a/relu_double_3x3_1"
  type: "ReLU"
  bottom: "inception_2a/double_3x3_1_bn"
  top: "inception_2a/double_3x3_1_bn"
}
layer {
  name: "inception_2a/double_3x3_2"
  type: "Convolution"
  bottom: "inception_2a/double_3x3_1_bn"
  top: "inception_2a/double_3x3_2"
  param {
    lr_mult: 1
    decay_mult: 1
  }
  param {
    lr_mult: 2
    decay_mult: 0
  }
  convolution_param {
    num_output: 128
    pad: 1
    kernel_size: 3
    weight_filler {
      type: "xavier"
    }
    bias_filler {
      type: "constant"
      value: 0.2
    }
  }
}
layer {
  name: "inception_2a/double_3x3_2_bn"
  type: "BN"
  bottom: "inception_2a/double_3x3_2"
  top: "inception_2a/double_3x3_2_bn"
  param {
    lr_mult: 1
    decay_mult: 0
  }
  param {
    lr_mult: 1
    decay_mult: 0
  }
  bn_param {
    slope_filler {
      type: "constant"
      value: 1
    }
    bias_filler {
      type: "constant"
      value: 0
    }
  }
}
layer {
  name: "inception_2a/relu_double_3x3_2"
  type: "ReLU"
  bottom: "inception_2a/double_3x3_2_bn"
  top: "inception_2a/double_3x3_2_bn"
}
layer {
  name: "inception_2a/pool"
  type: "Pooling"
  bottom: "inception_1b/output"
  top: "inception_2a/pool"
  pooling_param {
    pool: AVE
    kernel_size: 3
    stride: 1
    pad: 1
  }
}
layer {
  name: "inception_2a/pool_proj"
  type: "Convolution"
  bottom: "inception_2a/pool"
  top: "inception_2a/pool_proj"
  param {
    lr_mult: 1
    decay_mult: 1
  }
  param {
    lr_mult: 2
    decay_mult: 0
  }
  convolution_param {
    num_output: 128
    kernel_size: 1
    weight_filler {
      type: "xavier"
    }
    bias_filler {
      type: "constant"
      value: 0.2
    }
  }
}
layer {
  name: "inception_2a/pool_proj_bn"
  type: "BN"
  bottom: "inception_2a/pool_proj"
  top: "inception_2a/pool_proj_bn"
  param {
    lr_mult: 1
    decay_mult: 0
  }
  param {
    lr_mult: 1
    decay_mult: 0
  }
  bn_param {
    slope_filler {
      type: "constant"
      value: 1
    }
    bias_filler {
      type: "constant"
      value: 0
    }
  }
}
layer {
  name: "inception_2a/relu_pool_proj"
  type: "ReLU"
  bottom: "inception_2a/pool_proj_bn"
  top: "inception_2a/pool_proj_bn"
}
layer {
  name: "inception_2a/output"
  type: "Concat"
  bottom: "inception_2a/1x1_bn"
  bottom: "inception_2a/3x3_bn"
  bottom: "inception_2a/double_3x3_2_bn"
  bottom: "inception_2a/pool_proj_bn"
  top: "inception_2a/output"
}
layer {
  name: "inception_2b/3x3_reduce"
  type: "Convolution"
  bottom: "inception_2a/output"
  top: "inception_2b/3x3_reduce"
  param {
    lr_mult: 1
    decay_mult: 1
  }
  param {
    lr_mult: 2
    decay_mult: 0
  }
  convolution_param {
    num_output: 128
    kernel_size: 1
    weight_filler {
      type: "xavier"
    }
    bias_filler {
      type: "constant"
      value: 0.2
    }
  }
}
layer {
  name: "inception_2b/3x3_reduce_bn"
  type: "BN"
  bottom: "inception_2b/3x3_reduce"
  top: "inception_2b/3x3_reduce_bn"
  param {
    lr_mult: 1
    decay_mult: 0
  }
  param {
    lr_mult: 1
    decay_mult: 0
  }
  bn_param {
    slope_filler {
      type: "constant"
      value: 1
    }
    bias_filler {
      type: "constant"
      value: 0
    }
  }
}
layer {
  name: "inception_2b/relu_3x3_reduce"
  type: "ReLU"
  bottom: "inception_2b/3x3_reduce_bn"
  top: "inception_2b/3x3_reduce_bn"
}
layer {
  name: "inception_2b/3x3"
  type: "Convolution"
  bottom: "inception_2b/3x3_reduce_bn"
  top: "inception_2b/3x3"
  param {
    lr_mult: 1
    decay_mult: 1
  }
  param {
    lr_mult: 2
    decay_mult: 0
  }
  convolution_param {
    num_output: 128
    pad: 1
    kernel_size: 3
    stride: 2
    weight_filler {
      type: "xavier"
    }
    bias_filler {
      type: "constant"
      value: 0.2
    }
  }
}
layer {
  name: "inception_2b/3x3_bn"
  type: "BN"
  bottom: "inception_2b/3x3"
  top: "inception_2b/3x3_bn"
  param {
    lr_mult: 1
    decay_mult: 0
  }
  param {
    lr_mult: 1
    decay_mult: 0
  }
  bn_param {
    slope_filler {
      type: "constant"
      value: 1
    }
    bias_filler {
      type: "constant"
      value: 0
    }
  }
}
layer {
  name: "inception_2b/relu_3x3"
  type: "ReLU"
  bottom: "inception_2b/3x3_bn"
  top: "inception_2b/3x3_bn"
}
layer {
  name: "inception_2b/double_3x3_reduce"
  type: "Convolution"
  bottom: "inception_2a/output"
  top: "inception_2b/double_3x3_reduce"
  param {
    lr_mult: 1
    decay_mult: 1
  }
  param {
    lr_mult: 2
    decay_mult: 0
  }
  convolution_param {
    num_output: 128
    kernel_size: 1
    weight_filler {
      type: "xavier"
    }
    bias_filler {
      type: "constant"
      value: 0.2
    }
  }
}
layer {
  name: "inception_2b/double_3x3_reduce_bn"
  type: "BN"
  bottom: "inception_2b/double_3x3_reduce"
  top: "inception_2b/double_3x3_reduce_bn"
  param {
    lr_mult: 1
    decay_mult: 0
  }
  param {
    lr_mult: 1
    decay_mult: 0
  }
  bn_param {
    slope_filler {
      type: "constant"
      value: 1
    }
    bias_filler {
      type: "constant"
      value: 0
    }
  }
}
layer {
  name: "inception_2b/relu_double_3x3_reduce"
  type: "ReLU"
  bottom: "inception_2b/double_3x3_reduce_bn"
  top: "inception_2b/double_3x3_reduce_bn"
}
layer {
  name: "inception_2b/double_3x3_1"
  type: "Convolution"
  bottom: "inception_2b/double_3x3_reduce_bn"
  top: "inception_2b/double_3x3_1"
  param {
    lr_mult: 1
    decay_mult: 1
  }
  param {
    lr_mult: 2
    decay_mult: 0
  }
  convolution_param {
    num_output: 128
    pad: 1
    kernel_size: 3
    weight_filler {
      type: "xavier"
    }
    bias_filler {
      type: "constant"
      value: 0.2
    }
  }
}
layer {
  name: "inception_2b/double_3x3_1_bn"
  type: "BN"
  bottom: "inception_2b/double_3x3_1"
  top: "inception_2b/double_3x3_1_bn"
  param {
    lr_mult: 1
    decay_mult: 0
  }
  param {
    lr_mult: 1
    decay_mult: 0
  }
  bn_param {
    slope_filler {
      type: "constant"
      value: 1
    }
    bias_filler {
      type: "constant"
      value: 0
    }
  }
}
layer {
  name: "inception_2b/relu_double_3x3_1"
  type: "ReLU"
  bottom: "inception_2b/double_3x3_1_bn"
  top: "inception_2b/double_3x3_1_bn"
}
layer {
  name: "inception_2b/double_3x3_2"
  type: "Convolution"
  bottom: "inception_2b/double_3x3_1_bn"
  top: "inception_2b/double_3x3_2"
  param {
    lr_mult: 1
    decay_mult: 1
  }
  param {
    lr_mult: 2
    decay_mult: 0
  }
  convolution_param {
    num_output: 128
    pad: 1
    kernel_size: 3
    stride: 2
    weight_filler {
      type: "xavier"
    }
    bias_filler {
      type: "constant"
      value: 0.2
    }
  }
}
layer {
  name: "inception_2b/double_3x3_2_bn"
  type: "BN"
  bottom: "inception_2b/double_3x3_2"
  top: "inception_2b/double_3x3_2_bn"
  param {
    lr_mult: 1
    decay_mult: 0
  }
  param {
    lr_mult: 1
    decay_mult: 0
  }
  bn_param {
    slope_filler {
      type: "constant"
      value: 1
    }
    bias_filler {
      type: "constant"
      value: 0
    }
  }
}
layer {
  name: "inception_2b/relu_double_3x3_2"
  type: "ReLU"
  bottom: "inception_2b/double_3x3_2_bn"
  top: "inception_2b/double_3x3_2_bn"
}
layer {
  name: "inception_2b/pool"
  type: "Pooling"
  bottom: "inception_2a/output"
  top: "inception_2b/pool"
  pooling_param {
    pool: MAX
    kernel_size: 3
    stride: 2
  }
}
layer {
  name: "inception_2b/output"
  type: "Concat"
  bottom: "inception_2b/3x3_bn"
  bottom: "inception_2b/double_3x3_2_bn"
  bottom: "inception_2b/pool"
  top: "inception_2b/output"
}
layer {
  name: "inception_3a/1x1"
  type: "Convolution"
  bottom: "inception_2b/output"
  top: "inception_3a/1x1"
  param {
    lr_mult: 1
    decay_mult: 1
  }
  param {
    lr_mult: 2
    decay_mult: 0
  }
  convolution_param {
    num_output: 256
    kernel_size: 1
    weight_filler {
      type: "xavier"
    }
    bias_filler {
      type: "constant"
      value: 0.2
    }
  }
}
layer {
  name: "inception_3a/1x1_bn"
  type: "BN"
  bottom: "inception_3a/1x1"
  top: "inception_3a/1x1_bn"
  param {
    lr_mult: 1
    decay_mult: 0
  }
  param {
    lr_mult: 1
    decay_mult: 0
  }
  bn_param {
    slope_filler {
      type: "constant"
      value: 1
    }
    bias_filler {
      type: "constant"
      value: 0
    }
  }
}
layer {
  name: "inception_3a/relu_1x1"
  type: "ReLU"
  bottom: "inception_3a/1x1_bn"
  top: "inception_3a/1x1_bn"
}
layer {
  name: "inception_3a/3x3_reduce"
  type: "Convolution"
  bottom: "inception_2b/output"
  top: "inception_3a/3x3_reduce"
  param {
    lr_mult: 1
    decay_mult: 1
  }
  param {
    lr_mult: 2
    decay_mult: 0
  }
  convolution_param {
    num_output: 256
    kernel_size: 1
    weight_filler {
      type: "xavier"
    }
    bias_filler {
      type: "constant"
      value: 0.2
    }
  }
}
layer {
  name: "inception_3a/3x3_reduce_bn"
  type: "BN"
  bottom: "inception_3a/3x3_reduce"
  top: "inception_3a/3x3_reduce_bn"
  param {
    lr_mult: 1
    decay_mult: 0
  }
  param {
    lr_mult: 1
    decay_mult: 0
  }
  bn_param {
    slope_filler {
      type: "constant"
      value: 1
    }
    bias_filler {
      type: "constant"
      value: 0
    }
  }
}
layer {
  name: "inception_3a/relu_3x3_reduce"
  type: "ReLU"
  bottom: "inception_3a/3x3_reduce_bn"
  top: "inception_3a/3x3_reduce_bn"
}
layer {
  name: "inception_3a/3x3"
  type: "Convolution"
  bottom: "inception_3a/3x3_reduce_bn"
  top: "inception_3a/3x3"
  param {
    lr_mult: 1
    decay_mult: 1
  }
  param {
    lr_mult: 2
    decay_mult: 0
  }
  convolution_param {
    num_output: 256
    pad: 1
    kernel_size: 3
    weight_filler {
      type: "xavier"
    }
    bias_filler {
      type: "constant"
      value: 0.2
    }
  }
}
layer {
  name: "inception_3a/3x3_bn"
  type: "BN"
  bottom: "inception_3a/3x3"
  top: "inception_3a/3x3_bn"
  param {
    lr_mult: 1
    decay_mult: 0
  }
  param {
    lr_mult: 1
    decay_mult: 0
  }
  bn_param {
    slope_filler {
      type: "constant"
      value: 1
    }
    bias_filler {
      type: "constant"
      value: 0
    }
  }
}
layer {
  name: "inception_3a/relu_3x3"
  type: "ReLU"
  bottom: "inception_3a/3x3_bn"
  top: "inception_3a/3x3_bn"
}
layer {
  name: "inception_3a/double_3x3_reduce"
  type: "Convolution"
  bottom: "inception_2b/output"
  top: "inception_3a/double_3x3_reduce"
  param {
    lr_mult: 1
    decay_mult: 1
  }
  param {
    lr_mult: 2
    decay_mult: 0
  }
  convolution_param {
    num_output: 256
    kernel_size: 1
    weight_filler {
      type: "xavier"
    }
    bias_filler {
      type: "constant"
      value: 0.2
    }
  }
}
layer {
  name: "inception_3a/double_3x3_reduce_bn"
  type: "BN"
  bottom: "inception_3a/double_3x3_reduce"
  top: "inception_3a/double_3x3_reduce_bn"
  param {
    lr_mult: 1
    decay_mult: 0
  }
  param {
    lr_mult: 1
    decay_mult: 0
  }
  bn_param {
    slope_filler {
      type: "constant"
      value: 1
    }
    bias_filler {
      type: "constant"
    
I1019 15:29:06.259632  4186 layer_factory.hpp:77] Creating layer data
I1019 15:29:06.260264  4186 net.cpp:91] Creating Layer data
I1019 15:29:06.260275  4186 net.cpp:409] data -> data
I1019 15:29:06.260999  4186 net.cpp:409] data -> label
I1019 15:29:06.281275  4186 image_data_layer.cpp:37] Opening file /home/nikoong/Algorithm_test/attribute/external/exp/dataset/Market-1501/train.txt
I1019 15:29:06.285262  4186 image_data_layer.cpp:47] Shuffling data
I1019 15:29:06.287021  4186 image_data_layer.cpp:52] A total of 12936 images.
I1019 15:29:07.050329  4186 image_data_layer.cpp:79] output data size: 45,3,144,56
I1019 15:29:07.065068  4186 net.cpp:141] Setting up data
I1019 15:29:07.065105  4186 net.cpp:148] Top shape: 45 3 144 56 (1088640)
I1019 15:29:07.065110  4186 net.cpp:148] Top shape: 45 (45)
I1019 15:29:07.065112  4186 net.cpp:156] Memory required for data: 4354740
I1019 15:29:07.065119  4186 layer_factory.hpp:77] Creating layer conv1
I1019 15:29:07.065140  4186 net.cpp:91] Creating Layer conv1
I1019 15:29:07.065145  4186 net.cpp:435] conv1 <- data
I1019 15:29:07.065155  4186 net.cpp:409] conv1 -> conv1
I1019 15:29:11.975610  4186 net.cpp:141] Setting up conv1
I1019 15:29:11.975634  4186 net.cpp:148] Top shape: 45 32 144 56 (11612160)
I1019 15:29:11.975637  4186 net.cpp:156] Memory required for data: 50803380
I1019 15:29:11.975656  4186 layer_factory.hpp:77] Creating layer conv1_bn
I1019 15:29:11.975672  4186 layer_factory.cpp:265] Layer conv1_bn is using CAFFE engine.
I1019 15:29:11.975683  4186 net.cpp:91] Creating Layer conv1_bn
I1019 15:29:11.975687  4186 net.cpp:435] conv1_bn <- conv1
I1019 15:29:11.975692  4186 net.cpp:409] conv1_bn -> conv1_bn
I1019 15:29:11.991583  4186 net.cpp:141] Setting up conv1_bn
I1019 15:29:11.991617  4186 net.cpp:148] Top shape: 45 32 144 56 (11612160)
I1019 15:29:11.991621  4186 net.cpp:156] Memory required for data: 97252020
I1019 15:29:11.991633  4186 layer_factory.hpp:77] Creating layer relu1
I1019 15:29:11.991641  4186 net.cpp:91] Creating Layer relu1
I1019 15:29:11.991645  4186 net.cpp:435] relu1 <- conv1_bn
I1019 15:29:11.991650  4186 net.cpp:396] relu1 -> conv1_bn (in-place)
I1019 15:29:11.991816  4186 net.cpp:141] Setting up relu1
I1019 15:29:11.991824  4186 net.cpp:148] Top shape: 45 32 144 56 (11612160)
I1019 15:29:11.991827  4186 net.cpp:156] Memory required for data: 143700660
I1019 15:29:11.991829  4186 layer_factory.hpp:77] Creating layer conv2
I1019 15:29:11.991840  4186 net.cpp:91] Creating Layer conv2
I1019 15:29:11.991843  4186 net.cpp:435] conv2 <- conv1_bn
I1019 15:29:11.991847  4186 net.cpp:409] conv2 -> conv2
I1019 15:29:11.992939  4186 net.cpp:141] Setting up conv2
I1019 15:29:11.992951  4186 net.cpp:148] Top shape: 45 32 144 56 (11612160)
I1019 15:29:11.992954  4186 net.cpp:156] Memory required for data: 190149300
I1019 15:29:11.992959  4186 layer_factory.hpp:77] Creating layer conv2_bn
I1019 15:29:11.992964  4186 layer_factory.cpp:265] Layer conv2_bn is using CAFFE engine.
I1019 15:29:11.992969  4186 net.cpp:91] Creating Layer conv2_bn
I1019 15:29:11.992971  4186 net.cpp:435] conv2_bn <- conv2
I1019 15:29:11.992985  4186 net.cpp:409] conv2_bn -> conv2_bn
I1019 15:29:11.993127  4186 net.cpp:141] Setting up conv2_bn
I1019 15:29:11.993134  4186 net.cpp:148] Top shape: 45 32 144 56 (11612160)
I1019 15:29:11.993135  4186 net.cpp:156] Memory required for data: 236597940
I1019 15:29:11.993144  4186 layer_factory.hpp:77] Creating layer relu2
I1019 15:29:11.993147  4186 net.cpp:91] Creating Layer relu2
I1019 15:29:11.993150  4186 net.cpp:435] relu2 <- conv2_bn
I1019 15:29:11.993154  4186 net.cpp:396] relu2 -> conv2_bn (in-place)
I1019 15:29:11.993281  4186 net.cpp:141] Setting up relu2
I1019 15:29:11.993288  4186 net.cpp:148] Top shape: 45 32 144 56 (11612160)
I1019 15:29:11.993290  4186 net.cpp:156] Memory required for data: 283046580
I1019 15:29:11.993294  4186 layer_factory.hpp:77] Creating layer conv3
I1019 15:29:11.993300  4186 net.cpp:91] Creating Layer conv3
I1019 15:29:11.993302  4186 net.cpp:435] conv3 <- conv2_bn
I1019 15:29:11.993316  4186 net.cpp:409] conv3 -> conv3
I1019 15:29:11.994297  4186 net.cpp:141] Setting up conv3
I1019 15:29:11.994307  4186 net.cpp:148] Top shape: 45 32 144 56 (11612160)
I1019 15:29:11.994310  4186 net.cpp:156] Memory required for data: 329495220
I1019 15:29:11.994315  4186 layer_factory.hpp:77] Creating layer conv3_bn
I1019 15:29:11.994318  4186 layer_factory.cpp:265] Layer conv3_bn is using CAFFE engine.
I1019 15:29:11.994323  4186 net.cpp:91] Creating Layer conv3_bn
I1019 15:29:11.994326  4186 net.cpp:435] conv3_bn <- conv3
I1019 15:29:11.994343  4186 net.cpp:409] conv3_bn -> conv3_bn
I1019 15:29:11.994506  4186 net.cpp:141] Setting up conv3_bn
I1019 15:29:11.994513  4186 net.cpp:148] Top shape: 45 32 144 56 (11612160)
I1019 15:29:11.994524  4186 net.cpp:156] Memory required for data: 375943860
I1019 15:29:11.994531  4186 layer_factory.hpp:77] Creating layer relu3
I1019 15:29:11.994536  4186 net.cpp:91] Creating Layer relu3
I1019 15:29:11.994549  4186 net.cpp:435] relu3 <- conv3_bn
I1019 15:29:11.994552  4186 net.cpp:396] relu3 -> conv3_bn (in-place)
I1019 15:29:11.995290  4186 net.cpp:141] Setting up relu3
I1019 15:29:11.995311  4186 net.cpp:148] Top shape: 45 32 144 56 (11612160)
I1019 15:29:11.995314  4186 net.cpp:156] Memory required for data: 422392500
I1019 15:29:11.995317  4186 layer_factory.hpp:77] Creating layer pool1
I1019 15:29:11.995334  4186 net.cpp:91] Creating Layer pool1
I1019 15:29:11.995337  4186 net.cpp:435] pool1 <- conv3_bn
I1019 15:29:11.995342  4186 net.cpp:409] pool1 -> pool1
I1019 15:29:11.995401  4186 net.cpp:141] Setting up pool1
I1019 15:29:11.995407  4186 net.cpp:148] Top shape: 45 32 72 28 (2903040)
I1019 15:29:11.995419  4186 net.cpp:156] Memory required for data: 434004660
I1019 15:29:11.995421  4186 layer_factory.hpp:77] Creating layer pool1_pool1_0_split
I1019 15:29:11.995426  4186 net.cpp:91] Creating Layer pool1_pool1_0_split
I1019 15:29:11.995438  4186 net.cpp:435] pool1_pool1_0_split <- pool1
I1019 15:29:11.995442  4186 net.cpp:409] pool1_pool1_0_split -> pool1_pool1_0_split_0
I1019 15:29:11.995446  4186 net.cpp:409] pool1_pool1_0_split -> pool1_pool1_0_split_1
I1019 15:29:11.995450  4186 net.cpp:409] pool1_pool1_0_split -> pool1_pool1_0_split_2
I1019 15:29:11.995455  4186 net.cpp:409] pool1_pool1_0_split -> pool1_pool1_0_split_3
I1019 15:29:11.995497  4186 net.cpp:141] Setting up pool1_pool1_0_split
I1019 15:29:11.995512  4186 net.cpp:148] Top shape: 45 32 72 28 (2903040)
I1019 15:29:11.995514  4186 net.cpp:148] Top shape: 45 32 72 28 (2903040)
I1019 15:29:11.995517  4186 net.cpp:148] Top shape: 45 32 72 28 (2903040)
I1019 15:29:11.995519  4186 net.cpp:148] Top shape: 45 32 72 28 (2903040)
I1019 15:29:11.995530  4186 net.cpp:156] Memory required for data: 480453300
I1019 15:29:11.995533  4186 layer_factory.hpp:77] Creating layer inception_1a/1x1
I1019 15:29:11.995549  4186 net.cpp:91] Creating Layer inception_1a/1x1
I1019 15:29:11.995553  4186 net.cpp:435] inception_1a/1x1 <- pool1_pool1_0_split_0
I1019 15:29:11.995556  4186 net.cpp:409] inception_1a/1x1 -> inception_1a/1x1
I1019 15:29:11.997428  4186 net.cpp:141] Setting up inception_1a/1x1
I1019 15:29:11.997455  4186 net.cpp:148] Top shape: 45 64 72 28 (5806080)
I1019 15:29:11.997458  4186 net.cpp:156] Memory required for data: 503677620
I1019 15:29:11.997465  4186 layer_factory.hpp:77] Creating layer inception_1a/1x1_bn
I1019 15:29:11.997469  4186 layer_factory.cpp:265] Layer inception_1a/1x1_bn is using CAFFE engine.
I1019 15:29:11.997476  4186 net.cpp:91] Creating Layer inception_1a/1x1_bn
I1019 15:29:11.997479  4186 net.cpp:435] inception_1a/1x1_bn <- inception_1a/1x1
I1019 15:29:11.997484  4186 net.cpp:409] inception_1a/1x1_bn -> inception_1a/1x1_bn
I1019 15:29:11.997653  4186 net.cpp:141] Setting up inception_1a/1x1_bn
I1019 15:29:11.997659  4186 net.cpp:148] Top shape: 45 64 72 28 (5806080)
I1019 15:29:11.997671  4186 net.cpp:156] Memory required for data: 526901940
I1019 15:29:11.997678  4186 layer_factory.hpp:77] Creating layer inception_1a/relu_1x1
I1019 15:29:11.997683  4186 net.cpp:91] Creating Layer inception_1a/relu_1x1
I1019 15:29:11.997684  4186 net.cpp:435] inception_1a/relu_1x1 <- inception_1a/1x1_bn
I1019 15:29:11.997697  4186 net.cpp:396] inception_1a/relu_1x1 -> inception_1a/1x1_bn (in-place)
I1019 15:29:11.997833  4186 net.cpp:141] Setting up inception_1a/relu_1x1
I1019 15:29:11.997840  4186 net.cpp:148] Top shape: 45 64 72 28 (5806080)
I1019 15:29:11.997843  4186 net.cpp:156] Memory required for data: 550126260
I1019 15:29:11.997845  4186 layer_factory.hpp:77] Creating layer inception_1a/3x3_reduce
I1019 15:29:11.997853  4186 net.cpp:91] Creating Layer inception_1a/3x3_reduce
I1019 15:29:11.997854  4186 net.cpp:435] inception_1a/3x3_reduce <- pool1_pool1_0_split_1
I1019 15:29:11.997859  4186 net.cpp:409] inception_1a/3x3_reduce -> inception_1a/3x3_reduce
I1019 15:29:11.998803  4186 net.cpp:141] Setting up inception_1a/3x3_reduce
I1019 15:29:11.998814  4186 net.cpp:148] Top shape: 45 64 72 28 (5806080)
I1019 15:29:11.998816  4186 net.cpp:156] Memory required for data: 573350580
I1019 15:29:11.998821  4186 layer_factory.hpp:77] Creating layer inception_1a/3x3_reduce_bn
I1019 15:29:11.998824  4186 layer_factory.cpp:265] Layer inception_1a/3x3_reduce_bn is using CAFFE engine.
I1019 15:29:11.998831  4186 net.cpp:91] Creating Layer inception_1a/3x3_reduce_bn
I1019 15:29:11.998833  4186 net.cpp:435] inception_1a/3x3_reduce_bn <- inception_1a/3x3_reduce
I1019 15:29:11.998847  4186 net.cpp:409] inception_1a/3x3_reduce_bn -> inception_1a/3x3_reduce_bn
I1019 15:29:11.998996  4186 net.cpp:141] Setting up inception_1a/3x3_reduce_bn
I1019 15:29:11.999002  4186 net.cpp:148] Top shape: 45 64 72 28 (5806080)
I1019 15:29:11.999004  4186 net.cpp:156] Memory required for data: 596574900
I1019 15:29:11.999011  4186 layer_factory.hpp:77] Creating layer inception_1a/relu_3x3_reduce
I1019 15:29:11.999014  4186 net.cpp:91] Creating Layer inception_1a/relu_3x3_reduce
I1019 15:29:11.999017  4186 net.cpp:435] inception_1a/relu_3x3_reduce <- inception_1a/3x3_reduce_bn
I1019 15:29:11.999020  4186 net.cpp:396] inception_1a/relu_3x3_reduce -> inception_1a/3x3_reduce_bn (in-place)
I1019 15:29:11.999173  4186 net.cpp:141] Setting up inception_1a/relu_3x3_reduce
I1019 15:29:11.999181  4186 net.cpp:148] Top shape: 45 64 72 28 (5806080)
I1019 15:29:11.999182  4186 net.cpp:156] Memory required for data: 619799220
I1019 15:29:11.999186  4186 layer_factory.hpp:77] Creating layer inception_1a/3x3
I1019 15:29:11.999191  4186 net.cpp:91] Creating Layer inception_1a/3x3
I1019 15:29:11.999194  4186 net.cpp:435] inception_1a/3x3 <- inception_1a/3x3_reduce_bn
I1019 15:29:11.999208  4186 net.cpp:409] inception_1a/3x3 -> inception_1a/3x3
I1019 15:29:12.001020  4186 net.cpp:141] Setting up inception_1a/3x3
I1019 15:29:12.001032  4186 net.cpp:148] Top shape: 45 64 72 28 (5806080)
I1019 15:29:12.001035  4186 net.cpp:156] Memory required for data: 643023540
I1019 15:29:12.001040  4186 layer_factory.hpp:77] Creating layer inception_1a/3x3_bn
I1019 15:29:12.001044  4186 layer_factory.cpp:265] Layer inception_1a/3x3_bn is using CAFFE engine.
I1019 15:29:12.001049  4186 net.cpp:91] Creating Layer inception_1a/3x3_bn
I1019 15:29:12.001052  4186 net.cpp:435] inception_1a/3x3_bn <- inception_1a/3x3
I1019 15:29:12.001057  4186 net.cpp:409] inception_1a/3x3_bn -> inception_1a/3x3_bn
I1019 15:29:12.001202  4186 net.cpp:141] Setting up inception_1a/3x3_bn
I1019 15:29:12.001209  4186 net.cpp:148] Top shape: 45 64 72 28 (5806080)
I1019 15:29:12.001210  4186 net.cpp:156] Memory required for data: 666247860
I1019 15:29:12.001219  4186 layer_factory.hpp:77] Creating layer inception_1a/relu_3x3
I1019 15:29:12.001224  4186 net.cpp:91] Creating Layer inception_1a/relu_3x3
I1019 15:29:12.001225  4186 net.cpp:435] inception_1a/relu_3x3 <- inception_1a/3x3_bn
I1019 15:29:12.001230  4186 net.cpp:396] inception_1a/relu_3x3 -> inception_1a/3x3_bn (in-place)
I1019 15:29:12.001343  4186 net.cpp:141] Setting up inception_1a/relu_3x3
I1019 15:29:12.001349  4186 net.cpp:148] Top shape: 45 64 72 28 (5806080)
I1019 15:29:12.001351  4186 net.cpp:156] Memory required for data: 689472180
I1019 15:29:12.001354  4186 layer_factory.hpp:77] Creating layer inception_1a/double_3x3_reduce
I1019 15:29:12.001360  4186 net.cpp:91] Creating Layer inception_1a/double_3x3_reduce
I1019 15:29:12.001363  4186 net.cpp:435] inception_1a/double_3x3_reduce <- pool1_pool1_0_split_2
I1019 15:29:12.001368  4186 net.cpp:409] inception_1a/double_3x3_reduce -> inception_1a/double_3x3_reduce
I1019 15:29:12.002441  4186 net.cpp:141] Setting up inception_1a/double_3x3_reduce
I1019 15:29:12.002468  4186 net.cpp:148] Top shape: 45 64 72 28 (5806080)
I1019 15:29:12.002471  4186 net.cpp:156] Memory required for data: 712696500
I1019 15:29:12.002476  4186 layer_factory.hpp:77] Creating layer inception_1a/double_3x3_reduce_bn
I1019 15:29:12.002480  4186 layer_factory.cpp:265] Layer inception_1a/double_3x3_reduce_bn is using CAFFE engine.
I1019 15:29:12.002485  4186 net.cpp:91] Creating Layer inception_1a/double_3x3_reduce_bn
I1019 15:29:12.002488  4186 net.cpp:435] inception_1a/double_3x3_reduce_bn <- inception_1a/double_3x3_reduce
I1019 15:29:12.002493  4186 net.cpp:409] inception_1a/double_3x3_reduce_bn -> inception_1a/double_3x3_reduce_bn
I1019 15:29:12.002651  4186 net.cpp:141] Setting up inception_1a/double_3x3_reduce_bn
I1019 15:29:12.002657  4186 net.cpp:148] Top shape: 45 64 72 28 (5806080)
I1019 15:29:12.002660  4186 net.cpp:156] Memory required for data: 735920820
I1019 15:29:12.002665  4186 layer_factory.hpp:77] Creating layer inception_1a/relu_double_3x3_reduce
I1019 15:29:12.002670  4186 net.cpp:91] Creating Layer inception_1a/relu_double_3x3_reduce
I1019 15:29:12.002672  4186 net.cpp:435] inception_1a/relu_double_3x3_reduce <- inception_1a/double_3x3_reduce_bn
I1019 15:29:12.002676  4186 net.cpp:396] inception_1a/relu_double_3x3_reduce -> inception_1a/double_3x3_reduce_bn (in-place)
I1019 15:29:12.002790  4186 net.cpp:141] Setting up inception_1a/relu_double_3x3_reduce
I1019 15:29:12.002797  4186 net.cpp:148] Top shape: 45 64 72 28 (5806080)
I1019 15:29:12.002799  4186 net.cpp:156] Memory required for data: 759145140
I1019 15:29:12.002802  4186 layer_factory.hpp:77] Creating layer inception_1a/double_3x3_1
I1019 15:29:12.002809  4186 net.cpp:91] Creating Layer inception_1a/double_3x3_1
I1019 15:29:12.002811  4186 net.cpp:435] inception_1a/double_3x3_1 <- inception_1a/double_3x3_reduce_bn
I1019 15:29:12.002816  4186 net.cpp:409] inception_1a/double_3x3_1 -> inception_1a/double_3x3_1
I1019 15:29:12.004030  4186 net.cpp:141] Setting up inception_1a/double_3x3_1
I1019 15:29:12.004041  4186 net.cpp:148] Top shape: 45 64 72 28 (5806080)
I1019 15:29:12.004045  4186 net.cpp:156] Memory required for data: 782369460
I1019 15:29:12.004050  4186 layer_factory.hpp:77] Creating layer inception_1a/double_3x3_1_bn
I1019 15:29:12.004052  4186 layer_factory.cpp:265] Layer inception_1a/double_3x3_1_bn is using CAFFE engine.
I1019 15:29:12.004057  4186 net.cpp:91] Creating Layer inception_1a/double_3x3_1_bn
I1019 15:29:12.004060  4186 net.cpp:435] inception_1a/double_3x3_1_bn <- inception_1a/double_3x3_1
I1019 15:29:12.004065  4186 net.cpp:409] inception_1a/double_3x3_1_bn -> inception_1a/double_3x3_1_bn
I1019 15:29:12.004246  4186 net.cpp:141] Setting up inception_1a/double_3x3_1_bn
I1019 15:29:12.004252  4186 net.cpp:148] Top shape: 45 64 72 28 (5806080)
I1019 15:29:12.004254  4186 net.cpp:156] Memory required for data: 805593780
I1019 15:29:12.004261  4186 layer_factory.hpp:77] Creating layer inception_1a/relu_double_3x3_1
I1019 15:29:12.004264  4186 net.cpp:91] Creating Layer inception_1a/relu_double_3x3_1
I1019 15:29:12.004267  4186 net.cpp:435] inception_1a/relu_double_3x3_1 <- inception_1a/double_3x3_1_bn
I1019 15:29:12.004271  4186 net.cpp:396] inception_1a/relu_double_3x3_1 -> inception_1a/double_3x3_1_bn (in-place)
I1019 15:29:12.004385  4186 net.cpp:141] Setting up inception_1a/relu_double_3x3_1
I1019 15:29:12.004392  4186 net.cpp:148] Top shape: 45 64 72 28 (5806080)
I1019 15:29:12.004395  4186 net.cpp:156] Memory required for data: 828818100
I1019 15:29:12.004397  4186 layer_factory.hpp:77] Creating layer inception_1a/double_3x3_2
I1019 15:29:12.004403  4186 net.cpp:91] Creating Layer inception_1a/double_3x3_2
I1019 15:29:12.004406  4186 net.cpp:435] inception_1a/double_3x3_2 <- inception_1a/double_3x3_1_bn
I1019 15:29:12.004410  4186 net.cpp:409] inception_1a/double_3x3_2 -> inception_1a/double_3x3_2
I1019 15:29:12.005554  4186 net.cpp:141] Setting up inception_1a/double_3x3_2
I1019 15:29:12.005565  4186 net.cpp:148] Top shape: 45 64 72 28 (5806080)
I1019 15:29:12.005568  4186 net.cpp:156] Memory required for data: 852042420
I1019 15:29:12.005573  4186 layer_factory.hpp:77] Creating layer inception_1a/double_3x3_2_bn
I1019 15:29:12.005576  4186 layer_factory.cpp:265] Layer inception_1a/double_3x3_2_bn is using CAFFE engine.
I1019 15:29:12.005581  4186 net.cpp:91] Creating Layer inception_1a/double_3x3_2_bn
I1019 15:29:12.005584  4186 net.cpp:435] inception_1a/double_3x3_2_bn <- inception_1a/double_3x3_2
I1019 15:29:12.005589  4186 net.cpp:409] inception_1a/double_3x3_2_bn -> inception_1a/double_3x3_2_bn
I1019 15:29:12.005743  4186 net.cpp:141] Setting up inception_1a/double_3x3_2_bn
I1019 15:29:12.005748  4186 net.cpp:148] Top shape: 45 64 72 28 (5806080)
I1019 15:29:12.005750  4186 net.cpp:156] Memory required for data: 875266740
I1019 15:29:12.005756  4186 layer_factory.hpp:77] Creating layer inception_1a/relu_double_3x3_2
I1019 15:29:12.005760  4186 net.cpp:91] Creating Layer inception_1a/relu_double_3x3_2
I1019 15:29:12.005762  4186 net.cpp:435] inception_1a/relu_double_3x3_2 <- inception_1a/double_3x3_2_bn
I1019 15:29:12.005766  4186 net.cpp:396] inception_1a/relu_double_3x3_2 -> inception_1a/double_3x3_2_bn (in-place)
I1019 15:29:12.006337  4186 net.cpp:141] Setting up inception_1a/relu_double_3x3_2
I1019 15:29:12.006347  4186 net.cpp:148] Top shape: 45 64 72 28 (5806080)
I1019 15:29:12.006350  4186 net.cpp:156] Memory required for data: 898491060
I1019 15:29:12.006352  4186 layer_factory.hpp:77] Creating layer inception_1a/pool
I1019 15:29:12.006358  4186 net.cpp:91] Creating Layer inception_1a/pool
I1019 15:29:12.006362  4186 net.cpp:435] inception_1a/pool <- pool1_pool1_0_split_3
I1019 15:29:12.006376  4186 net.cpp:409] inception_1a/pool -> inception_1a/pool
I1019 15:29:12.006518  4186 net.cpp:141] Setting up inception_1a/pool
I1019 15:29:12.006526  4186 net.cpp:148] Top shape: 45 32 72 28 (2903040)
I1019 15:29:12.006528  4186 net.cpp:156] Memory required for data: 910103220
I1019 15:29:12.006531  4186 layer_factory.hpp:77] Creating layer inception_1a/pool_proj
I1019 15:29:12.006537  4186 net.cpp:91] Creating Layer inception_1a/pool_proj
I1019 15:29:12.006541  4186 net.cpp:435] inception_1a/pool_proj <- inception_1a/pool
I1019 15:29:12.006546  4186 net.cpp:409] inception_1a/pool_proj -> inception_1a/pool_proj
I1019 15:29:12.007634  4186 net.cpp:141] Setting up inception_1a/pool_proj
I1019 15:29:12.007647  4186 net.cpp:148] Top shape: 45 64 72 28 (5806080)
I1019 15:29:12.007650  4186 net.cpp:156] Memory required for data: 933327540
I1019 15:29:12.007656  4186 layer_factory.hpp:77] Creating layer inception_1a/pool_proj_bn
I1019 15:29:12.007659  4186 layer_factory.cpp:265] Layer inception_1a/pool_proj_bn is using CAFFE engine.
I1019 15:29:12.007665  4186 net.cpp:91] Creating Layer inception_1a/pool_proj_bn
I1019 15:29:12.007678  4186 net.cpp:435] inception_1a/pool_proj_bn <- inception_1a/pool_proj
I1019 15:29:12.007683  4186 net.cpp:409] inception_1a/pool_proj_bn -> inception_1a/pool_proj_bn
I1019 15:29:12.007905  4186 net.cpp:141] Setting up inception_1a/pool_proj_bn
I1019 15:29:12.007913  4186 net.cpp:148] Top shape: 45 64 72 28 (5806080)
I1019 15:29:12.007926  4186 net.cpp:156] Memory required for data: 956551860
I1019 15:29:12.007932  4186 layer_factory.hpp:77] Creating layer inception_1a/relu_pool_proj
I1019 15:29:12.007936  4186 net.cpp:91] Creating Layer inception_1a/relu_pool_proj
I1019 15:29:12.007941  4186 net.cpp:435] inception_1a/relu_pool_proj <- inception_1a/pool_proj_bn
I1019 15:29:12.007943  4186 net.cpp:396] inception_1a/relu_pool_proj -> inception_1a/pool_proj_bn (in-place)
I1019 15:29:12.008095  4186 net.cpp:141] Setting up inception_1a/relu_pool_proj
I1019 15:29:12.008103  4186 net.cpp:148] Top shape: 45 64 72 28 (5806080)
I1019 15:29:12.008105  4186 net.cpp:156] Memory required for data: 979776180
I1019 15:29:12.008108  4186 layer_factory.hpp:77] Creating layer inception_1a/output
I1019 15:29:12.008113  4186 net.cpp:91] Creating Layer inception_1a/output
I1019 15:29:12.008116  4186 net.cpp:435] inception_1a/output <- inception_1a/1x1_bn
I1019 15:29:12.008121  4186 net.cpp:435] inception_1a/output <- inception_1a/3x3_bn
I1019 15:29:12.008123  4186 net.cpp:435] inception_1a/output <- inception_1a/double_3x3_2_bn
I1019 15:29:12.008127  4186 net.cpp:435] inception_1a/output <- inception_1a/pool_proj_bn
I1019 15:29:12.008131  4186 net.cpp:409] inception_1a/output -> inception_1a/output
I1019 15:29:12.008152  4186 net.cpp:141] Setting up inception_1a/output
I1019 15:29:12.008165  4186 net.cpp:148] Top shape: 45 256 72 28 (23224320)
I1019 15:29:12.008168  4186 net.cpp:156] Memory required for data: 1072673460
I1019 15:29:12.008170  4186 layer_factory.hpp:77] Creating layer inception_1a/output_inception_1a/output_0_split
I1019 15:29:12.008185  4186 net.cpp:91] Creating Layer inception_1a/output_inception_1a/output_0_split
I1019 15:29:12.008188  4186 net.cpp:435] inception_1a/output_inception_1a/output_0_split <- inception_1a/output
I1019 15:29:12.008191  4186 net.cpp:409] inception_1a/output_inception_1a/output_0_split -> inception_1a/output_inception_1a/output_0_split_0
I1019 15:29:12.008196  4186 net.cpp:409] inception_1a/output_inception_1a/output_0_split -> inception_1a/output_inception_1a/output_0_split_1
I1019 15:29:12.008200  4186 net.cpp:409] inception_1a/output_inception_1a/output_0_split -> inception_1a/output_inception_1a/output_0_split_2
I1019 15:29:12.008239  4186 net.cpp:141] Setting up inception_1a/output_inception_1a/output_0_split
I1019 15:29:12.008244  4186 net.cpp:148] Top shape: 45 256 72 28 (23224320)
I1019 15:29:12.008247  4186 net.cpp:148] Top shape: 45 256 72 28 (23224320)
I1019 15:29:12.008260  4186 net.cpp:148] Top shape: 45 256 72 28 (23224320)
I1019 15:29:12.008261  4186 net.cpp:156] Memory required for data: 1351365300
I1019 15:29:12.008265  4186 layer_factory.hpp:77] Creating layer inception_1b/3x3_reduce
I1019 15:29:12.008270  4186 net.cpp:91] Creating Layer inception_1b/3x3_reduce
I1019 15:29:12.008273  4186 net.cpp:435] inception_1b/3x3_reduce <- inception_1a/output_inception_1a/output_0_split_0
I1019 15:29:12.008277  4186 net.cpp:409] inception_1b/3x3_reduce -> inception_1b/3x3_reduce
I1019 15:29:12.009798  4186 net.cpp:141] Setting up inception_1b/3x3_reduce
I1019 15:29:12.009817  4186 net.cpp:148] Top shape: 45 64 72 28 (5806080)
I1019 15:29:12.009820  4186 net.cpp:156] Memory required for data: 1374589620
I1019 15:29:12.009826  4186 layer_factory.hpp:77] Creating layer inception_1b/3x3_reduce_bn
I1019 15:29:12.009838  4186 layer_factory.cpp:265] Layer inception_1b/3x3_reduce_bn is using CAFFE engine.
I1019 15:29:12.009843  4186 net.cpp:91] Creating Layer inception_1b/3x3_reduce_bn
I1019 15:29:12.009847  4186 net.cpp:435] inception_1b/3x3_reduce_bn <- inception_1b/3x3_reduce
I1019 15:29:12.009851  4186 net.cpp:409] inception_1b/3x3_reduce_bn -> inception_1b/3x3_reduce_bn
I1019 15:29:12.010027  4186 net.cpp:141] Setting up inception_1b/3x3_reduce_bn
I1019 15:29:12.010033  4186 net.cpp:148] Top shape: 45 64 72 28 (5806080)
I1019 15:29:12.010046  4186 net.cpp:156] Memory required for data: 1397813940
I1019 15:29:12.010064  4186 layer_factory.hpp:77] Creating layer inception_1b/relu_3x3_reduce
I1019 15:29:12.010069  4186 net.cpp:91] Creating Layer inception_1b/relu_3x3_reduce
I1019 15:29:12.010072  4186 net.cpp:435] inception_1b/relu_3x3_reduce <- inception_1b/3x3_reduce_bn
I1019 15:29:12.010076  4186 net.cpp:396] inception_1b/relu_3x3_reduce -> inception_1b/3x3_reduce_bn (in-place)
I1019 15:29:12.010215  4186 net.cpp:141] Setting up inception_1b/relu_3x3_reduce
I1019 15:29:12.010221  4186 net.cpp:148] Top shape: 45 64 72 28 (5806080)
I1019 15:29:12.010232  4186 net.cpp:156] Memory required for data: 1421038260
I1019 15:29:12.010236  4186 layer_factory.hpp:77] Creating layer inception_1b/3x3
I1019 15:29:12.010252  4186 net.cpp:91] Creating Layer inception_1b/3x3
I1019 15:29:12.010255  4186 net.cpp:435] inception_1b/3x3 <- inception_1b/3x3_reduce_bn
I1019 15:29:12.010259  4186 net.cpp:409] inception_1b/3x3 -> inception_1b/3x3
I1019 15:29:12.012084  4186 net.cpp:141] Setting up inception_1b/3x3
I1019 15:29:12.012111  4186 net.cpp:148] Top shape: 45 64 36 14 (1451520)
I1019 15:29:12.012115  4186 net.cpp:156] Memory required for data: 1426844340
I1019 15:29:12.012135  4186 layer_factory.hpp:77] Creating layer inception_1b/3x3_bn
I1019 15:29:12.012138  4186 layer_factory.cpp:265] Layer inception_1b/3x3_bn is using CAFFE engine.
I1019 15:29:12.012146  4186 net.cpp:91] Creating Layer inception_1b/3x3_bn
I1019 15:29:12.012151  4186 net.cpp:435] inception_1b/3x3_bn <- inception_1b/3x3
I1019 15:29:12.012156  4186 net.cpp:409] inception_1b/3x3_bn -> inception_1b/3x3_bn
I1019 15:29:12.012352  4186 net.cpp:141] Setting up inception_1b/3x3_bn
I1019 15:29:12.012358  4186 net.cpp:148] Top shape: 45 64 36 14 (1451520)
I1019 15:29:12.012362  4186 net.cpp:156] Memory required for data: 1432650420
I1019 15:29:12.012367  4186 layer_factory.hpp:77] Creating layer inception_1b/relu_3x3
I1019 15:29:12.012372  4186 net.cpp:91] Creating Layer inception_1b/relu_3x3
I1019 15:29:12.012374  4186 net.cpp:435] inception_1b/relu_3x3 <- inception_1b/3x3_bn
I1019 15:29:12.012388  4186 net.cpp:396] inception_1b/relu_3x3 -> inception_1b/3x3_bn (in-place)
I1019 15:29:12.012534  4186 net.cpp:141] Setting up inception_1b/relu_3x3
I1019 15:29:12.012542  4186 net.cpp:148] Top shape: 45 64 36 14 (1451520)
I1019 15:29:12.012553  4186 net.cpp:156] Memory required for data: 1438456500
I1019 15:29:12.012557  4186 layer_factory.hpp:77] Creating layer inception_1b/double_3x3_reduce
I1019 15:29:12.012564  4186 net.cpp:91] Creating Layer inception_1b/double_3x3_reduce
I1019 15:29:12.012567  4186 net.cpp:435] inception_1b/double_3x3_reduce <- inception_1a/output_inception_1a/output_0_split_1
I1019 15:29:12.012573  4186 net.cpp:409] inception_1b/double_3x3_reduce -> inception_1b/double_3x3_reduce
I1019 15:29:12.013752  4186 net.cpp:141] Setting up inception_1b/double_3x3_reduce
I1019 15:29:12.013764  4186 net.cpp:148] Top shape: 45 64 72 28 (5806080)
I1019 15:29:12.013767  4186 net.cpp:156] Memory required for data: 1461680820
I1019 15:29:12.013773  4186 layer_factory.hpp:77] Creating layer inception_1b/double_3x3_reduce_bn
I1019 15:29:12.013777  4186 layer_factory.cpp:265] Layer inception_1b/double_3x3_reduce_bn is using CAFFE engine.
I1019 15:29:12.013782  4186 net.cpp:91] Creating Layer inception_1b/double_3x3_reduce_bn
I1019 15:29:12.013795  4186 net.cpp:435] inception_1b/double_3x3_reduce_bn <- inception_1b/double_3x3_reduce
I1019 15:29:12.013800  4186 net.cpp:409] inception_1b/double_3x3_reduce_bn -> inception_1b/double_3x3_reduce_bn
I1019 15:29:12.013994  4186 net.cpp:141] Setting up inception_1b/double_3x3_reduce_bn
I1019 15:29:12.014000  4186 net.cpp:148] Top shape: 45 64 72 28 (5806080)
I1019 15:29:12.014014  4186 net.cpp:156] Memory required for data: 1484905140
I1019 15:29:12.014019  4186 layer_factory.hpp:77] Creating layer inception_1b/relu_double_3x3_reduce
I1019 15:29:12.014034  4186 net.cpp:91] Creating Layer inception_1b/relu_double_3x3_reduce
I1019 15:29:12.014036  4186 net.cpp:435] inception_1b/relu_double_3x3_reduce <- inception_1b/double_3x3_reduce_bn
I1019 15:29:12.014039  4186 net.cpp:396] inception_1b/relu_double_3x3_reduce -> inception_1b/double_3x3_reduce_bn (in-place)
I1019 15:29:12.014647  4186 net.cpp:141] Setting up inception_1b/relu_double_3x3_reduce
I1019 15:29:12.014657  4186 net.cpp:148] Top shape: 45 64 72 28 (5806080)
I1019 15:29:12.014660  4186 net.cpp:156] Memory required for data: 1508129460
I1019 15:29:12.014663  4186 layer_factory.hpp:77] Creating layer inception_1b/double_3x3_1
I1019 15:29:12.014670  4186 net.cpp:91] Creating Layer inception_1b/double_3x3_1
I1019 15:29:12.014674  4186 net.cpp:435] inception_1b/double_3x3_1 <- inception_1b/double_3x3_reduce_bn
I1019 15:29:12.014679  4186 net.cpp:409] inception_1b/double_3x3_1 -> inception_1b/double_3x3_1
I1019 15:29:12.015393  4186 net.cpp:141] Setting up inception_1b/double_3x3_1
I1019 15:29:12.015400  4186 net.cpp:148] Top shape: 45 64 72 28 (5806080)
I1019 15:29:12.015403  4186 net.cpp:156] Memory required for data: 1531353780
I1019 15:29:12.015408  4186 layer_factory.hpp:77] Creating layer inception_1b/double_3x3_1_bn
I1019 15:29:12.015411  4186 layer_factory.cpp:265] Layer inception_1b/double_3x3_1_bn is using CAFFE engine.
I1019 15:29:12.015416  4186 net.cpp:91] Creating Layer inception_1b/double_3x3_1_bn
I1019 15:29:12.015419  4186 net.cpp:435] inception_1b/double_3x3_1_bn <- inception_1b/double_3x3_1
I1019 15:29:12.015424  4186 net.cpp:409] inception_1b/double_3x3_1_bn -> inception_1b/double_3x3_1_bn
I1019 15:29:12.015579  4186 net.cpp:141] Setting up inception_1b/double_3x3_1_bn
I1019 15:29:12.015585  4186 net.cpp:148] Top shape: 45 64 72 28 (5806080)
I1019 15:29:12.015588  4186 net.cpp:156] Memory required for data: 1554578100
I1019 15:29:12.015594  4186 layer_factory.hpp:77] Creating layer inception_1b/relu_double_3x3_1
I1019 15:29:12.015597  4186 net.cpp:91] Creating Layer inception_1b/relu_double_3x3_1
I1019 15:29:12.015600  4186 net.cpp:435] inception_1b/relu_double_3x3_1 <- inception_1b/double_3x3_1_bn
I1019 15:29:12.015604  4186 net.cpp:396] inception_1b/relu_double_3x3_1 -> inception_1b/double_3x3_1_bn (in-place)
I1019 15:29:12.016207  4186 net.cpp:141] Setting up inception_1b/relu_double_3x3_1
I1019 15:29:12.016217  4186 net.cpp:148] Top shape: 45 64 72 28 (5806080)
I1019 15:29:12.016221  4186 net.cpp:156] Memory required for data: 1577802420
I1019 15:29:12.016223  4186 layer_factory.hpp:77] Creating layer inception_1b/double_3x3_2
I1019 15:29:12.016230  4186 net.cpp:91] Creating Layer inception_1b/double_3x3_2
I1019 15:29:12.016233  4186 net.cpp:435] inception_1b/double_3x3_2 <- inception_1b/double_3x3_1_bn
I1019 15:29:12.016238  4186 net.cpp:409] inception_1b/double_3x3_2 -> inception_1b/double_3x3_2
I1019 15:29:12.017422  4186 net.cpp:141] Setting up inception_1b/double_3x3_2
I1019 15:29:12.017433  4186 net.cpp:148] Top shape: 45 64 36 14 (1451520)
I1019 15:29:12.017436  4186 net.cpp:156] Memory required for data: 1583608500
I1019 15:29:12.017441  4186 layer_factory.hpp:77] Creating layer inception_1b/double_3x3_2_bn
I1019 15:29:12.017444  4186 layer_factory.cpp:265] Layer inception_1b/double_3x3_2_bn is using CAFFE engine.
I1019 15:29:12.017449  4186 net.cpp:91] Creating Layer inception_1b/double_3x3_2_bn
I1019 15:29:12.017452  4186 net.cpp:435] inception_1b/double_3x3_2_bn <- inception_1b/double_3x3_2
I1019 15:29:12.017457  4186 net.cpp:409] inception_1b/double_3x3_2_bn -> inception_1b/double_3x3_2_bn
I1019 15:29:12.017618  4186 net.cpp:141] Setting up inception_1b/double_3x3_2_bn
I1019 15:29:12.017626  4186 net.cpp:148] Top shape: 45 64 36 14 (1451520)
I1019 15:29:12.017627  4186 net.cpp:156] Memory required for data: 1589414580
I1019 15:29:12.017633  4186 layer_factory.hpp:77] Creating layer inception_1b/relu_double_3x3_2
I1019 15:29:12.017637  4186 net.cpp:91] Creating Layer inception_1b/relu_double_3x3_2
I1019 15:29:12.017640  4186 net.cpp:435] inception_1b/relu_double_3x3_2 <- inception_1b/double_3x3_2_bn
I1019 15:29:12.017644  4186 net.cpp:396] inception_1b/relu_double_3x3_2 -> inception_1b/double_3x3_2_bn (in-place)
I1019 15:29:12.017761  4186 net.cpp:141] Setting up inception_1b/relu_double_3x3_2
I1019 15:29:12.017768  4186 net.cpp:148] Top shape: 45 64 36 14 (1451520)
I1019 15:29:12.017771  4186 net.cpp:156] Memory required for data: 1595220660
I1019 15:29:12.017773  4186 layer_factory.hpp:77] Creating layer inception_1b/pool
I1019 15:29:12.017778  4186 net.cpp:91] Creating Layer inception_1b/pool
I1019 15:29:12.017781  4186 net.cpp:435] inception_1b/pool <- inception_1a/output_inception_1a/output_0_split_2
I1019 15:29:12.017786  4186 net.cpp:409] inception_1b/pool -> inception_1b/pool
I1019 15:29:12.017815  4186 net.cpp:141] Setting up inception_1b/pool
I1019 15:29:12.017820  4186 net.cpp:148] Top shape: 45 256 36 14 (5806080)
I1019 15:29:12.017822  4186 net.cpp:156] Memory required for data: 1618444980
I1019 15:29:12.017825  4186 layer_factory.hpp:77] Creating layer inception_1b/output
I1019 15:29:12.017829  4186 net.cpp:91] Creating Layer inception_1b/output
I1019 15:29:12.017832  4186 net.cpp:435] inception_1b/output <- inception_1b/3x3_bn
I1019 15:29:12.017835  4186 net.cpp:435] inception_1b/output <- inception_1b/double_3x3_2_bn
I1019 15:29:12.017838  4186 net.cpp:435] inception_1b/output <- inception_1b/pool
I1019 15:29:12.017843  4186 net.cpp:409] inception_1b/output -> inception_1b/output
I1019 15:29:12.017858  4186 net.cpp:141] Setting up inception_1b/output
I1019 15:29:12.017863  4186 net.cpp:148] Top shape: 45 384 36 14 (8709120)
I1019 15:29:12.017865  4186 net.cpp:156] Memory required for data: 1653281460
I1019 15:29:12.017868  4186 layer_factory.hpp:77] Creating layer inception_1b/output_inception_1b/output_0_split
I1019 15:29:12.017873  4186 net.cpp:91] Creating Layer inception_1b/output_inception_1b/output_0_split
I1019 15:29:12.017874  4186 net.cpp:435] inception_1b/output_inception_1b/output_0_split <- inception_1b/output
I1019 15:29:12.017879  4186 net.cpp:409] inception_1b/output_inception_1b/output_0_split -> inception_1b/output_inception_1b/output_0_split_0
I1019 15:29:12.017884  4186 net.cpp:409] inception_1b/output_inception_1b/output_0_split -> inception_1b/output_inception_1b/output_0_split_1
I1019 15:29:12.017887  4186 net.cpp:409] inception_1b/output_inception_1b/output_0_split -> inception_1b/output_inception_1b/output_0_split_2
I1019 15:29:12.017891  4186 net.cpp:409] inception_1b/output_inception_1b/output_0_split -> inception_1b/output_inception_1b/output_0_split_3
I1019 15:29:12.017930  4186 net.cpp:141] Setting up inception_1b/output_inception_1b/output_0_split
I1019 15:29:12.017933  4186 net.cpp:148] Top shape: 45 384 36 14 (8709120)
I1019 15:29:12.017936  4186 net.cpp:148] Top shape: 45 384 36 14 (8709120)
I1019 15:29:12.017940  4186 net.cpp:148] Top shape: 45 384 36 14 (8709120)
I1019 15:29:12.017942  4186 net.cpp:148] Top shape: 45 384 36 14 (8709120)
I1019 15:29:12.017944  4186 net.cpp:156] Memory required for data: 1792627380
I1019 15:29:12.017946  4186 layer_factory.hpp:77] Creating layer inception_2a/1x1
I1019 15:29:12.017953  4186 net.cpp:91] Creating Layer inception_2a/1x1
I1019 15:29:12.017956  4186 net.cpp:435] inception_2a/1x1 <- inception_1b/output_inception_1b/output_0_split_0
I1019 15:29:12.017959  4186 net.cpp:409] inception_2a/1x1 -> inception_2a/1x1
I1019 15:29:12.019619  4186 net.cpp:141] Setting up inception_2a/1x1
I1019 15:29:12.019629  4186 net.cpp:148] Top shape: 45 128 36 14 (2903040)
I1019 15:29:12.019632  4186 net.cpp:156] Memory required for data: 1804239540
I1019 15:29:12.019637  4186 layer_factory.hpp:77] Creating layer inception_2a/1x1_bn
I1019 15:29:12.019641  4186 layer_factory.cpp:265] Layer inception_2a/1x1_bn is using CAFFE engine.
I1019 15:29:12.019645  4186 net.cpp:91] Creating Layer inception_2a/1x1_bn
I1019 15:29:12.019649  4186 net.cpp:435] inception_2a/1x1_bn <- inception_2a/1x1
I1019 15:29:12.019654  4186 net.cpp:409] inception_2a/1x1_bn -> inception_2a/1x1_bn
I1019 15:29:12.019801  4186 net.cpp:141] Setting up inception_2a/1x1_bn
I1019 15:29:12.019806  4186 net.cpp:148] Top shape: 45 128 36 14 (2903040)
I1019 15:29:12.019809  4186 net.cpp:156] Memory required for data: 1815851700
I1019 15:29:12.019815  4186 layer_factory.hpp:77] Creating layer inception_2a/relu_1x1
I1019 15:29:12.019819  4186 net.cpp:91] Creating Layer inception_2a/relu_1x1
I1019 15:29:12.019821  4186 net.cpp:435] inception_2a/relu_1x1 <- inception_2a/1x1_bn
I1019 15:29:12.019825  4186 net.cpp:396] inception_2a/relu_1x1 -> inception_2a/1x1_bn (in-place)
I1019 15:29:12.019942  4186 net.cpp:141] Setting up inception_2a/relu_1x1
I1019 15:29:12.019949  4186 net.cpp:148] Top shape: 45 128 36 14 (2903040)
I1019 15:29:12.019953  4186 net.cpp:156] Memory required for data: 1827463860
I1019 15:29:12.019954  4186 layer_factory.hpp:77] Creating layer inception_2a/3x3_reduce
I1019 15:29:12.019961  4186 net.cpp:91] Creating Layer inception_2a/3x3_reduce
I1019 15:29:12.019964  4186 net.cpp:435] inception_2a/3x3_reduce <- inception_1b/output_inception_1b/output_0_split_1
I1019 15:29:12.019968  4186 net.cpp:409] inception_2a/3x3_reduce -> inception_2a/3x3_reduce
I1019 15:29:12.021200  4186 net.cpp:141] Setting up inception_2a/3x3_reduce
I1019 15:29:12.021211  4186 net.cpp:148] Top shape: 45 128 36 14 (2903040)
I1019 15:29:12.021214  4186 net.cpp:156] Memory required for data: 1839076020
I1019 15:29:12.021219  4186 layer_factory.hpp:77] Creating layer inception_2a/3x3_reduce_bn
I1019 15:29:12.021222  4186 layer_factory.cpp:265] Layer inception_2a/3x3_reduce_bn is using CAFFE engine.
I1019 15:29:12.021227  4186 net.cpp:91] Creating Layer inception_2a/3x3_reduce_bn
I1019 15:29:12.021230  4186 net.cpp:435] inception_2a/3x3_reduce_bn <- inception_2a/3x3_reduce
I1019 15:29:12.021234  4186 net.cpp:409] inception_2a/3x3_reduce_bn -> inception_2a/3x3_reduce_bn
I1019 15:29:12.021394  4186 net.cpp:141] Setting up inception_2a/3x3_reduce_bn
I1019 15:29:12.021400  4186 net.cpp:148] Top shape: 45 128 36 14 (2903040)
I1019 15:29:12.021402  4186 net.cpp:156] Memory required for data: 1850688180
I1019 15:29:12.021407  4186 layer_factory.hpp:77] Creating layer inception_2a/relu_3x3_reduce
I1019 15:29:12.021411  4186 net.cpp:91] Creating Layer inception_2a/relu_3x3_reduce
I1019 15:29:12.021414  4186 net.cpp:435] inception_2a/relu_3x3_reduce <- inception_2a/3x3_reduce_bn
I1019 15:29:12.021428  4186 net.cpp:396] inception_2a/relu_3x3_reduce -> inception_2a/3x3_reduce_bn (in-place)
I1019 15:29:12.021556  4186 net.cpp:141] Setting up inception_2a/relu_3x3_reduce
I1019 15:29:12.021562  4186 net.cpp:148] Top shape: 45 128 36 14 (2903040)
I1019 15:29:12.021565  4186 net.cpp:156] Memory required for data: 1862300340
I1019 15:29:12.021567  4186 layer_factory.hpp:77] Creating layer inception_2a/3x3
I1019 15:29:12.021574  4186 net.cpp:91] Creating Layer inception_2a/3x3
I1019 15:29:12.021577  4186 net.cpp:435] inception_2a/3x3 <- inception_2a/3x3_reduce_bn
I1019 15:29:12.021590  4186 net.cpp:409] inception_2a/3x3 -> inception_2a/3x3
I1019 15:29:12.024935  4186 net.cpp:141] Setting up inception_2a/3x3
I1019 15:29:12.024951  4186 net.cpp:148] Top shape: 45 128 36 14 (2903040)
I1019 15:29:12.024955  4186 net.cpp:156] Memory required for data: 1873912500
I1019 15:29:12.024962  4186 layer_factory.hpp:77] Creating layer inception_2a/3x3_bn
I1019 15:29:12.024966  4186 layer_factory.cpp:265] Layer inception_2a/3x3_bn is using CAFFE engine.
I1019 15:29:12.024973  4186 net.cpp:91] Creating Layer inception_2a/3x3_bn
I1019 15:29:12.024977  4186 net.cpp:435] inception_2a/3x3_bn <- inception_2a/3x3
I1019 15:29:12.024982  4186 net.cpp:409] inception_2a/3x3_bn -> inception_2a/3x3_bn
I1019 15:29:12.025173  4186 net.cpp:141] Setting up inception_2a/3x3_bn
I1019 15:29:12.025180  4186 net.cpp:148] Top shape: 45 128 36 14 (2903040)
I1019 15:29:12.025183  4186 net.cpp:156] Memory required for data: 1885524660
I1019 15:29:12.025189  4186 layer_factory.hpp:77] Creating layer inception_2a/relu_3x3
I1019 15:29:12.025194  4186 net.cpp:91] Creating Layer inception_2a/relu_3x3
I1019 15:29:12.025197  4186 net.cpp:435] inception_2a/relu_3x3 <- inception_2a/3x3_bn
I1019 15:29:12.025202  4186 net.cpp:396] inception_2a/relu_3x3 -> inception_2a/3x3_bn (in-place)
I1019 15:29:12.025338  4186 net.cpp:141] Setting up inception_2a/relu_3x3
I1019 15:29:12.025346  4186 net.cpp:148] Top shape: 45 128 36 14 (2903040)
I1019 15:29:12.025349  4186 net.cpp:156] Memory required for data: 1897136820
I1019 15:29:12.025352  4186 layer_factory.hpp:77] Creating layer inception_2a/double_3x3_reduce
I1019 15:29:12.025359  4186 net.cpp:91] Creating Layer inception_2a/double_3x3_reduce
I1019 15:29:12.025362  4186 net.cpp:435] inception_2a/double_3x3_reduce <- inception_1b/output_inception_1b/output_0_split_2
I1019 15:29:12.025367  4186 net.cpp:409] inception_2a/double_3x3_reduce -> inception_2a/double_3x3_reduce
I1019 15:29:12.026654  4186 net.cpp:141] Setting up inception_2a/double_3x3_reduce
I1019 15:29:12.026664  4186 net.cpp:148] Top shape: 45 128 36 14 (2903040)
I1019 15:29:12.026667  4186 net.cpp:156] Memory required for data: 1908748980
I1019 15:29:12.026672  4186 layer_factory.hpp:77] Creating layer inception_2a/double_3x3_reduce_bn
I1019 15:29:12.026675  4186 layer_factory.cpp:265] Layer inception_2a/double_3x3_reduce_bn is using CAFFE engine.
I1019 15:29:12.026691  4186 net.cpp:91] Creating Layer inception_2a/double_3x3_reduce_bn
I1019 15:29:12.026695  4186 net.cpp:435] inception_2a/double_3x3_reduce_bn <- inception_2a/double_3x3_reduce
I1019 15:29:12.026700  4186 net.cpp:409] inception_2a/double_3x3_reduce_bn -> inception_2a/double_3x3_reduce_bn
I1019 15:29:12.026876  4186 net.cpp:141] Setting up inception_2a/double_3x3_reduce_bn
I1019 15:29:12.026882  4186 net.cpp:148] Top shape: 45 128 36 14 (2903040)
I1019 15:29:12.026895  4186 net.cpp:156] Memory required for data: 1920361140
I1019 15:29:12.026901  4186 layer_factory.hpp:77] Creating layer inception_2a/relu_double_3x3_reduce
I1019 15:29:12.026906  4186 net.cpp:91] Creating Layer inception_2a/relu_double_3x3_reduce
I1019 15:29:12.026908  4186 net.cpp:435] inception_2a/relu_double_3x3_reduce <- inception_2a/double_3x3_reduce_bn
I1019 15:29:12.026921  4186 net.cpp:396] inception_2a/relu_double_3x3_reduce -> inception_2a/double_3x3_reduce_bn (in-place)
I1019 15:29:12.027508  4186 net.cpp:141] Setting up inception_2a/relu_double_3x3_reduce
I1019 15:29:12.027518  4186 net.cpp:148] Top shape: 45 128 36 14 (2903040)
I1019 15:29:12.027520  4186 net.cpp:156] Memory required for data: 1931973300
I1019 15:29:12.027523  4186 layer_factory.hpp:77] Creating layer inception_2a/double_3x3_1
I1019 15:29:12.027529  4186 net.cpp:91] Creating Layer inception_2a/double_3x3_1
I1019 15:29:12.027534  4186 net.cpp:435] inception_2a/double_3x3_1 <- inception_2a/double_3x3_reduce_bn
I1019 15:29:12.027547  4186 net.cpp:409] inception_2a/double_3x3_1 -> inception_2a/double_3x3_1
I1019 15:29:12.029523  4186 net.cpp:141] Setting up inception_2a/double_3x3_1
I1019 15:29:12.029549  4186 net.cpp:148] Top shape: 45 128 36 14 (2903040)
I1019 15:29:12.029552  4186 net.cpp:156] Memory required for data: 1943585460
I1019 15:29:12.029561  4186 layer_factory.hpp:77] Creating layer inception_2a/double_3x3_1_bn
I1019 15:29:12.029564  4186 layer_factory.cpp:265] Layer inception_2a/double_3x3_1_bn is using CAFFE engine.
I1019 15:29:12.029582  4186 net.cpp:91] Creating Layer inception_2a/double_3x3_1_bn
I1019 15:29:12.029585  4186 net.cpp:435] inception_2a/double_3x3_1_bn <- inception_2a/double_3x3_1
I1019 15:29:12.029592  4186 net.cpp:409] inception_2a/double_3x3_1_bn -> inception_2a/double_3x3_1_bn
I1019 15:29:12.029829  4186 net.cpp:141] Setting up inception_2a/double_3x3_1_bn
I1019 15:29:12.029836  4186 net.cpp:148] Top shape: 45 128 36 14 (2903040)
I1019 15:29:12.029848  4186 net.cpp:156] Memory required for data: 1955197620
I1019 15:29:12.029855  4186 layer_factory.hpp:77] Creating layer inception_2a/relu_double_3x3_1
I1019 15:29:12.029861  4186 net.cpp:91] Creating Layer inception_2a/relu_double_3x3_1
I1019 15:29:12.029865  4186 net.cpp:435] inception_2a/relu_double_3x3_1 <- inception_2a/double_3x3_1_bn
I1019 15:29:12.029870  4186 net.cpp:396] inception_2a/relu_double_3x3_1 -> inception_2a/double_3x3_1_bn (in-place)
I1019 15:29:12.030685  4186 net.cpp:141] Setting up inception_2a/relu_double_3x3_1
I1019 15:29:12.030707  4186 net.cpp:148] Top shape: 45 128 36 14 (2903040)
I1019 15:29:12.030710  4186 net.cpp:156] Memory required for data: 1966809780
I1019 15:29:12.030714  4186 layer_factory.hpp:77] Creating layer inception_2a/double_3x3_2
I1019 15:29:12.030721  4186 net.cpp:91] Creating Layer inception_2a/double_3x3_2
I1019 15:29:12.030725  4186 net.cpp:435] inception_2a/double_3x3_2 <- inception_2a/double_3x3_1_bn
I1019 15:29:12.030740  4186 net.cpp:409] inception_2a/double_3x3_2 -> inception_2a/double_3x3_2
I1019 15:29:12.033120  4186 net.cpp:141] Setting up inception_2a/double_3x3_2
I1019 15:29:12.033131  4186 net.cpp:148] Top shape: 45 128 36 14 (2903040)
I1019 15:29:12.033134  4186 net.cpp:156] Memory required for data: 1978421940
I1019 15:29:12.033140  4186 layer_factory.hpp:77] Creating layer inception_2a/double_3x3_2_bn
I1019 15:29:12.033144  4186 layer_factory.cpp:265] Layer inception_2a/double_3x3_2_bn is using CAFFE engine.
I1019 15:29:12.033149  4186 net.cpp:91] Creating Layer inception_2a/double_3x3_2_bn
I1019 15:29:12.033152  4186 net.cpp:435] inception_2a/double_3x3_2_bn <- inception_2a/double_3x3_2
I1019 15:29:12.033166  4186 net.cpp:409] inception_2a/double_3x3_2_bn -> inception_2a/double_3x3_2_bn
I1019 15:29:12.033337  4186 net.cpp:141] Setting up inception_2a/double_3x3_2_bn
I1019 15:29:12.033344  4186 net.cpp:148] Top shape: 45 128 36 14 (2903040)
I1019 15:29:12.033355  4186 net.cpp:156] Memory required for data: 1990034100
I1019 15:29:12.033361  4186 layer_factory.hpp:77] Creating layer inception_2a/relu_double_3x3_2
I1019 15:29:12.033366  4186 net.cpp:91] Creating Layer inception_2a/relu_double_3x3_2
I1019 15:29:12.033370  4186 net.cpp:435] inception_2a/relu_double_3x3_2 <- inception_2a/double_3x3_2_bn
I1019 15:29:12.033373  4186 net.cpp:396] inception_2a/relu_double_3x3_2 -> inception_2a/double_3x3_2_bn (in-place)
I1019 15:29:12.033507  4186 net.cpp:141] Setting up inception_2a/relu_double_3x3_2
I1019 15:29:12.033514  4186 net.cpp:148] Top shape: 45 128 36 14 (2903040)
I1019 15:29:12.033526  4186 net.cpp:156] Memory required for data: 2001646260
I1019 15:29:12.033529  4186 layer_factory.hpp:77] Creating layer inception_2a/pool
I1019 15:29:12.033535  4186 net.cpp:91] Creating Layer inception_2a/pool
I1019 15:29:12.033538  4186 net.cpp:435] inception_2a/pool <- inception_1b/output_inception_1b/output_0_split_3
I1019 15:29:12.033542  4186 net.cpp:409] inception_2a/pool -> inception_2a/pool
I1019 15:29:12.033684  4186 net.cpp:141] Setting up inception_2a/pool
I1019 15:29:12.033690  4186 net.cpp:148] Top shape: 45 384 36 14 (8709120)
I1019 15:29:12.033702  4186 net.cpp:156] Memory required for data: 2036482740
I1019 15:29:12.033704  4186 layer_factory.hpp:77] Creating layer inception_2a/pool_proj
I1019 15:29:12.033712  4186 net.cpp:91] Creating Layer inception_2a/pool_proj
I1019 15:29:12.033715  4186 net.cpp:435] inception_2a/pool_proj <- inception_2a/pool
I1019 15:29:12.033720  4186 net.cpp:409] inception_2a/pool_proj -> inception_2a/pool_proj
I1019 15:29:12.034979  4186 net.cpp:141] Setting up inception_2a/pool_proj
I1019 15:29:12.034989  4186 net.cpp:148] Top shape: 45 128 36 14 (2903040)
I1019 15:29:12.035002  4186 net.cpp:156] Memory required for data: 2048094900
I1019 15:29:12.035007  4186 layer_factory.hpp:77] Creating layer inception_2a/pool_proj_bn
I1019 15:29:12.035012  4186 layer_factory.cpp:265] Layer inception_2a/pool_proj_bn is using CAFFE engine.
I1019 15:29:12.035015  4186 net.cpp:91] Creating Layer inception_2a/pool_proj_bn
I1019 15:29:12.035019  4186 net.cpp:435] inception_2a/pool_proj_bn <- inception_2a/pool_proj
I1019 15:29:12.035023  4186 net.cpp:409] inception_2a/pool_proj_bn -> inception_2a/pool_proj_bn
I1019 15:29:12.035188  4186 net.cpp:141] Setting up inception_2a/pool_proj_bn
I1019 15:29:12.035193  4186 net.cpp:148] Top shape: 45 128 36 14 (2903040)
I1019 15:29:12.035205  4186 net.cpp:156] Memory required for data: 2059707060
I1019 15:29:12.035217  4186 layer_factory.hpp:77] Creating layer inception_2a/relu_pool_proj
I1019 15:29:12.035221  4186 net.cpp:91] Creating Layer inception_2a/relu_pool_proj
I1019 15:29:12.035224  4186 net.cpp:435] inception_2a/relu_pool_proj <- inception_2a/pool_proj_bn
I1019 15:29:12.035228  4186 net.cpp:396] inception_2a/relu_pool_proj -> inception_2a/pool_proj_bn (in-place)
I1019 15:29:12.035387  4186 net.cpp:141] Setting up inception_2a/relu_pool_proj
I1019 15:29:12.035394  4186 net.cpp:148] Top shape: 45 128 36 14 (2903040)
I1019 15:29:12.035408  4186 net.cpp:156] Memory required for data: 2071319220
I1019 15:29:12.035410  4186 layer_factory.hpp:77] Creating layer inception_2a/output
I1019 15:29:12.035415  4186 net.cpp:91] Creating Layer inception_2a/output
I1019 15:29:12.035428  4186 net.cpp:435] inception_2a/output <- inception_2a/1x1_bn
I1019 15:29:12.035431  4186 net.cpp:435] inception_2a/output <- inception_2a/3x3_bn
I1019 15:29:12.035434  4186 net.cpp:435] inception_2a/output <- inception_2a/double_3x3_2_bn
I1019 15:29:12.035437  4186 net.cpp:435] inception_2a/output <- inception_2a/pool_proj_bn
I1019 15:29:12.035441  4186 net.cpp:409] inception_2a/output -> inception_2a/output
I1019 15:29:12.035464  4186 net.cpp:141] Setting up inception_2a/output
I1019 15:29:12.035482  4186 net.cpp:148] Top shape: 45 512 36 14 (11612160)
I1019 15:29:12.035485  4186 net.cpp:156] Memory required for data: 2117767860
I1019 15:29:12.035487  4186 layer_factory.hpp:77] Creating layer inception_2a/output_inception_2a/output_0_split
I1019 15:29:12.035492  4186 net.cpp:91] Creating Layer inception_2a/output_inception_2a/output_0_split
I1019 15:29:12.035495  4186 net.cpp:435] inception_2a/output_inception_2a/output_0_split <- inception_2a/output
I1019 15:29:12.035500  4186 net.cpp:409] inception_2a/output_inception_2a/output_0_split -> inception_2a/output_inception_2a/output_0_split_0
I1019 15:29:12.035506  4186 net.cpp:409] inception_2a/output_inception_2a/output_0_split -> inception_2a/output_inception_2a/output_0_split_1
I1019 15:29:12.035511  4186 net.cpp:409] inception_2a/output_inception_2a/output_0_split -> inception_2a/output_inception_2a/output_0_split_2
I1019 15:29:12.035562  4186 net.cpp:141] Setting up inception_2a/output_inception_2a/output_0_split
I1019 15:29:12.035567  4186 net.cpp:148] Top shape: 45 512 36 14 (11612160)
I1019 15:29:12.035579  4186 net.cpp:148] Top shape: 45 512 36 14 (11612160)
I1019 15:29:12.035583  4186 net.cpp:148] Top shape: 45 512 36 14 (11612160)
I1019 15:29:12.035584  4186 net.cpp:156] Memory required for data: 2257113780
I1019 15:29:12.035588  4186 layer_factory.hpp:77] Creating layer inception_2b/3x3_reduce
I1019 15:29:12.035604  4186 net.cpp:91] Creating Layer inception_2b/3x3_reduce
I1019 15:29:12.035606  4186 net.cpp:435] inception_2b/3x3_reduce <- inception_2a/output_inception_2a/output_0_split_0
I1019 15:29:12.035610  4186 net.cpp:409] inception_2b/3x3_reduce -> inception_2b/3x3_reduce
I1019 15:29:12.037142  4186 net.cpp:141] Setting up inception_2b/3x3_reduce
I1019 15:29:12.037163  4186 net.cpp:148] Top shape: 45 128 36 14 (2903040)
I1019 15:29:12.037165  4186 net.cpp:156] Memory required for data: 2268725940
I1019 15:29:12.037181  4186 layer_factory.hpp:77] Creating layer inception_2b/3x3_reduce_bn
I1019 15:29:12.037185  4186 layer_factory.cpp:265] Layer inception_2b/3x3_reduce_bn is using CAFFE engine.
I1019 15:29:12.037190  4186 net.cpp:91] Creating Layer inception_2b/3x3_reduce_bn
I1019 15:29:12.037194  4186 net.cpp:435] inception_2b/3x3_reduce_bn <- inception_2b/3x3_reduce
I1019 15:29:12.037207  4186 net.cpp:409] inception_2b/3x3_reduce_bn -> inception_2b/3x3_reduce_bn
I1019 15:29:12.037392  4186 net.cpp:141] Setting up inception_2b/3x3_reduce_bn
I1019 15:29:12.037398  4186 net.cpp:148] Top shape: 45 128 36 14 (2903040)
I1019 15:29:12.037400  4186 net.cpp:156] Memory required for data: 2280338100
I1019 15:29:12.037406  4186 layer_factory.hpp:77] Creating layer inception_2b/relu_3x3_reduce
I1019 15:29:12.037411  4186 net.cpp:91] Creating Layer inception_2b/relu_3x3_reduce
I1019 15:29:12.037413  4186 net.cpp:435] inception_2b/relu_3x3_reduce <- inception_2b/3x3_reduce_bn
I1019 15:29:12.037426  4186 net.cpp:396] inception_2b/relu_3x3_reduce -> inception_2b/3x3_reduce_bn (in-place)
I1019 15:29:12.037561  4186 net.cpp:141] Setting up inception_2b/relu_3x3_reduce
I1019 15:29:12.037567  4186 net.cpp:148] Top shape: 45 128 36 14 (2903040)
I1019 15:29:12.037569  4186 net.cpp:156] Memory required for data: 2291950260
I1019 15:29:12.037572  4186 layer_factory.hpp:77] Creating layer inception_2b/3x3
I1019 15:29:12.037578  4186 net.cpp:91] Creating Layer inception_2b/3x3
I1019 15:29:12.037581  4186 net.cpp:435] inception_2b/3x3 <- inception_2b/3x3_reduce_bn
I1019 15:29:12.037595  4186 net.cpp:409] inception_2b/3x3 -> inception_2b/3x3
I1019 15:29:12.040002  4186 net.cpp:141] Setting up inception_2b/3x3
I1019 15:29:12.040014  4186 net.cpp:148] Top shape: 45 128 18 7 (725760)
I1019 15:29:12.040016  4186 net.cpp:156] Memory required for data: 2294853300
I1019 15:29:12.040021  4186 layer_factory.hpp:77] Creating layer inception_2b/3x3_bn
I1019 15:29:12.040024  4186 layer_factory.cpp:265] Layer inception_2b/3x3_bn is using CAFFE engine.
I1019 15:29:12.040040  4186 net.cpp:91] Creating Layer inception_2b/3x3_bn
I1019 15:29:12.040042  4186 net.cpp:435] inception_2b/3x3_bn <- inception_2b/3x3
I1019 15:29:12.040046  4186 net.cpp:409] inception_2b/3x3_bn -> inception_2b/3x3_bn
I1019 15:29:12.040235  4186 net.cpp:141] Setting up inception_2b/3x3_bn
I1019 15:29:12.040242  4186 net.cpp:148] Top shape: 45 128 18 7 (725760)
I1019 15:29:12.040244  4186 net.cpp:156] Memory required for data: 2297756340
I1019 15:29:12.040251  4186 layer_factory.hpp:77] Creating layer inception_2b/relu_3x3
I1019 15:29:12.040254  4186 net.cpp:91] Creating Layer inception_2b/relu_3x3
I1019 15:29:12.040257  4186 net.cpp:435] inception_2b/relu_3x3 <- inception_2b/3x3_bn
I1019 15:29:12.040271  4186 net.cpp:396] inception_2b/relu_3x3 -> inception_2b/3x3_bn (in-place)
I1019 15:29:12.041066  4186 net.cpp:141] Setting up inception_2b/relu_3x3
I1019 15:29:12.041077  4186 net.cpp:148] Top shape: 45 128 18 7 (725760)
I1019 15:29:12.041090  4186 net.cpp:156] Memory required for data: 2300659380
I1019 15:29:12.041093  4186 layer_factory.hpp:77] Creating layer inception_2b/double_3x3_reduce
I1019 15:29:12.041123  4186 net.cpp:91] Creating Layer inception_2b/double_3x3_reduce
I1019 15:29:12.041127  4186 net.cpp:435] inception_2b/double_3x3_reduce <- inception_2a/output_inception_2a/output_0_split_1
I1019 15:29:12.041133  4186 net.cpp:409] inception_2b/double_3x3_reduce -> inception_2b/double_3x3_reduce
I1019 15:29:12.043401  4186 net.cpp:141] Setting up inception_2b/double_3x3_reduce
I1019 15:29:12.043422  4186 net.cpp:148] Top shape: 45 128 36 14 (2903040)
I1019 15:29:12.043426  4186 net.cpp:156] Memory required for data: 2312271540
I1019 15:29:12.043431  4186 layer_factory.hpp:77] Creating layer inception_2b/double_3x3_reduce_bn
I1019 15:29:12.043433  4186 layer_factory.cpp:265] Layer inception_2b/double_3x3_reduce_bn is using CAFFE engine.
I1019 15:29:12.043448  4186 net.cpp:91] Creating Layer inception_2b/double_3x3_reduce_bn
I1019 15:29:12.043452  4186 net.cpp:435] inception_2b/double_3x3_reduce_bn <- inception_2b/double_3x3_reduce
I1019 15:29:12.043457  4186 net.cpp:409] inception_2b/double_3x3_reduce_bn -> inception_2b/double_3x3_reduce_bn
I1019 15:29:12.043632  4186 net.cpp:141] Setting up inception_2b/double_3x3_reduce_bn
I1019 15:29:12.043637  4186 net.cpp:148] Top shape: 45 128 36 14 (2903040)
I1019 15:29:12.043649  4186 net.cpp:156] Memory required for data: 2323883700
I1019 15:29:12.043655  4186 layer_factory.hpp:77] Creating layer inception_2b/relu_double_3x3_reduce
I1019 15:29:12.043660  4186 net.cpp:91] Creating Layer inception_2b/relu_double_3x3_reduce
I1019 15:29:12.043663  4186 net.cpp:435] inception_2b/relu_double_3x3_reduce <- inception_2b/double_3x3_reduce_bn
I1019 15:29:12.043676  4186 net.cpp:396] inception_2b/relu_double_3x3_reduce -> inception_2b/double_3x3_reduce_bn (in-place)
I1019 15:29:12.043812  4186 net.cpp:141] Setting up inception_2b/relu_double_3x3_reduce
I1019 15:29:12.043819  4186 net.cpp:148] Top shape: 45 128 36 14 (2903040)
I1019 15:29:12.043830  4186 net.cpp:156] Memory required for data: 2335495860
I1019 15:29:12.043833  4186 layer_factory.hpp:77] Creating layer inception_2b/double_3x3_1
I1019 15:29:12.043840  4186 net.cpp:91] Creating Layer inception_2b/double_3x3_1
I1019 15:29:12.043853  4186 net.cpp:435] inception_2b/double_3x3_1 <- inception_2b/double_3x3_reduce_bn
I1019 15:29:12.043857  4186 net.cpp:409] inception_2b/double_3x3_1 -> inception_2b/double_3x3_1
I1019 15:29:12.046303  4186 net.cpp:141] Setting up inception_2b/double_3x3_1
I1019 15:29:12.046329  4186 net.cpp:148] Top shape: 45 128 36 14 (2903040)
I1019 15:29:12.046332  4186 net.cpp:156] Memory required for data: 2347108020
I1019 15:29:12.046339  4186 layer_factory.hpp:77] Creating layer inception_2b/double_3x3_1_bn
I1019 15:29:12.046344  4186 layer_factory.cpp:265] Layer inception_2b/double_3x3_1_bn is using CAFFE engine.
I1019 15:29:12.046361  4186 net.cpp:91] Creating Layer inception_2b/double_3x3_1_bn
I1019 15:29:12.046365  4186 net.cpp:435] inception_2b/double_3x3_1_bn <- inception_2b/double_3x3_1
I1019 15:29:12.046372  4186 net.cpp:409] inception_2b/double_3x3_1_bn -> inception_2b/double_3x3_1_bn
I1019 15:29:12.046609  4186 net.cpp:141] Setting up inception_2b/double_3x3_1_bn
I1019 15:29:12.046617  4186 net.cpp:148] Top shape: 45 128 36 14 (2903040)
I1019 15:29:12.046627  4186 net.cpp:156] Memory required for data: 2358720180
I1019 15:29:12.046634  4186 layer_factory.hpp:77] Creating layer inception_2b/relu_double_3x3_1
I1019 15:29:12.046639  4186 net.cpp:91] Creating Layer inception_2b/relu_double_3x3_1
I1019 15:29:12.046653  4186 net.cpp:435] inception_2b/relu_double_3x3_1 <- inception_2b/double_3x3_1_bn
I1019 15:29:12.046655  4186 net.cpp:396] inception_2b/relu_double_3x3_1 -> inception_2b/double_3x3_1_bn (in-place)
I1019 15:29:12.046808  4186 net.cpp:141] Setting up inception_2b/relu_double_3x3_1
I1019 15:29:12.046824  4186 net.cpp:148] Top shape: 45 128 36 14 (2903040)
I1019 15:29:12.046836  4186 net.cpp:156] Memory required for data: 2370332340
I1019 15:29:12.046839  4186 layer_factory.hpp:77] Creating layer inception_2b/double_3x3_2
I1019 15:29:12.046847  4186 net.cpp:91] Creating Layer inception_2b/double_3x3_2
I1019 15:29:12.046850  4186 net.cpp:435] inception_2b/double_3x3_2 <- inception_2b/double_3x3_1_bn
I1019 15:29:12.046855  4186 net.cpp:409] inception_2b/double_3x3_2 -> inception_2b/double_3x3_2
I1019 15:29:12.048810  4186 net.cpp:141] Setting up inception_2b/double_3x3_2
I1019 15:29:12.048821  4186 net.cpp:148] Top shape: 45 128 18 7 (725760)
I1019 15:29:12.048825  4186 net.cpp:156] Memory required for data: 2373235380
I1019 15:29:12.048830  4186 layer_factory.hpp:77] Creating layer inception_2b/double_3x3_2_bn
I1019 15:29:12.048832  4186 layer_factory.cpp:265] Layer inception_2b/double_3x3_2_bn is using CAFFE engine.
I1019 15:29:12.048837  4186 net.cpp:91] Creating Layer inception_2b/double_3x3_2_bn
I1019 15:29:12.048841  4186 net.cpp:435] inception_2b/double_3x3_2_bn <- inception_2b/double_3x3_2
I1019 15:29:12.048856  4186 net.cpp:409] inception_2b/double_3x3_2_bn -> inception_2b/double_3x3_2_bn
I1019 15:29:12.049016  4186 net.cpp:141] Setting up inception_2b/double_3x3_2_bn
I1019 15:29:12.049022  4186 net.cpp:148] Top shape: 45 128 18 7 (725760)
I1019 15:29:12.049024  4186 net.cpp:156] Memory required for data: 2376138420
I1019 15:29:12.049031  4186 layer_factory.hpp:77] Creating layer inception_2b/relu_double_3x3_2
I1019 15:29:12.049036  4186 net.cpp:91] Creating Layer inception_2b/relu_double_3x3_2
I1019 15:29:12.049037  4186 net.cpp:435] inception_2b/relu_double_3x3_2 <- inception_2b/double_3x3_2_bn
I1019 15:29:12.049041  4186 net.cpp:396] inception_2b/relu_double_3x3_2 -> inception_2b/double_3x3_2_bn (in-place)
I1019 15:29:12.049175  4186 net.cpp:141] Setting up inception_2b/relu_double_3x3_2
I1019 15:29:12.049181  4186 net.cpp:148] Top shape: 45 128 18 7 (725760)
I1019 15:29:12.049183  4186 net.cpp:156] Memory required for data: 2379041460
I1019 15:29:12.049186  4186 layer_factory.hpp:77] Creating layer inception_2b/pool
I1019 15:29:12.049191  4186 net.cpp:91] Creating Layer inception_2b/pool
I1019 15:29:12.049194  4186 net.cpp:435] inception_2b/pool <- inception_2a/output_inception_2a/output_0_split_2
I1019 15:29:12.049208  4186 net.cpp:409] inception_2b/pool -> inception_2b/pool
I1019 15:29:12.049252  4186 net.cpp:141] Setting up inception_2b/pool
I1019 15:29:12.049257  4186 net.cpp:148] Top shape: 45 512 18 7 (2903040)
I1019 15:29:12.049258  4186 net.cpp:156] Memory required for data: 2390653620
I1019 15:29:12.049262  4186 layer_factory.hpp:77] Creating layer inception_2b/output
I1019 15:29:12.049265  4186 net.cpp:91] Creating Layer inception_2b/output
I1019 15:29:12.049268  4186 net.cpp:435] inception_2b/output <- inception_2b/3x3_bn
I1019 15:29:12.049271  4186 net.cpp:435] inception_2b/output <- inception_2b/double_3x3_2_bn
I1019 15:29:12.049284  4186 net.cpp:435] inception_2b/output <- inception_2b/pool
I1019 15:29:12.049288  4186 net.cpp:409] inception_2b/output -> inception_2b/output
I1019 15:29:12.049304  4186 net.cpp:141] Setting up inception_2b/output
I1019 15:29:12.049309  4186 net.cpp:148] Top shape: 45 768 18 7 (4354560)
I1019 15:29:12.049310  4186 net.cpp:156] Memory required for data: 2408071860
I1019 15:29:12.049314  4186 layer_factory.hpp:77] Creating layer inception_2b/output_inception_2b/output_0_split
I1019 15:29:12.049319  4186 net.cpp:91] Creating Layer inception_2b/output_inception_2b/output_0_split
I1019 15:29:12.049320  4186 net.cpp:435] inception_2b/output_inception_2b/output_0_split <- inception_2b/output
I1019 15:29:12.049324  4186 net.cpp:409] inception_2b/output_inception_2b/output_0_split -> inception_2b/output_inception_2b/output_0_split_0
I1019 15:29:12.049329  4186 net.cpp:409] inception_2b/output_inception_2b/output_0_split -> inception_2b/output_inception_2b/output_0_split_1
I1019 15:29:12.049332  4186 net.cpp:409] inception_2b/output_inception_2b/output_0_split -> inception_2b/output_inception_2b/output_0_split_2
I1019 15:29:12.049336  4186 net.cpp:409] inception_2b/output_inception_2b/output_0_split -> inception_2b/output_inception_2b/output_0_split_3
I1019 15:29:12.049384  4186 net.cpp:141] Setting up inception_2b/output_inception_2b/output_0_split
I1019 15:29:12.049389  4186 net.cpp:148] Top shape: 45 768 18 7 (4354560)
I1019 15:29:12.049402  4186 net.cpp:148] Top shape: 45 768 18 7 (4354560)
I1019 15:29:12.049405  4186 net.cpp:148] Top shape: 45 768 18 7 (4354560)
I1019 15:29:12.049408  4186 net.cpp:148] Top shape: 45 768 18 7 (4354560)
I1019 15:29:12.049410  4186 net.cpp:156] Memory required for data: 2477744820
I1019 15:29:12.049422  4186 layer_factory.hpp:77] Creating layer inception_3a/1x1
I1019 15:29:12.049427  4186 net.cpp:91] Creating Layer inception_3a/1x1
I1019 15:29:12.049440  4186 net.cpp:435] inception_3a/1x1 <- inception_2b/output_inception_2b/output_0_split_0
I1019 15:29:12.049444  4186 net.cpp:409] inception_3a/1x1 -> inception_3a/1x1
I1019 15:29:12.052368  4186 net.cpp:141] Setting up inception_3a/1x1
I1019 15:29:12.052381  4186 net.cpp:148] Top shape: 45 256 18 7 (1451520)
I1019 15:29:12.052383  4186 net.cpp:156] Memory required for data: 2483550900
I1019 15:29:12.052388  4186 layer_factory.hpp:77] Creating layer inception_3a/1x1_bn
I1019 15:29:12.052392  4186 layer_factory.cpp:265] Layer inception_3a/1x1_bn is using CAFFE engine.
I1019 15:29:12.052397  4186 net.cpp:91] Creating Layer inception_3a/1x1_bn
I1019 15:29:12.052400  4186 net.cpp:435] inception_3a/1x1_bn <- inception_3a/1x1
I1019 15:29:12.052404  4186 net.cpp:409] inception_3a/1x1_bn -> inception_3a/1x1_bn
I1019 15:29:12.052558  4186 net.cpp:141] Setting up inception_3a/1x1_bn
I1019 15:29:12.052564  4186 net.cpp:148] Top shape: 45 256 18 7 (1451520)
I1019 15:29:12.052567  4186 net.cpp:156] Memory required for data: 2489356980
I1019 15:29:12.052572  4186 layer_factory.hpp:77] Creating layer inception_3a/relu_1x1
I1019 15:29:12.052577  4186 net.cpp:91] Creating Layer inception_3a/relu_1x1
I1019 15:29:12.052579  4186 net.cpp:435] inception_3a/relu_1x1 <- inception_3a/1x1_bn
I1019 15:29:12.052582  4186 net.cpp:396] inception_3a/relu_1x1 -> inception_3a/1x1_bn (in-place)
I1019 15:29:12.052700  4186 net.cpp:141] Setting up inception_3a/relu_1x1
I1019 15:29:12.052707  4186 net.cpp:148] Top shape: 45 256 18 7 (1451520)
I1019 15:29:12.052709  4186 net.cpp:156] Memory required for data: 2495163060
I1019 15:29:12.052712  4186 layer_factory.hpp:77] Creating layer inception_3a/3x3_reduce
I1019 15:29:12.052718  4186 net.cpp:91] Creating Layer inception_3a/3x3_reduce
I1019 15:29:12.052721  4186 net.cpp:435] inception_3a/3x3_reduce <- inception_2b/output_inception_2b/output_0_split_1
I1019 15:29:12.052726  4186 net.cpp:409] inception_3a/3x3_reduce -> inception_3a/3x3_reduce
I1019 15:29:12.054777  4186 net.cpp:141] Setting up inception_3a/3x3_reduce
I1019 15:29:12.054788  4186 net.cpp:148] Top shape: 45 256 18 7 (1451520)
I1019 15:29:12.054791  4186 net.cpp:156] Memory required for data: 2500969140
I1019 15:29:12.054796  4186 layer_factory.hpp:77] Creating layer inception_3a/3x3_reduce_bn
I1019 15:29:12.054800  4186 layer_factory.cpp:265] Layer inception_3a/3x3_reduce_bn is using CAFFE engine.
I1019 15:29:12.054805  4186 net.cpp:91] Creating Layer inception_3a/3x3_reduce_bn
I1019 15:29:12.054807  4186 net.cpp:435] inception_3a/3x3_reduce_bn <- inception_3a/3x3_reduce
I1019 15:29:12.054812  4186 net.cpp:409] inception_3a/3x3_reduce_bn -> inception_3a/3x3_reduce_bn
I1019 15:29:12.054966  4186 net.cpp:141] Setting up inception_3a/3x3_reduce_bn
I1019 15:29:12.054971  4186 net.cpp:148] Top shape: 45 256 18 7 (1451520)
I1019 15:29:12.054975  4186 net.cpp:156] Memory required for data: 2506775220
I1019 15:29:12.054980  4186 layer_factory.hpp:77] Creating layer inception_3a/relu_3x3_reduce
I1019 15:29:12.054985  4186 net.cpp:91] Creating Layer inception_3a/relu_3x3_reduce
I1019 15:29:12.054987  4186 net.cpp:435] inception_3a/relu_3x3_reduce <- inception_3a/3x3_reduce_bn
I1019 15:29:12.054991  4186 net.cpp:396] inception_3a/relu_3x3_reduce -> inception_3a/3x3_reduce_bn (in-place)
I1019 15:29:12.055107  4186 net.cpp:141] Setting up inception_3a/relu_3x3_reduce
I1019 15:29:12.055114  4186 net.cpp:148] Top shape: 45 256 18 7 (1451520)
I1019 15:29:12.055116  4186 net.cpp:156] Memory required for data: 2512581300
I1019 15:29:12.055119  4186 layer_factory.hpp:77] Creating layer inception_3a/3x3
I1019 15:29:12.055125  4186 net.cpp:91] Creating Layer inception_3a/3x3
I1019 15:29:12.055128  4186 net.cpp:435] inception_3a/3x3 <- inception_3a/3x3_reduce_bn
I1019 15:29:12.055133  4186 net.cpp:409] inception_3a/3x3 -> inception_3a/3x3
I1019 15:29:12.060585  4186 net.cpp:141] Setting up inception_3a/3x3
I1019 15:29:12.060600  4186 net.cpp:148] Top shape: 45 256 18 7 (1451520)
I1019 15:29:12.060602  4186 net.cpp:156] Memory required for data: 2518387380
I1019 15:29:12.060609  4186 layer_factory.hpp:77] Creating layer inception_3a/3x3_bn
I1019 15:29:12.060613  4186 layer_factory.cpp:265] Layer inception_3a/3x3_bn is using CAFFE engine.
I1019 15:29:12.060618  4186 net.cpp:91] Creating Layer inception_3a/3x3_bn
I1019 15:29:12.060622  4186 net.cpp:435] inception_3a/3x3_bn <- inception_3a/3x3
I1019 15:29:12.060627  4186 net.cpp:409] inception_3a/3x3_bn -> inception_3a/3x3_bn
I1019 15:29:12.060796  4186 net.cpp:141] Setting up inception_3a/3x3_bn
I1019 15:29:12.060801  4186 net.cpp:148] Top shape: 45 256 18 7 (1451520)
I1019 15:29:12.060803  4186 net.cpp:156] Memory required for data: 2524193460
I1019 15:29:12.060809  4186 layer_factory.hpp:77] Creating layer inception_3a/relu_3x3
I1019 15:29:12.060814  4186 net.cpp:91] Creating Layer inception_3a/relu_3x3
I1019 15:29:12.060817  4186 net.cpp:435] inception_3a/relu_3x3 <- inception_3a/3x3_bn
I1019 15:29:12.060820  4186 net.cpp:396] inception_3a/relu_3x3 -> inception_3a/3x3_bn (in-place)
I1019 15:29:12.061666  4186 net.cpp:141] Setting up inception_3a/relu_3x3
I1019 15:29:12.061678  4186 net.cpp:148] Top shape: 45 256 18 7 (1451520)
I1019 15:29:12.061681  4186 net.cpp:156] Memory required for data: 2529999540
I1019 15:29:12.061684  4186 layer_factory.hpp:77] Creating layer inception_3a/double_3x3_reduce
I1019 15:29:12.061693  4186 net.cpp:91] Creating Layer inception_3a/double_3x3_reduce
I1019 15:29:12.061698  4186 net.cpp:435] inception_3a/double_3x3_reduce <- inception_2b/output_inception_2b/output_0_split_2
I1019 15:29:12.061703  4186 net.cpp:409] inception_3a/double_3x3_reduce -> inception_3a/double_3x3_reduce
I1019 15:29:12.064731  4186 net.cpp:141] Setting up inception_3a/double_3x3_reduce
I1019 15:29:12.064748  4186 net.cpp:148] Top shape: 45 256 18 7 (1451520)
I1019 15:29:12.064750  4186 net.cpp:156] Memory required for data: 2535805620
I1019 15:29:12.064756  4186 layer_factory.hpp:77] Creating layer inception_3a/double_3x3_reduce_bn
I1019 15:29:12.064761  4186 layer_factory.cpp:265] Layer inception_3a/double_3x3_reduce_bn is using CAFFE engine.
I1019 15:29:12.064766  4186 net.cpp:91] Creating Layer inception_3a/double_3x3_reduce_bn
I1019 15:29:12.064780  4186 net.cpp:435] inception_3a/double_3x3_reduce_bn <- inception_3a/double_3x3_reduce
I1019 15:29:12.064785  4186 net.cpp:409] inception_3a/double_3x3_reduce_bn -> inception_3a/double_3x3_reduce_bn
I1019 15:29:12.064956  4186 net.cpp:141] Setting up inception_3a/double_3x3_reduce_bn
I1019 15:29:12.064962  4186 net.cpp:148] Top shape: 45 256 18 7 (1451520)
I1019 15:29:12.064965  4186 net.cpp:156] Memory required for data: 2541611700
I1019 15:29:12.064970  4186 layer_factory.hpp:77] Creating layer inception_3a/relu_double_3x3_reduce
I1019 15:29:12.064976  4186 net.cpp:91] Creating Layer inception_3a/relu_double_3x3_reduce
I1019 15:29:12.064978  4186 net.cpp:435] inception_3a/relu_double_3x3_reduce <- inception_3a/double_3x3_reduce_bn
I1019 15:29:12.064982  4186 net.cpp:396] inception_3a/relu_double_3x3_reduce -> inception_3a/double_3x3_reduce_bn (in-place)
I1019 15:29:12.065120  4186 net.cpp:141] Setting up inception_3a/relu_double_3x3_reduce
I1019 15:29:12.065127  4186 net.cpp:148] Top shape: 45 256 18 7 (1451520)
I1019 15:29:12.065129  4186 net.cpp:156] Memory required for data: 2547417780
I1019 15:29:12.065131  4186 layer_factory.hpp:77] Creating layer inception_3a/double_3x3_1
I1019 15:29:12.065138  4186 net.cpp:91] Creating Layer inception_3a/double_3x3_1
I1019 15:29:12.065141  4186 net.cpp:435] inception_3a/double_3x3_1 <- inception_3a/double_3x3_reduce_bn
I1019 15:29:12.065145  4186 net.cpp:409] inception_3a/double_3x3_1 -> inception_3a/double_3x3_1
I1019 15:29:12.071318  4186 net.cpp:141] Setting up inception_3a/double_3x3_1
I1019 15:29:12.071336  4186 net.cpp:148] Top shape: 45 256 18 7 (1451520)
I1019 15:29:12.071338  4186 net.cpp:156] Memory required for data: 2553223860
I1019 15:29:12.071346  4186 layer_factory.hpp:77] Creating layer inception_3a/double_3x3_1_bn
I1019 15:29:12.071350  4186 layer_factory.cpp:265] Layer inception_3a/double_3x3_1_bn is using CAFFE engine.
I1019 15:29:12.071357  4186 net.cpp:91] Creating Layer inception_3a/double_3x3_1_bn
I1019 15:29:12.071370  4186 net.cpp:435] inception_3a/double_3x3_1_bn <- inception_3a/double_3x3_1
I1019 15:29:12.071377  4186 net.cpp:409] inception_3a/double_3x3_1_bn -> inception_3a/double_3x3_1_bn
I1019 15:29:12.071552  4186 net.cpp:141] Setting up inception_3a/double_3x3_1_bn
I1019 15:29:12.071557  4186 net.cpp:148] Top shape: 45 256 18 7 (1451520)
I1019 15:29:12.071559  4186 net.cpp:156] Memory required for data: 2559029940
I1019 15:29:12.071566  4186 layer_factory.hpp:77] Creating layer inception_3a/relu_double_3x3_1
I1019 15:29:12.071571  4186 net.cpp:91] Creating Layer inception_3a/relu_double_3x3_1
I1019 15:29:12.071574  4186 net.cpp:435] inception_3a/relu_double_3x3_1 <- inception_3a/double_3x3_1_bn
I1019 15:29:12.071588  4186 net.cpp:396] inception_3a/relu_double_3x3_1 -> inception_3a/double_3x3_1_bn (in-place)
I1019 15:29:12.071723  4186 net.cpp:141] Setting up inception_3a/relu_double_3x3_1
I1019 15:29:12.071730  4186 net.cpp:148] Top shape: 45 256 18 7 (1451520)
I1019 15:29:12.071732  4186 net.cpp:156] Memory required for data: 2564836020
I1019 15:29:12.071735  4186 layer_factory.hpp:77] Creating layer inception_3a/double_3x3_2
I1019 15:29:12.071743  4186 net.cpp:91] Creating Layer inception_3a/double_3x3_2
I1019 15:29:12.071745  4186 net.cpp:435] inception_3a/double_3x3_2 <- inception_3a/double_3x3_1_bn
I1019 15:29:12.071760  4186 net.cpp:409] inception_3a/double_3x3_2 -> inception_3a/double_3x3_2
I1019 15:29:12.077335  4186 net.cpp:141] Setting up inception_3a/double_3x3_2
I1019 15:29:12.077352  4186 net.cpp:148] Top shape: 45 256 18 7 (1451520)
I1019 15:29:12.077354  4186 net.cpp:156] Memory required for data: 2570642100
I1019 15:29:12.077361  4186 layer_factory.hpp:77] Creating layer inception_3a/double_3x3_2_bn
I1019 15:29:12.077365  4186 layer_factory.cpp:265] Layer inception_3a/double_3x3_2_bn is using CAFFE engine.
I1019 15:29:12.077371  4186 net.cpp:91] Creating Layer inception_3a/double_3x3_2_bn
I1019 15:29:12.077375  4186 net.cpp:435] inception_3a/double_3x3_2_bn <- inception_3a/double_3x3_2
I1019 15:29:12.077389  4186 net.cpp:409] inception_3a/double_3x3_2_bn -> inception_3a/double_3x3_2_bn
I1019 15:29:12.077591  4186 net.cpp:141] Setting up inception_3a/double_3x3_2_bn
I1019 15:29:12.077597  4186 net.cpp:148] Top shape: 45 256 18 7 (1451520)
I1019 15:29:12.077610  4186 net.cpp:156] Memory required for data: 2576448180
I1019 15:29:12.077615  4186 layer_factory.hpp:77] Creating layer inception_3a/relu_double_3x3_2
I1019 15:29:12.077630  4186 net.cpp:91] Creating Layer inception_3a/relu_double_3x3_2
I1019 15:29:12.077632  4186 net.cpp:435] inception_3a/relu_double_3x3_2 <- inception_3a/double_3x3_2_bn
I1019 15:29:12.077636  4186 net.cpp:396] inception_3a/relu_double_3x3_2 -> inception_3a/double_3x3_2_bn (in-place)
I1019 15:29:12.077785  4186 net.cpp:141] Setting up inception_3a/relu_double_3x3_2
I1019 15:29:12.077791  4186 net.cpp:148] Top shape: 45 256 18 7 (1451520)
I1019 15:29:12.077802  4186 net.cpp:156] Memory required for data: 2582254260
I1019 15:29:12.077805  4186 layer_factory.hpp:77] Creating layer inception_3a/pool
I1019 15:29:12.077811  4186 net.cpp:91] Creating Layer inception_3a/pool
I1019 15:29:12.077824  4186 net.cpp:435] inception_3a/pool <- inception_2b/output_inception_2b/output_0_split_3
I1019 15:29:12.077828  4186 net.cpp:409] inception_3a/pool -> inception_3a/pool
I1019 15:29:12.077982  4186 net.cpp:141] Setting up inception_3a/pool
I1019 15:29:12.077999  4186 net.cpp:148] Top shape: 45 768 18 7 (4354560)
I1019 15:29:12.078012  4186 net.cpp:156] Memory required for data: 2599672500
I1019 15:29:12.078014  4186 layer_factory.hpp:77] Creating layer inception_3a/pool_proj
I1019 15:29:12.078023  4186 net.cpp:91] Creating Layer inception_3a/pool_proj
I1019 15:29:12.078027  4186 net.cpp:435] inception_3a/pool_proj <- inception_3a/pool
I1019 15:29:12.078030  4186 net.cpp:409] inception_3a/pool_proj -> inception_3a/pool_proj
I1019 15:29:12.080313  4186 net.cpp:141] Setting up inception_3a/pool_proj
I1019 15:29:12.080338  4186 net.cpp:148] Top shape: 45 256 18 7 (1451520)
I1019 15:29:12.080341  4186 net.cpp:156] Memory required for data: 2605478580
I1019 15:29:12.080349  4186 layer_factory.hpp:77] Creating layer inception_3a/pool_proj_bn
I1019 15:29:12.080353  4186 layer_factory.cpp:265] Layer inception_3a/pool_proj_bn is using CAFFE engine.
I1019 15:29:12.080369  4186 net.cpp:91] Creating Layer inception_3a/pool_proj_bn
I1019 15:29:12.080374  4186 net.cpp:435] inception_3a/pool_proj_bn <- inception_3a/pool_proj
I1019 15:29:12.080380  4186 net.cpp:409] inception_3a/pool_proj_bn -> inception_3a/pool_proj_bn
I1019 15:29:12.080564  4186 net.cpp:141] Setting up inception_3a/pool_proj_bn
I1019 15:29:12.080703  4186 net.cpp:148] Top shape: 45 256 18 7 (1451520)
I1019 15:29:12.080711  4186 net.cpp:156] Memory required for data: 2611284660
I1019 15:29:12.080718  4186 layer_factory.hpp:77] Creating layer inception_3a/relu_pool_proj
I1019 15:29:12.080724  4186 net.cpp:91] Creating Layer inception_3a/relu_pool_proj
I1019 15:29:12.080727  4186 net.cpp:435] inception_3a/relu_pool_proj <- inception_3a/pool_proj_bn
I1019 15:29:12.080730  4186 net.cpp:396] inception_3a/relu_pool_proj -> inception_3a/pool_proj_bn (in-place)
I1019 15:29:12.081418  4186 net.cpp:141] Setting up inception_3a/relu_pool_proj
I1019 15:29:12.081429  4186 net.cpp:148] Top shape: 45 256 18 7 (1451520)
I1019 15:29:12.081432  4186 net.cpp:156] Memory required for data: 2617090740
I1019 15:29:12.081434  4186 layer_factory.hpp:77] Creating layer inception_3a/output
I1019 15:29:12.081439  4186 net.cpp:91] Creating Layer inception_3a/output
I1019 15:29:12.081442  4186 net.cpp:435] inception_3a/output <- inception_3a/1x1_bn
I1019 15:29:12.081446  4186 net.cpp:435] inception_3a/output <- inception_3a/3x3_bn
I1019 15:29:12.081450  4186 net.cpp:435] inception_3a/output <- inception_3a/double_3x3_2_bn
I1019 15:29:12.081462  4186 net.cpp:435] inception_3a/output <- inception_3a/pool_proj_bn
I1019 15:29:12.081466  4186 net.cpp:409] inception_3a/output -> inception_3a/output
I1019 15:29:12.081495  4186 net.cpp:141] Setting up inception_3a/output
I1019 15:29:12.081499  4186 net.cpp:148] Top shape: 45 1024 18 7 (5806080)
I1019 15:29:12.081502  4186 net.cpp:156] Memory required for data: 2640315060
I1019 15:29:12.081513  4186 layer_factory.hpp:77] Creating layer inception_3a/output_inception_3a/output_0_split
I1019 15:29:12.081518  4186 net.cpp:91] Creating Layer inception_3a/output_inception_3a/output_0_split
I1019 15:29:12.081521  4186 net.cpp:435] inception_3a/output_inception_3a/output_0_split <- inception_3a/output
I1019 15:29:12.081533  4186 net.cpp:409] inception_3a/output_inception_3a/output_0_split -> inception_3a/output_inception_3a/output_0_split_0
I1019 15:29:12.081538  4186 net.cpp:409] inception_3a/output_inception_3a/output_0_split -> inception_3a/output_inception_3a/output_0_split_1
I1019 15:29:12.081542  4186 net.cpp:409] inception_3a/output_inception_3a/output_0_split -> inception_3a/output_inception_3a/output_0_split_2
I1019 15:29:12.081586  4186 net.cpp:141] Setting up inception_3a/output_inception_3a/output_0_split
I1019 15:29:12.081590  4186 net.cpp:148] Top shape: 45 1024 18 7 (5806080)
I1019 15:29:12.081593  4186 net.cpp:148] Top shape: 45 1024 18 7 (5806080)
I1019 15:29:12.081595  4186 net.cpp:148] Top shape: 45 1024 18 7 (5806080)
I1019 15:29:12.081598  4186 net.cpp:156] Memory required for data: 2709988020
I1019 15:29:12.081600  4186 layer_factory.hpp:77] Creating layer inception_3b/3x3_reduce
I1019 15:29:12.081616  4186 net.cpp:91] Creating Layer inception_3b/3x3_reduce
I1019 15:29:12.081619  4186 net.cpp:435] inception_3b/3x3_reduce <- inception_3a/output_inception_3a/output_0_split_0
I1019 15:29:12.081624  4186 net.cpp:409] inception_3b/3x3_reduce -> inception_3b/3x3_reduce
I1019 15:29:12.084177  4186 net.cpp:141] Setting up inception_3b/3x3_reduce
I1019 15:29:12.084188  4186 net.cpp:148] Top shape: 45 256 18 7 (1451520)
I1019 15:29:12.084192  4186 net.cpp:156] Memory required for data: 2715794100
I1019 15:29:12.084197  4186 layer_factory.hpp:77] Creating layer inception_3b/3x3_reduce_bn
I1019 15:29:12.084200  4186 layer_factory.cpp:265] Layer inception_3b/3x3_reduce_bn is using CAFFE engine.
I1019 15:29:12.084205  4186 net.cpp:91] Creating Layer inception_3b/3x3_reduce_bn
I1019 15:29:12.084208  4186 net.cpp:435] inception_3b/3x3_reduce_bn <- inception_3b/3x3_reduce
I1019 15:29:12.084223  4186 net.cpp:409] inception_3b/3x3_reduce_bn -> inception_3b/3x3_reduce_bn
I1019 15:29:12.084390  4186 net.cpp:141] Setting up inception_3b/3x3_reduce_bn
I1019 15:29:12.084395  4186 net.cpp:148] Top shape: 45 256 18 7 (1451520)
I1019 15:29:12.084398  4186 net.cpp:156] Memory required for data: 2721600180
I1019 15:29:12.084403  4186 layer_factory.hpp:77] Creating layer inception_3b/relu_3x3_reduce
I1019 15:29:12.084408  4186 net.cpp:91] Creating Layer inception_3b/relu_3x3_reduce
I1019 15:29:12.084411  4186 net.cpp:435] inception_3b/relu_3x3_reduce <- inception_3b/3x3_reduce_bn
I1019 15:29:12.084414  4186 net.cpp:396] inception_3b/relu_3x3_reduce -> inception_3b/3x3_reduce_bn (in-place)
I1019 15:29:12.085021  4186 net.cpp:141] Setting up inception_3b/relu_3x3_reduce
I1019 15:29:12.085031  4186 net.cpp:148] Top shape: 45 256 18 7 (1451520)
I1019 15:29:12.085033  4186 net.cpp:156] Memory required for data: 2727406260
I1019 15:29:12.085036  4186 layer_factory.hpp:77] Creating layer inception_3b/3x3
I1019 15:29:12.085042  4186 net.cpp:91] Creating Layer inception_3b/3x3
I1019 15:29:12.085045  4186 net.cpp:435] inception_3b/3x3 <- inception_3b/3x3_reduce_bn
I1019 15:29:12.085050  4186 net.cpp:409] inception_3b/3x3 -> inception_3b/3x3
I1019 15:29:12.090023  4186 net.cpp:141] Setting up inception_3b/3x3
I1019 15:29:12.090051  4186 net.cpp:148] Top shape: 45 256 9 4 (414720)
I1019 15:29:12.090054  4186 net.cpp:156] Memory required for data: 2729065140
I1019 15:29:12.090061  4186 layer_factory.hpp:77] Creating layer inception_3b/3x3_bn
I1019 15:29:12.090065  4186 layer_factory.cpp:265] Layer inception_3b/3x3_bn is using CAFFE engine.
I1019 15:29:12.090081  4186 net.cpp:91] Creating Layer inception_3b/3x3_bn
I1019 15:29:12.090085  4186 net.cpp:435] inception_3b/3x3_bn <- inception_3b/3x3
I1019 15:29:12.090091  4186 net.cpp:409] inception_3b/3x3_bn -> inception_3b/3x3_bn
I1019 15:29:12.090284  4186 net.cpp:141] Setting up inception_3b/3x3_bn
I1019 15:29:12.090289  4186 net.cpp:148] Top shape: 45 256 9 4 (414720)
I1019 15:29:12.090292  4186 net.cpp:156] Memory required for data: 2730724020
I1019 15:29:12.090297  4186 layer_factory.hpp:77] Creating layer inception_3b/relu_3x3
I1019 15:29:12.090302  4186 net.cpp:91] Creating Layer inception_3b/relu_3x3
I1019 15:29:12.090304  4186 net.cpp:435] inception_3b/relu_3x3 <- inception_3b/3x3_bn
I1019 15:29:12.090317  4186 net.cpp:396] inception_3b/relu_3x3 -> inception_3b/3x3_bn (in-place)
I1019 15:29:12.090543  4186 net.cpp:141] Setting up inception_3b/relu_3x3
I1019 15:29:12.090553  4186 net.cpp:148] Top shape: 45 256 9 4 (414720)
I1019 15:29:12.090554  4186 net.cpp:156] Memory required for data: 2732382900
I1019 15:29:12.090557  4186 layer_factory.hpp:77] Creating layer inception_3b/double_3x3_reduce
I1019 15:29:12.090564  4186 net.cpp:91] Creating Layer inception_3b/double_3x3_reduce
I1019 15:29:12.090567  4186 net.cpp:435] inception_3b/double_3x3_reduce <- inception_3a/output_inception_3a/output_0_split_1
I1019 15:29:12.090581  4186 net.cpp:409] inception_3b/double_3x3_reduce -> inception_3b/double_3x3_reduce
I1019 15:29:12.093087  4186 net.cpp:141] Setting up inception_3b/double_3x3_reduce
I1019 15:29:12.093101  4186 net.cpp:148] Top shape: 45 256 18 7 (1451520)
I1019 15:29:12.093103  4186 net.cpp:156] Memory required for data: 2738188980
I1019 15:29:12.093108  4186 layer_factory.hpp:77] Creating layer inception_3b/double_3x3_reduce_bn
I1019 15:29:12.093112  4186 layer_factory.cpp:265] Layer inception_3b/double_3x3_reduce_bn is using CAFFE engine.
I1019 15:29:12.093117  4186 net.cpp:91] Creating Layer inception_3b/double_3x3_reduce_bn
I1019 15:29:12.093120  4186 net.cpp:435] inception_3b/double_3x3_reduce_bn <- inception_3b/double_3x3_reduce
I1019 15:29:12.093135  4186 net.cpp:409] inception_3b/double_3x3_reduce_bn -> inception_3b/double_3x3_reduce_bn
I1019 15:29:12.093305  4186 net.cpp:141] Setting up inception_3b/double_3x3_reduce_bn
I1019 15:29:12.093310  4186 net.cpp:148] Top shape: 45 256 18 7 (1451520)
I1019 15:29:12.093312  4186 net.cpp:156] Memory required for data: 2743995060
I1019 15:29:12.093318  4186 layer_factory.hpp:77] Creating layer inception_3b/relu_double_3x3_reduce
I1019 15:29:12.093325  4186 net.cpp:91] Creating Layer inception_3b/relu_double_3x3_reduce
I1019 15:29:12.093327  4186 net.cpp:435] inception_3b/relu_double_3x3_reduce <- inception_3b/double_3x3_reduce_bn
I1019 15:29:12.093341  4186 net.cpp:396] inception_3b/relu_double_3x3_reduce -> inception_3b/double_3x3_reduce_bn (in-place)
I1019 15:29:12.093468  4186 net.cpp:141] Setting up inception_3b/relu_double_3x3_reduce
I1019 15:29:12.093475  4186 net.cpp:148] Top shape: 45 256 18 7 (1451520)
I1019 15:29:12.093477  4186 net.cpp:156] Memory required for data: 2749801140
I1019 15:29:12.093480  4186 layer_factory.hpp:77] Creating layer inception_3b/double_3x3_1
I1019 15:29:12.093487  4186 net.cpp:91] Creating Layer inception_3b/double_3x3_1
I1019 15:29:12.093489  4186 net.cpp:435] inception_3b/double_3x3_1 <- inception_3b/double_3x3_reduce_bn
I1019 15:29:12.093503  4186 net.cpp:409] inception_3b/double_3x3_1 -> inception_3b/double_3x3_1
I1019 15:29:12.099306  4186 net.cpp:141] Setting up inception_3b/double_3x3_1
I1019 15:29:12.099328  4186 net.cpp:148] Top shape: 45 256 18 7 (1451520)
I1019 15:29:12.099330  4186 net.cpp:156] Memory required for data: 2755607220
I1019 15:29:12.099339  4186 layer_factory.hpp:77] Creating layer inception_3b/double_3x3_1_bn
I1019 15:29:12.099344  4186 layer_factory.cpp:265] Layer inception_3b/double_3x3_1_bn is using CAFFE engine.
I1019 15:29:12.099359  4186 net.cpp:91] Creating Layer inception_3b/double_3x3_1_bn
I1019 15:29:12.099365  4186 net.cpp:435] inception_3b/double_3x3_1_bn <- inception_3b/double_3x3_1
I1019 15:29:12.099371  4186 net.cpp:409] inception_3b/double_3x3_1_bn -> inception_3b/double_3x3_1_bn
I1019 15:29:12.099553  4186 net.cpp:141] Setting up inception_3b/double_3x3_1_bn
I1019 15:29:12.099560  4186 net.cpp:148] Top shape: 45 256 18 7 (1451520)
I1019 15:29:12.099561  4186 net.cpp:156] Memory required for data: 2761413300
I1019 15:29:12.099567  4186 layer_factory.hpp:77] Creating layer inception_3b/relu_double_3x3_1
I1019 15:29:12.099572  4186 net.cpp:91] Creating Layer inception_3b/relu_double_3x3_1
I1019 15:29:12.099575  4186 net.cpp:435] inception_3b/relu_double_3x3_1 <- inception_3b/double_3x3_1_bn
I1019 15:29:12.099587  4186 net.cpp:396] inception_3b/relu_double_3x3_1 -> inception_3b/double_3x3_1_bn (in-place)
I1019 15:29:12.099720  4186 net.cpp:141] Setting up inception_3b/relu_double_3x3_1
I1019 15:29:12.099725  4186 net.cpp:148] Top shape: 45 256 18 7 (1451520)
I1019 15:29:12.099728  4186 net.cpp:156] Memory required for data: 2767219380
I1019 15:29:12.099730  4186 layer_factory.hpp:77] Creating layer inception_3b/double_3x3_2
I1019 15:29:12.099738  4186 net.cpp:91] Creating Layer inception_3b/double_3x3_2
I1019 15:29:12.099741  4186 net.cpp:435] inception_3b/double_3x3_2 <- inception_3b/double_3x3_1_bn
I1019 15:29:12.099745  4186 net.cpp:409] inception_3b/double_3x3_2 -> inception_3b/double_3x3_2
I1019 15:29:12.105067  4186 net.cpp:141] Setting up inception_3b/double_3x3_2
I1019 15:29:12.105087  4186 net.cpp:148] Top shape: 45 256 9 4 (414720)
I1019 15:29:12.105089  4186 net.cpp:156] Memory required for data: 2768878260
I1019 15:29:12.105096  4186 layer_factory.hpp:77] Creating layer inception_3b/double_3x3_2_bn
I1019 15:29:12.105100  4186 layer_factory.cpp:265] Layer inception_3b/double_3x3_2_bn is using CAFFE engine.
I1019 15:29:12.105108  4186 net.cpp:91] Creating Layer inception_3b/double_3x3_2_bn
I1019 15:29:12.105123  4186 net.cpp:435] inception_3b/double_3x3_2_bn <- inception_3b/double_3x3_2
I1019 15:29:12.105129  4186 net.cpp:409] inception_3b/double_3x3_2_bn -> inception_3b/double_3x3_2_bn
I1019 15:29:12.105314  4186 net.cpp:141] Setting up inception_3b/double_3x3_2_bn
I1019 15:29:12.105319  4186 net.cpp:148] Top shape: 45 256 9 4 (414720)
I1019 15:29:12.105320  4186 net.cpp:156] Memory required for data: 2770537140
I1019 15:29:12.105326  4186 layer_factory.hpp:77] Creating layer inception_3b/relu_double_3x3_2
I1019 15:29:12.105331  4186 net.cpp:91] Creating Layer inception_3b/relu_double_3x3_2
I1019 15:29:12.105334  4186 net.cpp:435] inception_3b/relu_double_3x3_2 <- inception_3b/double_3x3_2_bn
I1019 15:29:12.105337  4186 net.cpp:396] inception_3b/relu_double_3x3_2 -> inception_3b/double_3x3_2_bn (in-place)
I1019 15:29:12.105476  4186 net.cpp:141] Setting up inception_3b/relu_double_3x3_2
I1019 15:29:12.105484  4186 net.cpp:148] Top shape: 45 256 9 4 (414720)
I1019 15:29:12.105485  4186 net.cpp:156] Memory required for data: 2772196020
I1019 15:29:12.105487  4186 layer_factory.hpp:77] Creating layer inception_3b/pool
I1019 15:29:12.105494  4186 net.cpp:91] Creating Layer inception_3b/pool
I1019 15:29:12.105495  4186 net.cpp:435] inception_3b/pool <- inception_3a/output_inception_3a/output_0_split_2
I1019 15:29:12.105499  4186 net.cpp:409] inception_3b/pool -> inception_3b/pool
I1019 15:29:12.105542  4186 net.cpp:141] Setting up inception_3b/pool
I1019 15:29:12.105547  4186 net.cpp:148] Top shape: 45 1024 9 4 (1658880)
I1019 15:29:12.105550  4186 net.cpp:156] Memory required for data: 2778831540
I1019 15:29:12.105551  4186 layer_factory.hpp:77] Creating layer inception_3b/output
I1019 15:29:12.105566  4186 net.cpp:91] Creating Layer inception_3b/output
I1019 15:29:12.105567  4186 net.cpp:435] inception_3b/output <- inception_3b/3x3_bn
I1019 15:29:12.105571  4186 net.cpp:435] inception_3b/output <- inception_3b/double_3x3_2_bn
I1019 15:29:12.105583  4186 net.cpp:435] inception_3b/output <- inception_3b/pool
I1019 15:29:12.105587  4186 net.cpp:409] inception_3b/output -> inception_3b/output
I1019 15:29:12.105604  4186 net.cpp:141] Setting up inception_3b/output
I1019 15:29:12.105608  4186 net.cpp:148] Top shape: 45 1536 9 4 (2488320)
I1019 15:29:12.105610  4186 net.cpp:156] Memory required for data: 2788784820
I1019 15:29:12.105613  4186 layer_factory.hpp:77] Creating layer global_pool
I1019 15:29:12.105618  4186 net.cpp:91] Creating Layer global_pool
I1019 15:29:12.105619  4186 net.cpp:435] global_pool <- inception_3b/output
I1019 15:29:12.105623  4186 net.cpp:409] global_pool -> global_pool
I1019 15:29:12.106274  4186 net.cpp:141] Setting up global_pool
I1019 15:29:12.106284  4186 net.cpp:148] Top shape: 45 1536 1 1 (69120)
I1019 15:29:12.106297  4186 net.cpp:156] Memory required for data: 2789061300
I1019 15:29:12.106300  4186 layer_factory.hpp:77] Creating layer fc7
I1019 15:29:12.106307  4186 net.cpp:91] Creating Layer fc7
I1019 15:29:12.106309  4186 net.cpp:435] fc7 <- global_pool
I1019 15:29:12.106314  4186 net.cpp:409] fc7 -> fc7
I1019 15:29:12.109292  4186 net.cpp:141] Setting up fc7
I1019 15:29:12.109309  4186 net.cpp:148] Top shape: 45 256 (11520)
I1019 15:29:12.109311  4186 net.cpp:156] Memory required for data: 2789107380
I1019 15:29:12.109318  4186 layer_factory.hpp:77] Creating layer fc7_bn
I1019 15:29:12.109323  4186 layer_factory.cpp:265] Layer fc7_bn is using CAFFE engine.
I1019 15:29:12.109338  4186 net.cpp:91] Creating Layer fc7_bn
I1019 15:29:12.109340  4186 net.cpp:435] fc7_bn <- fc7
I1019 15:29:12.109345  4186 net.cpp:409] fc7_bn -> fc7_bn
I1019 15:29:12.109530  4186 net.cpp:141] Setting up fc7_bn
I1019 15:29:12.109536  4186 net.cpp:148] Top shape: 45 256 (11520)
I1019 15:29:12.109539  4186 net.cpp:156] Memory required for data: 2789153460
I1019 15:29:12.109544  4186 layer_factory.hpp:77] Creating layer relu7
I1019 15:29:12.109549  4186 net.cpp:91] Creating Layer relu7
I1019 15:29:12.109551  4186 net.cpp:435] relu7 <- fc7_bn
I1019 15:29:12.109563  4186 net.cpp:396] relu7 -> fc7_bn (in-place)
I1019 15:29:12.109722  4186 net.cpp:141] Setting up relu7
I1019 15:29:12.109730  4186 net.cpp:148] Top shape: 45 256 (11520)
I1019 15:29:12.109740  4186 net.cpp:156] Memory required for data: 2789199540
I1019 15:29:12.109743  4186 layer_factory.hpp:77] Creating layer drop7
I1019 15:29:12.109748  4186 net.cpp:91] Creating Layer drop7
I1019 15:29:12.109750  4186 net.cpp:435] drop7 <- fc7_bn
I1019 15:29:12.109753  4186 net.cpp:396] drop7 -> fc7_bn (in-place)
I1019 15:29:12.109879  4186 net.cpp:141] Setting up drop7
I1019 15:29:12.109886  4186 net.cpp:148] Top shape: 45 256 (11520)
I1019 15:29:12.109899  4186 net.cpp:156] Memory required for data: 2789245620
I1019 15:29:12.109900  4186 layer_factory.hpp:77] Creating layer fc8_jstl
I1019 15:29:12.109915  4186 net.cpp:91] Creating Layer fc8_jstl
I1019 15:29:12.109918  4186 net.cpp:435] fc8_jstl <- fc7_bn
I1019 15:29:12.109922  4186 net.cpp:409] fc8_jstl -> fc8_jstl
I1019 15:29:12.115619  4186 net.cpp:141] Setting up fc8_jstl
I1019 15:29:12.115641  4186 net.cpp:148] Top shape: 45 751 (33795)
I1019 15:29:12.115643  4186 net.cpp:156] Memory required for data: 2789380800
I1019 15:29:12.115651  4186 layer_factory.hpp:77] Creating layer loss
I1019 15:29:12.115659  4186 net.cpp:91] Creating Layer loss
I1019 15:29:12.115674  4186 net.cpp:435] loss <- fc8_jstl
I1019 15:29:12.115679  4186 net.cpp:435] loss <- label
I1019 15:29:12.115684  4186 net.cpp:409] loss -> loss
I1019 15:29:12.115691  4186 layer_factory.hpp:77] Creating layer loss
…
I1019 15:29:12.124131  4186 net.cpp:323] The NetState phase (1) differed from the phase (0) specified by a rule in layer data
I1019 15:29:12.125196  4186 net.cpp:49] Initializing net from parameters: 
state {
  phase: TEST
}
layer {
  name: "data"
  type: "ImageData"
  top: "data"
  top: "label"
  include {
    phase: TEST
  }
  transform_param {
    mirror: true
    mean_value: 102
    mean_value: 102
    mean_value: 101
  }
  image_data_param {
    source: "/home/nikoong/Algorithm_test/attribute/external/exp/dataset/Market-1501/train.txt"
    batch_size: 20
    shuffle: true
    new_height: 144
    new_width: 56
  }
}
layer {
  name: "conv1"
  type: "Convolution"
  bottom: "data"
  top: "conv1"
  param {
    lr_mult: 1
    decay_mult: 1
  }
  param {
    lr_mult: 2
    decay_mult: 0
  }
  convolution_param {
    num_output: 32
    pad: 1
    kernel_size: 3
    stride: 1
    weight_filler {
      type: "xavier"
    }
    bias_filler {
      type: "constant"
      value: 0.2
    }
  }
}
layer {
  name: "conv1_bn"
  type: "BN"
  bottom: "conv1"
  top: "conv1_bn"
  param {
    lr_mult: 1
    decay_mult: 0
  }
  param {
    lr_mult: 1
    decay_mult: 0
  }
  bn_param {
    slope_filler {
      type: "constant"
      value: 1
    }
    bias_filler {
      type: "constant"
      value: 0
    }
  }
}
layer {
  name: "relu1"
  type: "ReLU"
  bottom: "conv1_bn"
  top: "conv1_bn"
}
layer {
  name: "conv2"
  type: "Convolution"
  bottom: "conv1_bn"
  top: "conv2"
  param {
    lr_mult: 1
    decay_mult: 1
  }
  param {
    lr_mult: 2
    decay_mult: 0
  }
  convolution_param {
    num_output: 32
    pad: 1
    kernel_size: 3
    stride: 1
    weight_filler {
      type: "xavier"
    }
    bias_filler {
      type: "constant"
      value: 0.2
    }
  }
}
layer {
  name: "conv2_bn"
  type: "BN"
  bottom: "conv2"
  top: "conv2_bn"
  param {
    lr_mult: 1
    decay_mult: 0
  }
  param {
    lr_mult: 1
    decay_mult: 0
  }
  bn_param {
    slope_filler {
      type: "constant"
      value: 1
    }
    bias_filler {
      type: "constant"
      value: 0
    }
  }
}
layer {
  name: "relu2"
  type: "ReLU"
  bottom: "conv2_bn"
  top: "conv2_bn"
}
layer {
  name: "conv3"
  type: "Convolution"
  bottom: "conv2_bn"
  top: "conv3"
  param {
    lr_mult: 1
    decay_mult: 1
  }
  param {
    lr_mult: 2
    decay_mult: 0
  }
  convolution_param {
    num_output: 32
    pad: 1
    kernel_size: 3
    stride: 1
    weight_filler {
      type: "xavier"
    }
    bias_filler {
      type: "constant"
      value: 0.2
    }
  }
}
layer {
  name: "conv3_bn"
  type: "BN"
  bottom: "conv3"
  top: "conv3_bn"
  param {
    lr_mult: 1
    decay_mult: 0
  }
  param {
    lr_mult: 1
    decay_mult: 0
  }
  bn_param {
    slope_filler {
      type: "constant"
      value: 1
    }
    bias_filler {
      type: "constant"
      value: 0
    }
  }
}
layer {
  name: "relu3"
  type: "ReLU"
  bottom: "conv3_bn"
  top: "conv3_bn"
}
layer {
  name: "pool1"
  type: "Pooling"
  bottom: "conv3_bn"
  top: "pool1"
  pooling_param {
    pool: MAX
    kernel_size: 2
    stride: 2
  }
}
layer {
  name: "inception_1a/1x1"
  type: "Convolution"
  bottom: "pool1"
  top: "inception_1a/1x1"
  param {
    lr_mult: 1
    decay_mult: 1
  }
  param {
    lr_mult: 2
    decay_mult: 0
  }
  convolution_param {
    num_output: 64
    kernel_size: 1
    weight_filler {
      type: "xavier"
    }
    bias_filler {
      type: "constant"
      value: 0.2
    }
  }
}
layer {
  name: "inception_1a/1x1_bn"
  type: "BN"
  bottom: "inception_1a/1x1"
  top: "inception_1a/1x1_bn"
  param {
    lr_mult: 1
    decay_mult: 0
  }
  param {
    lr_mult: 1
    decay_mult: 0
  }
  bn_param {
    slope_filler {
      type: "constant"
      value: 1
    }
    bias_filler {
      type: "constant"
      value: 0
    }
  }
}
layer {
  name: "inception_1a/relu_1x1"
  type: "ReLU"
  bottom: "inception_1a/1x1_bn"
  top: "inception_1a/1x1_bn"
}
layer {
  name: "inception_1a/3x3_reduce"
  type: "Convolution"
  bottom: "pool1"
  top: "inception_1a/3x3_reduce"
  param {
    lr_mult: 1
    decay_mult: 1
  }
  param {
    lr_mult: 2
    decay_mult: 0
  }
  convolution_param {
    num_output: 64
    kernel_size: 1
    weight_filler {
      type: "xavier"
    }
    bias_filler {
      type: "constant"
      value: 0.2
    }
  }
}
layer {
  name: "inception_1a/3x3_reduce_bn"
  type: "BN"
  bottom: "inception_1a/3x3_reduce"
  top: "inception_1a/3x3_reduce_bn"
  param {
    lr_mult: 1
    decay_mult: 0
  }
  param {
    lr_mult: 1
    decay_mult: 0
  }
  bn_param {
    slope_filler {
      type: "constant"
      value: 1
    }
    bias_filler {
      type: "constant"
      value: 0
    }
  }
}
layer {
  name: "inception_1a/relu_3x3_reduce"
  type: "ReLU"
  bottom: "inception_1a/3x3_reduce_bn"
  top: "inception_1a/3x3_reduce_bn"
}
layer {
  name: "inception_1a/3x3"
  type: "Convolution"
  bottom: "inception_1a/3x3_reduce_bn"
  top: "inception_1a/3x3"
  param {
    lr_mult: 1
    decay_mult: 1
  }
  param {
    lr_mult: 2
    decay_mult: 0
  }
  convolution_param {
    num_output: 64
    pad: 1
    kernel_size: 3
    weight_filler {
      type: "xavier"
    }
    bias_filler {
      type: "constant"
      value: 0.2
    }
  }
}
layer {
  name: "inception_1a/3x3_bn"
  type: "BN"
  bottom: "inception_1a/3x3"
  top: "inception_1a/3x3_bn"
  param {
    lr_mult: 1
    decay_mult: 0
  }
  param {
    lr_mult: 1
    decay_mult: 0
  }
  bn_param {
    slope_filler {
      type: "constant"
      value: 1
    }
    bias_filler {
      type: "constant"
      value: 0
    }
  }
}
layer {
  name: "inception_1a/relu_3x3"
  type: "ReLU"
  bottom: "inception_1a/3x3_bn"
  top: "inception_1a/3x3_bn"
}
layer {
  name: "inception_1a/double_3x3_reduce"
  type: "Convolution"
  bottom: "pool1"
  top: "inception_1a/double_3x3_reduce"
  param {
    lr_mult: 1
    decay_mult: 1
  }
  param {
    lr_mult: 2
    decay_mult: 0
  }
  convolution_param {
    num_output: 64
    kernel_size: 1
    weight_filler {
      type: "xavier"
    }
    bias_filler {
      type: "constant"
      value: 0.2
    }
  }
}
layer {
  name: "inception_1a/double_3x3_reduce_bn"
  type: "BN"
  bottom: "inception_1a/double_3x3_reduce"
  top: "inception_1a/double_3x3_reduce_bn"
  param {
    lr_mult: 1
    decay_mult: 0
  }
  param {
    lr_mult: 1
    decay_mult: 0
  }
  bn_param {
    slope_filler {
      type: "constant"
      value: 1
    }
    bias_filler {
      type: "constant"
      value: 0
    }
  }
}
layer {
  name: "inception_1a/relu_double_3x3_reduce"
  type: "ReLU"
  bottom: "inception_1a/double_3x3_reduce_bn"
  top: "inception_1a/double_3x3_reduce_bn"
}
layer {
  name: "inception_1a/double_3x3_1"
  type: "Convolution"
  bottom: "inception_1a/double_3x3_reduce_bn"
  top: "inception_1a/double_3x3_1"
  param {
    lr_mult: 1
    decay_mult: 1
  }
  param {
    lr_mult: 2
    decay_mult: 0
  }
  convolution_param {
    num_output: 64
    pad: 1
    kernel_size: 3
    weight_filler {
      type: "xavier"
    }
    bias_filler {
      type: "constant"
      value: 0.2
    }
  }
}
layer {
  name: "inception_1a/double_3x3_1_bn"
  type: "BN"
  bottom: "inception_1a/double_3x3_1"
  top: "inception_1a/double_3x3_1_bn"
  param {
    lr_mult: 1
    decay_mult: 0
  }
  param {
    lr_mult: 1
    decay_mult: 0
  }
  bn_param {
    slope_filler {
      type: "constant"
      value: 1
    }
    bias_filler {
      type: "constant"
      value: 0
    }
  }
}
layer {
  name: "inception_1a/relu_double_3x3_1"
  type: "ReLU"
  bottom: "inception_1a/double_3x3_1_bn"
  top: "inception_1a/double_3x3_1_bn"
}
layer {
  name: "inception_1a/double_3x3_2"
  type: "Convolution"
  bottom: "inception_1a/double_3x3_1_bn"
  top: "inception_1a/double_3x3_2"
  param {
    lr_mult: 1
    decay_mult: 1
  }
  param {
    lr_mult: 2
    decay_mult: 0
  }
  convolution_param {
    num_output: 64
    pad: 1
    kernel_size: 3
    weight_filler {
      type: "xavier"
    }
    bias_filler {
      type: "constant"
      value: 0.2
    }
  }
}
layer {
  name: "inception_1a/double_3x3_2_bn"
  type: "BN"
  bottom: "inception_1a/double_3x3_2"
  top: "inception_1a/double_3x3_2_bn"
  param {
    lr_mult: 1
    decay_mult: 0
  }
  param {
    lr_mult: 1
    decay_mult: 0
  }
  bn_param {
    slope_filler {
      type: "constant"
      value: 1
    }
    bias_filler {
      type: "constant"
      value: 0
    }
  }
}
layer {
  name: "inception_1a/relu_double_3x3_2"
  type: "ReLU"
  bottom: "inception_1a/double_3x3_2_bn"
  top: "inception_1a/double_3x3_2_bn"
}
layer {
  name: "inception_1a/pool"
  type: "Pooling"
  bottom: "pool1"
  top: "inception_1a/pool"
  pooling_param {
    pool: AVE
    kernel_size: 3
    stride: 1
    pad: 1
  }
}
layer {
  name: "inception_1a/pool_proj"
  type: "Convolution"
  bottom: "inception_1a/pool"
  top: "inception_1a/pool_proj"
  param {
    lr_mult: 1
    decay_mult: 1
  }
  param {
    lr_mult: 2
    decay_mult: 0
  }
  convolution_param {
    num_output: 64
    kernel_size: 1
    weight_filler {
      type: "xavier"
    }
    bias_filler {
      type: "constant"
      value: 0.2
    }
  }
}
layer {
  name: "inception_1a/pool_proj_bn"
  type: "BN"
  bottom: "inception_1a/pool_proj"
  top: "inception_1a/pool_proj_bn"
  param {
    lr_mult: 1
    decay_mult: 0
  }
  param {
    lr_mult: 1
    decay_mult: 0
  }
  bn_param {
    slope_filler {
      type: "constant"
      value: 1
    }
    bias_filler {
      type: "constant"
      value: 0
    }
  }
}
layer {
  name: "inception_1a/relu_pool_proj"
  type: "ReLU"
  bottom: "inception_1a/pool_proj_bn"
  top: "inception_1a/pool_proj_bn"
}
layer {
  name: "inception_1a/output"
  type: "Concat"
  bottom: "inception_1a/1x1_bn"
  bottom: "inception_1a/3x3_bn"
  bottom: "inception_1a/double_3x3_2_bn"
  bottom: "inception_1a/pool_proj_bn"
  top: "inception_1a/output"
}
layer {
  name: "inception_1b/3x3_reduce"
  type: "Convolution"
  bottom: "inception_1a/output"
  top: "inception_1b/3x3_reduce"
  param {
    lr_mult: 1
    decay_mult: 1
  }
  param {
    lr_mult: 2
    decay_mult: 0
  }
  convolution_param {
    num_output: 64
    kernel_size: 1
    weight_filler {
      type: "xavier"
    }
    bias_filler {
      type: "constant"
      value: 0.2
    }
  }
}
layer {
  name: "inception_1b/3x3_reduce_bn"
  type: "BN"
  bottom: "inception_1b/3x3_reduce"
  top: "inception_1b/3x3_reduce_bn"
  param {
    lr_mult: 1
    decay_mult: 0
  }
  param {
    lr_mult: 1
    decay_mult: 0
  }
  bn_param {
    slope_filler {
      type: "constant"
      value: 1
    }
    bias_filler {
      type: "constant"
      value: 0
    }
  }
}
layer {
  name: "inception_1b/relu_3x3_reduce"
  type: "ReLU"
  bottom: "inception_1b/3x3_reduce_bn"
  top: "inception_1b/3x3_reduce_bn"
}
layer {
  name: "inception_1b/3x3"
  type: "Convolution"
  bottom: "inception_1b/3x3_reduce_bn"
  top: "inception_1b/3x3"
  param {
    lr_mult: 1
    decay_mult: 1
  }
  param {
    lr_mult: 2
    decay_mult: 0
  }
  convolution_param {
    num_output: 64
    pad: 1
    kernel_size: 3
    stride: 2
    weight_filler {
      type: "xavier"
    }
    bias_filler {
      type: "constant"
      value: 0.2
    }
  }
}
layer {
  name: "inception_1b/3x3_bn"
  type: "BN"
  bottom: "inception_1b/3x3"
  top: "inception_1b/3x3_bn"
  param {
    lr_mult: 1
    decay_mult: 0
  }
  param {
    lr_mult: 1
    decay_mult: 0
  }
  bn_param {
    slope_filler {
      type: "constant"
      value: 1
    }
    bias_filler {
      type: "constant"
      value: 0
    }
  }
}
layer {
  name: "inception_1b/relu_3x3"
  type: "ReLU"
  bottom: "inception_1b/3x3_bn"
  top: "inception_1b/3x3_bn"
}
layer {
  name: "inception_1b/double_3x3_reduce"
  type: "Convolution"
  bottom: "inception_1a/output"
  top: "inception_1b/double_3x3_reduce"
  param {
    lr_mult: 1
    decay_mult: 1
  }
  param {
    lr_mult: 2
    decay_mult: 0
  }
  convolution_param {
    num_output: 64
    kernel_size: 1
    weight_filler {
      type: "xavier"
    }
    bias_filler {
      type: "constant"
      value: 0.2
    }
  }
}
layer {
  name: "inception_1b/double_3x3_reduce_bn"
  type: "BN"
  bottom: "inception_1b/double_3x3_reduce"
  top: "inception_1b/double_3x3_reduce_bn"
  param {
    lr_mult: 1
    decay_mult: 0
  }
  param {
    lr_mult: 1
    decay_mult: 0
  }
  bn_param {
    slope_filler {
      type: "constant"
      value: 1
    }
    bias_filler {
      type: "constant"
      value: 0
    }
  }
}
layer {
  name: "inception_1b/relu_double_3x3_reduce"
  type: "ReLU"
  bottom: "inception_1b/double_3x3_reduce_bn"
  top: "inception_1b/double_3x3_reduce_bn"
}
layer {
  name: "inception_1b/double_3x3_1"
  type: "Convolution"
  bottom: "inception_1b/double_3x3_reduce_bn"
  top: "inception_1b/double_3x3_1"
  param {
    lr_mult: 1
    decay_mult: 1
  }
  param {
    lr_mult: 2
    decay_mult: 0
  }
  convolution_param {
    num_output: 64
    pad: 1
    kernel_size: 3
    weight_filler {
      type: "xavier"
    }
    bias_filler {
      type: "constant"
      value: 0.2
    }
  }
}
layer {
  name: "inception_1b/double_3x3_1_bn"
  type: "BN"
  bottom: "inception_1b/double_3x3_1"
  top: "inception_1b/double_3x3_1_bn"
  param {
    lr_mult: 1
    decay_mult: 0
  }
  param {
    lr_mult: 1
    decay_mult: 0
  }
  bn_param {
    slope_filler {
      type: "constant"
      value: 1
    }
    bias_filler {
      type: "constant"
      value: 0
    }
  }
}
layer {
  name: "inception_1b/relu_double_3x3_1"
  type: "ReLU"
  bottom: "inception_1b/double_3x3_1_bn"
  top: "inception_1b/double_3x3_1_bn"
}
layer {
  name: "inception_1b/double_3x3_2"
  type: "Convolution"
  bottom: "inception_1b/double_3x3_1_bn"
  top: "inception_1b/double_3x3_2"
  param {
    lr_mult: 1
    decay_mult: 1
  }
  param {
    lr_mult: 2
    decay_mult: 0
  }
  convolution_param {
    num_output: 64
    pad: 1
    kernel_size: 3
    stride: 2
    weight_filler {
      type: "xavier"
    }
    bias_filler {
      type: "constant"
      value: 0.2
    }
  }
}
layer {
  name: "inception_1b/double_3x3_2_bn"
  type: "BN"
  bottom: "inception_1b/double_3x3_2"
  top: "inception_1b/double_3x3_2_bn"
  param {
    lr_mult: 1
    decay_mult: 0
  }
  param {
    lr_mult: 1
    decay_mult: 0
  }
  bn_param {
    slope_filler {
      type: "constant"
      value: 1
    }
    bias_filler {
      type: "constant"
      value: 0
    }
  }
}
layer {
  name: "inception_1b/relu_double_3x3_2"
  type: "ReLU"
  bottom: "inception_1b/double_3x3_2_bn"
  top: "inception_1b/double_3x3_2_bn"
}
layer {
  name: "inception_1b/pool"
  type: "Pooling"
  bottom: "inception_1a/output"
  top: "inception_1b/pool"
  pooling_param {
    pool: MAX
    kernel_size: 3
    stride: 2
  }
}
layer {
  name: "inception_1b/output"
  type: "Concat"
  bottom: "inception_1b/3x3_bn"
  bottom: "inception_1b/double_3x3_2_bn"
  bottom: "inception_1b/pool"
  top: "inception_1b/output"
}
layer {
  name: "inception_2a/1x1"
  type: "Convolution"
  bottom: "inception_1b/output"
  top: "inception_2a/1x1"
  param {
    lr_mult: 1
    decay_mult: 1
  }
  param {
    lr_mult: 2
    decay_mult: 0
  }
  convolution_param {
    num_output: 128
    kernel_size: 1
    weight_filler {
      type: "xavier"
    }
    bias_filler {
      type: "constant"
      value: 0.2
    }
  }
}
layer {
  name: "inception_2a/1x1_bn"
  type: "BN"
  bottom: "inception_2a/1x1"
  top: "inception_2a/1x1_bn"
  param {
    lr_mult: 1
    decay_mult: 0
  }
  param {
    lr_mult: 1
    decay_mult: 0
  }
  bn_param {
    slope_filler {
      type: "constant"
      value: 1
    }
    bias_filler {
      type: "constant"
      value: 0
    }
  }
}
layer {
  name: "inception_2a/relu_1x1"
  type: "ReLU"
  bottom: "inception_2a/1x1_bn"
  top: "inception_2a/1x1_bn"
}
layer {
  name: "inception_2a/3x3_reduce"
  type: "Convolution"
  bottom: "inception_1b/output"
  top: "inception_2a/3x3_reduce"
  param {
    lr_mult: 1
    decay_mult: 1
  }
  param {
    lr_mult: 2
    decay_mult: 0
  }
  convolution_param {
    num_output: 128
    kernel_size: 1
    weight_filler {
      type: "xavier"
    }
    bias_filler {
      type: "constant"
      value: 0.2
    }
  }
}
layer {
  name: "inception_2a/3x3_reduce_bn"
  type: "BN"
  bottom: "inception_2a/3x3_reduce"
  top: "inception_2a/3x3_reduce_bn"
  param {
    lr_mult: 1
    decay_mult: 0
  }
  param {
    lr_mult: 1
    decay_mult: 0
  }
  bn_param {
    slope_filler {
      type: "constant"
      value: 1
    }
    bias_filler {
      type: "constant"
      value: 0
    }
  }
}
layer {
  name: "inception_2a/relu_3x3_reduce"
  type: "ReLU"
  bottom: "inception_2a/3x3_reduce_bn"
  top: "inception_2a/3x3_reduce_bn"
}
layer {
  name: "inception_2a/3x3"
  type: "Convolution"
  bottom: "inception_2a/3x3_reduce_bn"
  top: "inception_2a/3x3"
  param {
    lr_mult: 1
    decay_mult: 1
  }
  param {
    lr_mult: 2
    decay_mult: 0
  }
  convolution_param {
    num_output: 128
    pad: 1
    kernel_size: 3
    weight_filler {
      type: "xavier"
    }
    bias_filler {
      type: "constant"
      value: 0.2
    }
  }
}
layer {
  name: "inception_2a/3x3_bn"
  type: "BN"
  bottom: "inception_2a/3x3"
  top: "inception_2a/3x3_bn"
  param {
    lr_mult: 1
    decay_mult: 0
  }
  param {
    lr_mult: 1
    decay_mult: 0
  }
  bn_param {
    slope_filler {
      type: "constant"
      value: 1
    }
    bias_filler {
      type: "constant"
      value: 0
    }
  }
}
layer {
  name: "inception_2a/relu_3x3"
  type: "ReLU"
  bottom: "inception_2a/3x3_bn"
  top: "inception_2a/3x3_bn"
}
layer {
  name: "inception_2a/double_3x3_reduce"
  type: "Convolution"
  bottom: "inception_1b/output"
  top: "inception_2a/double_3x3_reduce"
  param {
    lr_mult: 1
    decay_mult: 1
  }
  param {
    lr_mult: 2
    decay_mult: 0
  }
  convolution_param {
    num_output: 128
    kernel_size: 1
    weight_filler {
      type: "xavier"
    }
    bias_filler {
      type: "constant"
      value: 0.2
    }
  }
}
layer {
  name: "inception_2a/double_3x3_reduce_bn"
  type: "BN"
  bottom: "inception_2a/double_3x3_reduce"
  top: "inception_2a/double_3x3_reduce_bn"
  param {
    lr_mult: 1
    decay_mult: 0
  }
  param {
    lr_mult: 1
    decay_mult: 0
  }
  bn_param {
    slope_filler {
      type: "constant"
      value: 1
    }
    bias_filler {
      type: "constant"
      value: 0
    }
  }
}
layer {
  name: "inception_2a/relu_double_3x3_reduce"
  type: "ReLU"
  bottom: "inception_2a/double_3x3_reduce_bn"
  top: "inception_2a/double_3x3_reduce_bn"
}
layer {
  name: "inception_2a/double_3x3_1"
  type: "Convolution"
  bottom: "inception_2a/double_3x3_reduce_bn"
  top: "inception_2a/double_3x3_1"
  param {
    lr_mult: 1
    decay_mult: 1
  }
  param {
    lr_mult: 2
    decay_mult: 0
  }
  convolution_param {
    num_output: 128
    pad: 1
    kernel_size: 3
    weight_filler {
      type: "xavier"
    }
    bias_filler {
      type: "constant"
      value: 0.2
    }
  }
}
layer {
  name: "inception_2a/double_3x3_1_bn"
  type: "BN"
  bottom: "inception_2a/double_3x3_1"
  top: "inception_2a/double_3x3_1_bn"
  param {
    lr_mult: 1
    decay_mult: 0
  }
  param {
    lr_mult: 1
    decay_mult: 0
  }
  bn_param {
    slope_filler {
      type: "constant"
      value: 1
    }
    bias_filler {
      type: "constant"
      value: 0
    }
  }
}
layer {
  name: "inception_2a/relu_double_3x3_1"
  type: "ReLU"
  bottom: "inception_2a/double_3x3_1_bn"
  top: "inception_2a/double_3x3_1_bn"
}
layer {
  name: "inception_2a/double_3x3_2"
  type: "Convolution"
  bottom: "inception_2a/double_3x3_1_bn"
  top: "inception_2a/double_3x3_2"
  param {
    lr_mult: 1
    decay_mult: 1
  }
  param {
    lr_mult: 2
    decay_mult: 0
  }
  convolution_param {
    num_output: 128
    pad: 1
    kernel_size: 3
    weight_filler {
      type: "xavier"
    }
    bias_filler {
      type: "constant"
      value: 0.2
    }
  }
}
layer {
  name: "inception_2a/double_3x3_2_bn"
  type: "BN"
  bottom: "inception_2a/double_3x3_2"
  top: "inception_2a/double_3x3_2_bn"
  param {
    lr_mult: 1
    decay_mult: 0
  }
  param {
    lr_mult: 1
    decay_mult: 0
  }
  bn_param {
    slope_filler {
      type: "constant"
      value: 1
    }
    bias_filler {
      type: "constant"
      value: 0
    }
  }
}
layer {
  name: "inception_2a/relu_double_3x3_2"
  type: "ReLU"
  bottom: "inception_2a/double_3x3_2_bn"
  top: "inception_2a/double_3x3_2_bn"
}
layer {
  name: "inception_2a/pool"
  type: "Pooling"
  bottom: "inception_1b/output"
  top: "inception_2a/pool"
  pooling_param {
    pool: AVE
    kernel_size: 3
    stride: 1
    pad: 1
  }
}
layer {
  name: "inception_2a/pool_proj"
  type: "Convolution"
  bottom: "inception_2a/pool"
  top: "inception_2a/pool_proj"
  param {
    lr_mult: 1
    decay_mult: 1
  }
  param {
    lr_mult: 2
    decay_mult: 0
  }
  convolution_param {
    num_output: 128
    kernel_size: 1
    weight_filler {
      type: "xavier"
    }
    bias_filler {
      type: "constant"
      value: 0.2
    }
  }
}
layer {
  name: "inception_2a/pool_proj_bn"
  type: "BN"
  bottom: "inception_2a/pool_proj"
  top: "inception_2a/pool_proj_bn"
  param {
    lr_mult: 1
    decay_mult: 0
  }
  param {
    lr_mult: 1
    decay_mult: 0
  }
  bn_param {
    slope_filler {
      type: "constant"
      value: 1
    }
    bias_filler {
      type: "constant"
      value: 0
    }
  }
}
layer {
  name: "inception_2a/relu_pool_proj"
  type: "ReLU"
  bottom: "inception_2a/pool_proj_bn"
  top: "inception_2a/pool_proj_bn"
}
layer {
  name: "inception_2a/output"
  type: "Concat"
  bottom: "inception_2a/1x1_bn"
  bottom: "inception_2a/3x3_bn"
  bottom: "inception_2a/double_3x3_2_bn"
  bottom: "inception_2a/pool_proj_bn"
  top: "inception_2a/output"
}
layer {
  name: "inception_2b/3x3_reduce"
  type: "Convolution"
  bottom: "inception_2a/output"
  top: "inception_2b/3x3_reduce"
  param {
    lr_mult: 1
    decay_mult: 1
  }
  param {
    lr_mult: 2
    decay_mult: 0
  }
  convolution_param {
    num_output: 128
    kernel_size: 1
    weight_filler {
      type: "xavier"
    }
    bias_filler {
      type: "constant"
      value: 0.2
    }
  }
}
layer {
  name: "inception_2b/3x3_reduce_bn"
  type: "BN"
  bottom: "inception_2b/3x3_reduce"
  top: "inception_2b/3x3_reduce_bn"
  param {
    lr_mult: 1
    decay_mult: 0
  }
  param {
    lr_mult: 1
    decay_mult: 0
  }
  bn_param {
    slope_filler {
      type: "constant"
      value: 1
    }
    bias_filler {
      type: "constant"
      value: 0
    }
  }
}
layer {
  name: "inception_2b/relu_3x3_reduce"
  type: "ReLU"
  bottom: "inception_2b/3x3_reduce_bn"
  top: "inception_2b/3x3_reduce_bn"
}
layer {
  name: "inception_2b/3x3"
  type: "Convolution"
  bottom: "inception_2b/3x3_reduce_bn"
  top: "inception_2b/3x3"
  param {
    lr_mult: 1
    decay_mult: 1
  }
  param {
    lr_mult: 2
    decay_mult: 0
  }
  convolution_param {
    num_output: 128
    pad: 1
    kernel_size: 3
    stride: 2
    weight_filler {
      type: "xavier"
    }
    bias_filler {
      type: "constant"
      value: 0.2
    }
  }
}
layer {
  name: "inception_2b/3x3_bn"
  type: "BN"
  bottom: "inception_2b/3x3"
  top: "inception_2b/3x3_bn"
  param {
    lr_mult: 1
    decay_mult: 0
  }
  param {
    lr_mult: 1
    decay_mult: 0
  }
  bn_param {
    slope_filler {
      type: "constant"
      value: 1
    }
    bias_filler {
      type: "constant"
      value: 0
    }
  }
}
layer {
  name: "inception_2b/relu_3x3"
  type: "ReLU"
  bottom: "inception_2b/3x3_bn"
  top: "inception_2b/3x3_bn"
}
layer {
  name: "inception_2b/double_3x3_reduce"
  type: "Convolution"
  bottom: "inception_2a/output"
  top: "inception_2b/double_3x3_reduce"
  param {
    lr_mult: 1
    decay_mult: 1
  }
  param {
    lr_mult: 2
    decay_mult: 0
  }
  convolution_param {
    num_output: 128
    kernel_size: 1
    weight_filler {
      type: "xavier"
    }
    bias_filler {
      type: "constant"
      value: 0.2
    }
  }
}
layer {
  name: "inception_2b/double_3x3_reduce_bn"
  type: "BN"
  bottom: "inception_2b/double_3x3_reduce"
  top: "inception_2b/double_3x3_reduce_bn"
  param {
    lr_mult: 1
    decay_mult: 0
  }
  param {
    lr_mult: 1
    decay_mult: 0
  }
  bn_param {
    slope_filler {
      type: "constant"
      value: 1
    }
    bias_filler {
      type: "constant"
      value: 0
    }
  }
}
layer {
  name: "inception_2b/relu_double_3x3_reduce"
  type: "ReLU"
  bottom: "inception_2b/double_3x3_reduce_bn"
  top: "inception_2b/double_3x3_reduce_bn"
}
layer {
  name: "inception_2b/double_3x3_1"
  type: "Convolution"
  bottom: "inception_2b/double_3x3_reduce_bn"
  top: "inception_2b/double_3x3_1"
  param {
    lr_mult: 1
    decay_mult: 1
  }
  param {
    lr_mult: 2
    decay_mult: 0
  }
  convolution_param {
    num_output: 128
    pad: 1
    kernel_size: 3
    weight_filler {
      type: "xavier"
    }
    bias_filler {
      type: "constant"
      value: 0.2
    }
  }
}
layer {
  name: "inception_2b/double_3x3_1_bn"
  type: "BN"
  bottom: "inception_2b/double_3x3_1"
  top: "inception_2b/double_3x3_1_bn"
  param {
    lr_mult: 1
    decay_mult: 0
  }
  param {
    lr_mult: 1
    decay_mult: 0
  }
  bn_param {
    slope_filler {
      type: "constant"
      value: 1
    }
    bias_filler {
      type: "constant"
      value: 0
    }
  }
}
layer {
  name: "inception_2b/relu_double_3x3_1"
  type: "ReLU"
  bottom: "inception_2b/double_3x3_1_bn"
  top: "inception_2b/double_3x3_1_bn"
}
layer {
  name: "inception_2b/double_3x3_2"
  type: "Convolution"
  bottom: "inception_2b/double_3x3_1_bn"
  top: "inception_2b/double_3x3_2"
  param {
    lr_mult: 1
    decay_mult: 1
  }
  param {
    lr_mult: 2
    decay_mult: 0
  }
  convolution_param {
    num_output: 128
    pad: 1
    kernel_size: 3
    stride: 2
    weight_filler {
      type: "xavier"
    }
    bias_filler {
      type: "constant"
      value: 0.2
    }
  }
}
layer {
  name: "inception_2b/double_3x3_2_bn"
  type: "BN"
  bottom: "inception_2b/double_3x3_2"
  top: "inception_2b/double_3x3_2_bn"
  param {
    lr_mult: 1
    decay_mult: 0
  }
  param {
    lr_mult: 1
    decay_mult: 0
  }
  bn_param {
    slope_filler {
      type: "constant"
      value: 1
    }
    bias_filler {
      type: "constant"
      value: 0
    }
  }
}
layer {
  name: "inception_2b/relu_double_3x3_2"
  type: "ReLU"
  bottom: "inception_2b/double_3x3_2_bn"
  top: "inception_2b/double_3x3_2_bn"
}
layer {
  name: "inception_2b/pool"
  type: "Pooling"
  bottom: "inception_2a/output"
  top: "inception_2b/pool"
  pooling_param {
    pool: MAX
    kernel_size: 3
…
I1019 15:29:12.193560  4186 net.cpp:91] Creating Layer inception_2a/relu_double_3x3_1
I1019 15:29:12.193563  4186 net.cpp:435] inception_2a/relu_double_3x3_1 <- inception_2a/double_3x3_1_bn
I1019 15:29:12.193567  4186 net.cpp:396] inception_2a/relu_double_3x3_1 -> inception_2a/double_3x3_1_bn (in-place)
I1019 15:29:12.193727  4186 net.cpp:141] Setting up inception_2a/relu_double_3x3_1
I1019 15:29:12.193734  4186 net.cpp:148] Top shape: 20 128 36 14 (1290240)
I1019 15:29:12.193737  4186 net.cpp:156] Memory required for data: 874137840
I1019 15:29:12.193739  4186 layer_factory.hpp:77] Creating layer inception_2a/double_3x3_2
I1019 15:29:12.193747  4186 net.cpp:91] Creating Layer inception_2a/double_3x3_2
I1019 15:29:12.193750  4186 net.cpp:435] inception_2a/double_3x3_2 <- inception_2a/double_3x3_1_bn
I1019 15:29:12.193755  4186 net.cpp:409] inception_2a/double_3x3_2 -> inception_2a/double_3x3_2
I1019 15:29:12.197329  4186 net.cpp:141] Setting up inception_2a/double_3x3_2
I1019 15:29:12.197358  4186 net.cpp:148] Top shape: 20 128 36 14 (1290240)
I1019 15:29:12.197474  4186 net.cpp:156] Memory required for data: 879298800
I1019 15:29:12.197497  4186 layer_factory.hpp:77] Creating layer inception_2a/double_3x3_2_bn
I1019 15:29:12.197513  4186 layer_factory.cpp:265] Layer inception_2a/double_3x3_2_bn is using CAFFE engine.
I1019 15:29:12.197531  4186 net.cpp:91] Creating Layer inception_2a/double_3x3_2_bn
I1019 15:29:12.197536  4186 net.cpp:435] inception_2a/double_3x3_2_bn <- inception_2a/double_3x3_2
I1019 15:29:12.197543  4186 net.cpp:409] inception_2a/double_3x3_2_bn -> inception_2a/double_3x3_2_bn
I1019 15:29:12.197813  4186 net.cpp:141] Setting up inception_2a/double_3x3_2_bn
I1019 15:29:12.197821  4186 net.cpp:148] Top shape: 20 128 36 14 (1290240)
I1019 15:29:12.197824  4186 net.cpp:156] Memory required for data: 884459760
I1019 15:29:12.197840  4186 layer_factory.hpp:77] Creating layer inception_2a/relu_double_3x3_2
I1019 15:29:12.197847  4186 net.cpp:91] Creating Layer inception_2a/relu_double_3x3_2
I1019 15:29:12.197852  4186 net.cpp:435] inception_2a/relu_double_3x3_2 <- inception_2a/double_3x3_2_bn
I1019 15:29:12.197855  4186 net.cpp:396] inception_2a/relu_double_3x3_2 -> inception_2a/double_3x3_2_bn (in-place)
I1019 15:29:12.198015  4186 net.cpp:141] Setting up inception_2a/relu_double_3x3_2
I1019 15:29:12.198024  4186 net.cpp:148] Top shape: 20 128 36 14 (1290240)
I1019 15:29:12.198026  4186 net.cpp:156] Memory required for data: 889620720
I1019 15:29:12.198037  4186 layer_factory.hpp:77] Creating layer inception_2a/pool
I1019 15:29:12.198045  4186 net.cpp:91] Creating Layer inception_2a/pool
I1019 15:29:12.198047  4186 net.cpp:435] inception_2a/pool <- inception_1b/output_inception_1b/output_0_split_3
I1019 15:29:12.198052  4186 net.cpp:409] inception_2a/pool -> inception_2a/pool
I1019 15:29:12.198215  4186 net.cpp:141] Setting up inception_2a/pool
I1019 15:29:12.198222  4186 net.cpp:148] Top shape: 20 384 36 14 (3870720)
I1019 15:29:12.198225  4186 net.cpp:156] Memory required for data: 905103600
I1019 15:29:12.198236  4186 layer_factory.hpp:77] Creating layer inception_2a/pool_proj
I1019 15:29:12.198246  4186 net.cpp:91] Creating Layer inception_2a/pool_proj
I1019 15:29:12.198249  4186 net.cpp:435] inception_2a/pool_proj <- inception_2a/pool
I1019 15:29:12.198256  4186 net.cpp:409] inception_2a/pool_proj -> inception_2a/pool_proj
I1019 15:29:12.199653  4186 net.cpp:141] Setting up inception_2a/pool_proj
I1019 15:29:12.199666  4186 net.cpp:148] Top shape: 20 128 36 14 (1290240)
I1019 15:29:12.199668  4186 net.cpp:156] Memory required for data: 910264560
I1019 15:29:12.199683  4186 layer_factory.hpp:77] Creating layer inception_2a/pool_proj_bn
I1019 15:29:12.199687  4186 layer_factory.cpp:265] Layer inception_2a/pool_proj_bn is using CAFFE engine.
I1019 15:29:12.199692  4186 net.cpp:91] Creating Layer inception_2a/pool_proj_bn
I1019 15:29:12.199695  4186 net.cpp:435] inception_2a/pool_proj_bn <- inception_2a/pool_proj
I1019 15:29:12.199702  4186 net.cpp:409] inception_2a/pool_proj_bn -> inception_2a/pool_proj_bn
I1019 15:29:12.199906  4186 net.cpp:141] Setting up inception_2a/pool_proj_bn
I1019 15:29:12.199913  4186 net.cpp:148] Top shape: 20 128 36 14 (1290240)
I1019 15:29:12.199915  4186 net.cpp:156] Memory required for data: 915425520
I1019 15:29:12.199936  4186 layer_factory.hpp:77] Creating layer inception_2a/relu_pool_proj
I1019 15:29:12.199944  4186 net.cpp:91] Creating Layer inception_2a/relu_pool_proj
I1019 15:29:12.199946  4186 net.cpp:435] inception_2a/relu_pool_proj <- inception_2a/pool_proj_bn
I1019 15:29:12.199950  4186 net.cpp:396] inception_2a/relu_pool_proj -> inception_2a/pool_proj_bn (in-place)
I1019 15:29:12.200605  4186 net.cpp:141] Setting up inception_2a/relu_pool_proj
I1019 15:29:12.200615  4186 net.cpp:148] Top shape: 20 128 36 14 (1290240)
I1019 15:29:12.200618  4186 net.cpp:156] Memory required for data: 920586480
I1019 15:29:12.200620  4186 layer_factory.hpp:77] Creating layer inception_2a/output
I1019 15:29:12.200626  4186 net.cpp:91] Creating Layer inception_2a/output
I1019 15:29:12.200630  4186 net.cpp:435] inception_2a/output <- inception_2a/1x1_bn
I1019 15:29:12.200644  4186 net.cpp:435] inception_2a/output <- inception_2a/3x3_bn
I1019 15:29:12.200646  4186 net.cpp:435] inception_2a/output <- inception_2a/double_3x3_2_bn
I1019 15:29:12.200649  4186 net.cpp:435] inception_2a/output <- inception_2a/pool_proj_bn
I1019 15:29:12.200654  4186 net.cpp:409] inception_2a/output -> inception_2a/output
I1019 15:29:12.200692  4186 net.cpp:141] Setting up inception_2a/output
I1019 15:29:12.200698  4186 net.cpp:148] Top shape: 20 512 36 14 (5160960)
I1019 15:29:12.200700  4186 net.cpp:156] Memory required for data: 941230320
I1019 15:29:12.200702  4186 layer_factory.hpp:77] Creating layer inception_2a/output_inception_2a/output_0_split
I1019 15:29:12.200706  4186 net.cpp:91] Creating Layer inception_2a/output_inception_2a/output_0_split
I1019 15:29:12.200709  4186 net.cpp:435] inception_2a/output_inception_2a/output_0_split <- inception_2a/output
I1019 15:29:12.200714  4186 net.cpp:409] inception_2a/output_inception_2a/output_0_split -> inception_2a/output_inception_2a/output_0_split_0
I1019 15:29:12.200718  4186 net.cpp:409] inception_2a/output_inception_2a/output_0_split -> inception_2a/output_inception_2a/output_0_split_1
I1019 15:29:12.200731  4186 net.cpp:409] inception_2a/output_inception_2a/output_0_split -> inception_2a/output_inception_2a/output_0_split_2
I1019 15:29:12.200783  4186 net.cpp:141] Setting up inception_2a/output_inception_2a/output_0_split
I1019 15:29:12.200788  4186 net.cpp:148] Top shape: 20 512 36 14 (5160960)
I1019 15:29:12.200800  4186 net.cpp:148] Top shape: 20 512 36 14 (5160960)
I1019 15:29:12.200803  4186 net.cpp:148] Top shape: 20 512 36 14 (5160960)
I1019 15:29:12.200806  4186 net.cpp:156] Memory required for data: 1003161840
I1019 15:29:12.200809  4186 layer_factory.hpp:77] Creating layer inception_2b/3x3_reduce
I1019 15:29:12.200816  4186 net.cpp:91] Creating Layer inception_2b/3x3_reduce
I1019 15:29:12.200819  4186 net.cpp:435] inception_2b/3x3_reduce <- inception_2a/output_inception_2a/output_0_split_0
I1019 15:29:12.200824  4186 net.cpp:409] inception_2b/3x3_reduce -> inception_2b/3x3_reduce
I1019 15:29:12.203130  4186 net.cpp:141] Setting up inception_2b/3x3_reduce
I1019 15:29:12.203161  4186 net.cpp:148] Top shape: 20 128 36 14 (1290240)
I1019 15:29:12.203166  4186 net.cpp:156] Memory required for data: 1008322800
I1019 15:29:12.203173  4186 layer_factory.hpp:77] Creating layer inception_2b/3x3_reduce_bn
I1019 15:29:12.203176  4186 layer_factory.cpp:265] Layer inception_2b/3x3_reduce_bn is using CAFFE engine.
I1019 15:29:12.203182  4186 net.cpp:91] Creating Layer inception_2b/3x3_reduce_bn
I1019 15:29:12.203186  4186 net.cpp:435] inception_2b/3x3_reduce_bn <- inception_2b/3x3_reduce
I1019 15:29:12.203191  4186 net.cpp:409] inception_2b/3x3_reduce_bn -> inception_2b/3x3_reduce_bn
I1019 15:29:12.203475  4186 net.cpp:141] Setting up inception_2b/3x3_reduce_bn
I1019 15:29:12.203482  4186 net.cpp:148] Top shape: 20 128 36 14 (1290240)
I1019 15:29:12.203495  4186 net.cpp:156] Memory required for data: 1013483760
I1019 15:29:12.203501  4186 layer_factory.hpp:77] Creating layer inception_2b/relu_3x3_reduce
I1019 15:29:12.203506  4186 net.cpp:91] Creating Layer inception_2b/relu_3x3_reduce
I1019 15:29:12.203510  4186 net.cpp:435] inception_2b/relu_3x3_reduce <- inception_2b/3x3_reduce_bn
I1019 15:29:12.203512  4186 net.cpp:396] inception_2b/relu_3x3_reduce -> inception_2b/3x3_reduce_bn (in-place)
I1019 15:29:12.204308  4186 net.cpp:141] Setting up inception_2b/relu_3x3_reduce
I1019 15:29:12.204319  4186 net.cpp:148] Top shape: 20 128 36 14 (1290240)
I1019 15:29:12.204321  4186 net.cpp:156] Memory required for data: 1018644720
I1019 15:29:12.204324  4186 layer_factory.hpp:77] Creating layer inception_2b/3x3
I1019 15:29:12.204334  4186 net.cpp:91] Creating Layer inception_2b/3x3
I1019 15:29:12.204346  4186 net.cpp:435] inception_2b/3x3 <- inception_2b/3x3_reduce_bn
I1019 15:29:12.204351  4186 net.cpp:409] inception_2b/3x3 -> inception_2b/3x3
I1019 15:29:12.206434  4186 net.cpp:141] Setting up inception_2b/3x3
I1019 15:29:12.206445  4186 net.cpp:148] Top shape: 20 128 18 7 (322560)
I1019 15:29:12.206447  4186 net.cpp:156] Memory required for data: 1019934960
I1019 15:29:12.206454  4186 layer_factory.hpp:77] Creating layer inception_2b/3x3_bn
I1019 15:29:12.206456  4186 layer_factory.cpp:265] Layer inception_2b/3x3_bn is using CAFFE engine.
I1019 15:29:12.206472  4186 net.cpp:91] Creating Layer inception_2b/3x3_bn
I1019 15:29:12.206475  4186 net.cpp:435] inception_2b/3x3_bn <- inception_2b/3x3
I1019 15:29:12.206480  4186 net.cpp:409] inception_2b/3x3_bn -> inception_2b/3x3_bn
I1019 15:29:12.206681  4186 net.cpp:141] Setting up inception_2b/3x3_bn
I1019 15:29:12.206687  4186 net.cpp:148] Top shape: 20 128 18 7 (322560)
I1019 15:29:12.206689  4186 net.cpp:156] Memory required for data: 1021225200
I1019 15:29:12.206696  4186 layer_factory.hpp:77] Creating layer inception_2b/relu_3x3
I1019 15:29:12.206701  4186 net.cpp:91] Creating Layer inception_2b/relu_3x3
I1019 15:29:12.206703  4186 net.cpp:435] inception_2b/relu_3x3 <- inception_2b/3x3_bn
I1019 15:29:12.206715  4186 net.cpp:396] inception_2b/relu_3x3 -> inception_2b/3x3_bn (in-place)
I1019 15:29:12.206861  4186 net.cpp:141] Setting up inception_2b/relu_3x3
I1019 15:29:12.206868  4186 net.cpp:148] Top shape: 20 128 18 7 (322560)
I1019 15:29:12.206871  4186 net.cpp:156] Memory required for data: 1022515440
I1019 15:29:12.206873  4186 layer_factory.hpp:77] Creating layer inception_2b/double_3x3_reduce
I1019 15:29:12.206881  4186 net.cpp:91] Creating Layer inception_2b/double_3x3_reduce
I1019 15:29:12.206884  4186 net.cpp:435] inception_2b/double_3x3_reduce <- inception_2a/output_inception_2a/output_0_split_1
I1019 15:29:12.206898  4186 net.cpp:409] inception_2b/double_3x3_reduce -> inception_2b/double_3x3_reduce
I1019 15:29:12.208623  4186 net.cpp:141] Setting up inception_2b/double_3x3_reduce
I1019 15:29:12.208634  4186 net.cpp:148] Top shape: 20 128 36 14 (1290240)
I1019 15:29:12.208637  4186 net.cpp:156] Memory required for data: 1027676400
I1019 15:29:12.208653  4186 layer_factory.hpp:77] Creating layer inception_2b/double_3x3_reduce_bn
I1019 15:29:12.208657  4186 layer_factory.cpp:265] Layer inception_2b/double_3x3_reduce_bn is using CAFFE engine.
I1019 15:29:12.208662  4186 net.cpp:91] Creating Layer inception_2b/double_3x3_reduce_bn
I1019 15:29:12.208667  4186 net.cpp:435] inception_2b/double_3x3_reduce_bn <- inception_2b/double_3x3_reduce
I1019 15:29:12.208672  4186 net.cpp:409] inception_2b/double_3x3_reduce_bn -> inception_2b/double_3x3_reduce_bn
I1019 15:29:12.208873  4186 net.cpp:141] Setting up inception_2b/double_3x3_reduce_bn
I1019 15:29:12.208880  4186 net.cpp:148] Top shape: 20 128 36 14 (1290240)
I1019 15:29:12.208883  4186 net.cpp:156] Memory required for data: 1032837360
I1019 15:29:12.208899  4186 layer_factory.hpp:77] Creating layer inception_2b/relu_double_3x3_reduce
I1019 15:29:12.208904  4186 net.cpp:91] Creating Layer inception_2b/relu_double_3x3_reduce
I1019 15:29:12.208907  4186 net.cpp:435] inception_2b/relu_double_3x3_reduce <- inception_2b/double_3x3_reduce_bn
I1019 15:29:12.208911  4186 net.cpp:396] inception_2b/relu_double_3x3_reduce -> inception_2b/double_3x3_reduce_bn (in-place)
I1019 15:29:12.209055  4186 net.cpp:141] Setting up inception_2b/relu_double_3x3_reduce
I1019 15:29:12.209062  4186 net.cpp:148] Top shape: 20 128 36 14 (1290240)
I1019 15:29:12.209064  4186 net.cpp:156] Memory required for data: 1037998320
I1019 15:29:12.209076  4186 layer_factory.hpp:77] Creating layer inception_2b/double_3x3_1
I1019 15:29:12.209084  4186 net.cpp:91] Creating Layer inception_2b/double_3x3_1
I1019 15:29:12.209087  4186 net.cpp:435] inception_2b/double_3x3_1 <- inception_2b/double_3x3_reduce_bn
I1019 15:29:12.209092  4186 net.cpp:409] inception_2b/double_3x3_1 -> inception_2b/double_3x3_1
I1019 15:29:12.211683  4186 net.cpp:141] Setting up inception_2b/double_3x3_1
I1019 15:29:12.211711  4186 net.cpp:148] Top shape: 20 128 36 14 (1290240)
I1019 15:29:12.211724  4186 net.cpp:156] Memory required for data: 1043159280
I1019 15:29:12.211732  4186 layer_factory.hpp:77] Creating layer inception_2b/double_3x3_1_bn
I1019 15:29:12.211737  4186 layer_factory.cpp:265] Layer inception_2b/double_3x3_1_bn is using CAFFE engine.
I1019 15:29:12.211745  4186 net.cpp:91] Creating Layer inception_2b/double_3x3_1_bn
I1019 15:29:12.211750  4186 net.cpp:435] inception_2b/double_3x3_1_bn <- inception_2b/double_3x3_1
I1019 15:29:12.211756  4186 net.cpp:409] inception_2b/double_3x3_1_bn -> inception_2b/double_3x3_1_bn
I1019 15:29:12.212005  4186 net.cpp:141] Setting up inception_2b/double_3x3_1_bn
I1019 15:29:12.212013  4186 net.cpp:148] Top shape: 20 128 36 14 (1290240)
I1019 15:29:12.212024  4186 net.cpp:156] Memory required for data: 1048320240
I1019 15:29:12.212031  4186 layer_factory.hpp:77] Creating layer inception_2b/relu_double_3x3_1
I1019 15:29:12.212046  4186 net.cpp:91] Creating Layer inception_2b/relu_double_3x3_1
I1019 15:29:12.212049  4186 net.cpp:435] inception_2b/relu_double_3x3_1 <- inception_2b/double_3x3_1_bn
I1019 15:29:12.212054  4186 net.cpp:396] inception_2b/relu_double_3x3_1 -> inception_2b/double_3x3_1_bn (in-place)
I1019 15:29:12.212240  4186 net.cpp:141] Setting up inception_2b/relu_double_3x3_1
I1019 15:29:12.212249  4186 net.cpp:148] Top shape: 20 128 36 14 (1290240)
I1019 15:29:12.212260  4186 net.cpp:156] Memory required for data: 1053481200
I1019 15:29:12.212263  4186 layer_factory.hpp:77] Creating layer inception_2b/double_3x3_2
I1019 15:29:12.212282  4186 net.cpp:91] Creating Layer inception_2b/double_3x3_2
I1019 15:29:12.212286  4186 net.cpp:435] inception_2b/double_3x3_2 <- inception_2b/double_3x3_1_bn
I1019 15:29:12.212292  4186 net.cpp:409] inception_2b/double_3x3_2 -> inception_2b/double_3x3_2
I1019 15:29:12.215206  4186 net.cpp:141] Setting up inception_2b/double_3x3_2
I1019 15:29:12.215229  4186 net.cpp:148] Top shape: 20 128 18 7 (322560)
I1019 15:29:12.215232  4186 net.cpp:156] Memory required for data: 1054771440
I1019 15:29:12.215239  4186 layer_factory.hpp:77] Creating layer inception_2b/double_3x3_2_bn
I1019 15:29:12.215242  4186 layer_factory.cpp:265] Layer inception_2b/double_3x3_2_bn is using CAFFE engine.
I1019 15:29:12.215260  4186 net.cpp:91] Creating Layer inception_2b/double_3x3_2_bn
I1019 15:29:12.215263  4186 net.cpp:435] inception_2b/double_3x3_2_bn <- inception_2b/double_3x3_2
I1019 15:29:12.215270  4186 net.cpp:409] inception_2b/double_3x3_2_bn -> inception_2b/double_3x3_2_bn
I1019 15:29:12.215492  4186 net.cpp:141] Setting up inception_2b/double_3x3_2_bn
I1019 15:29:12.215497  4186 net.cpp:148] Top shape: 20 128 18 7 (322560)
I1019 15:29:12.215499  4186 net.cpp:156] Memory required for data: 1056061680
I1019 15:29:12.215505  4186 layer_factory.hpp:77] Creating layer inception_2b/relu_double_3x3_2
I1019 15:29:12.215510  4186 net.cpp:91] Creating Layer inception_2b/relu_double_3x3_2
I1019 15:29:12.215513  4186 net.cpp:435] inception_2b/relu_double_3x3_2 <- inception_2b/double_3x3_2_bn
I1019 15:29:12.215526  4186 net.cpp:396] inception_2b/relu_double_3x3_2 -> inception_2b/double_3x3_2_bn (in-place)
I1019 15:29:12.215677  4186 net.cpp:141] Setting up inception_2b/relu_double_3x3_2
I1019 15:29:12.215683  4186 net.cpp:148] Top shape: 20 128 18 7 (322560)
I1019 15:29:12.215685  4186 net.cpp:156] Memory required for data: 1057351920
I1019 15:29:12.215688  4186 layer_factory.hpp:77] Creating layer inception_2b/pool
I1019 15:29:12.215694  4186 net.cpp:91] Creating Layer inception_2b/pool
I1019 15:29:12.215698  4186 net.cpp:435] inception_2b/pool <- inception_2a/output_inception_2a/output_0_split_2
I1019 15:29:12.215711  4186 net.cpp:409] inception_2b/pool -> inception_2b/pool
I1019 15:29:12.215762  4186 net.cpp:141] Setting up inception_2b/pool
I1019 15:29:12.215768  4186 net.cpp:148] Top shape: 20 512 18 7 (1290240)
I1019 15:29:12.215770  4186 net.cpp:156] Memory required for data: 1062512880
I1019 15:29:12.215772  4186 layer_factory.hpp:77] Creating layer inception_2b/output
I1019 15:29:12.215777  4186 net.cpp:91] Creating Layer inception_2b/output
I1019 15:29:12.215780  4186 net.cpp:435] inception_2b/output <- inception_2b/3x3_bn
I1019 15:29:12.215783  4186 net.cpp:435] inception_2b/output <- inception_2b/double_3x3_2_bn
I1019 15:29:12.215795  4186 net.cpp:435] inception_2b/output <- inception_2b/pool
I1019 15:29:12.215801  4186 net.cpp:409] inception_2b/output -> inception_2b/output
I1019 15:29:12.215822  4186 net.cpp:141] Setting up inception_2b/output
I1019 15:29:12.215827  4186 net.cpp:148] Top shape: 20 768 18 7 (1935360)
I1019 15:29:12.215831  4186 net.cpp:156] Memory required for data: 1070254320
I1019 15:29:12.215842  4186 layer_factory.hpp:77] Creating layer inception_2b/output_inception_2b/output_0_split
I1019 15:29:12.215845  4186 net.cpp:91] Creating Layer inception_2b/output_inception_2b/output_0_split
I1019 15:29:12.215848  4186 net.cpp:435] inception_2b/output_inception_2b/output_0_split <- inception_2b/output
I1019 15:29:12.215862  4186 net.cpp:409] inception_2b/output_inception_2b/output_0_split -> inception_2b/output_inception_2b/output_0_split_0
I1019 15:29:12.215867  4186 net.cpp:409] inception_2b/output_inception_2b/output_0_split -> inception_2b/output_inception_2b/output_0_split_1
I1019 15:29:12.215872  4186 net.cpp:409] inception_2b/output_inception_2b/output_0_split -> inception_2b/output_inception_2b/output_0_split_2
I1019 15:29:12.215875  4186 net.cpp:409] inception_2b/output_inception_2b/output_0_split -> inception_2b/output_inception_2b/output_0_split_3
I1019 15:29:12.215934  4186 net.cpp:141] Setting up inception_2b/output_inception_2b/output_0_split
I1019 15:29:12.215939  4186 net.cpp:148] Top shape: 20 768 18 7 (1935360)
I1019 15:29:12.215942  4186 net.cpp:148] Top shape: 20 768 18 7 (1935360)
I1019 15:29:12.215955  4186 net.cpp:148] Top shape: 20 768 18 7 (1935360)
I1019 15:29:12.215957  4186 net.cpp:148] Top shape: 20 768 18 7 (1935360)
I1019 15:29:12.215960  4186 net.cpp:156] Memory required for data: 1101220080
I1019 15:29:12.215961  4186 layer_factory.hpp:77] Creating layer inception_3a/1x1
I1019 15:29:12.215971  4186 net.cpp:91] Creating Layer inception_3a/1x1
I1019 15:29:12.215975  4186 net.cpp:435] inception_3a/1x1 <- inception_2b/output_inception_2b/output_0_split_0
I1019 15:29:12.215978  4186 net.cpp:409] inception_3a/1x1 -> inception_3a/1x1
I1019 15:29:12.218369  4186 net.cpp:141] Setting up inception_3a/1x1
I1019 15:29:12.218379  4186 net.cpp:148] Top shape: 20 256 18 7 (645120)
I1019 15:29:12.218382  4186 net.cpp:156] Memory required for data: 1103800560
I1019 15:29:12.218387  4186 layer_factory.hpp:77] Creating layer inception_3a/1x1_bn
I1019 15:29:12.218390  4186 layer_factory.cpp:265] Layer inception_3a/1x1_bn is using CAFFE engine.
I1019 15:29:12.218396  4186 net.cpp:91] Creating Layer inception_3a/1x1_bn
I1019 15:29:12.218410  4186 net.cpp:435] inception_3a/1x1_bn <- inception_3a/1x1
I1019 15:29:12.218415  4186 net.cpp:409] inception_3a/1x1_bn -> inception_3a/1x1_bn
I1019 15:29:12.218617  4186 net.cpp:141] Setting up inception_3a/1x1_bn
I1019 15:29:12.218623  4186 net.cpp:148] Top shape: 20 256 18 7 (645120)
I1019 15:29:12.218626  4186 net.cpp:156] Memory required for data: 1106381040
I1019 15:29:12.218631  4186 layer_factory.hpp:77] Creating layer inception_3a/relu_1x1
I1019 15:29:12.218636  4186 net.cpp:91] Creating Layer inception_3a/relu_1x1
I1019 15:29:12.218638  4186 net.cpp:435] inception_3a/relu_1x1 <- inception_3a/1x1_bn
I1019 15:29:12.218652  4186 net.cpp:396] inception_3a/relu_1x1 -> inception_3a/1x1_bn (in-place)
I1019 15:29:12.218797  4186 net.cpp:141] Setting up inception_3a/relu_1x1
I1019 15:29:12.218804  4186 net.cpp:148] Top shape: 20 256 18 7 (645120)
I1019 15:29:12.218806  4186 net.cpp:156] Memory required for data: 1108961520
I1019 15:29:12.218808  4186 layer_factory.hpp:77] Creating layer inception_3a/3x3_reduce
I1019 15:29:12.218816  4186 net.cpp:91] Creating Layer inception_3a/3x3_reduce
I1019 15:29:12.218819  4186 net.cpp:435] inception_3a/3x3_reduce <- inception_2b/output_inception_2b/output_0_split_1
I1019 15:29:12.218833  4186 net.cpp:409] inception_3a/3x3_reduce -> inception_3a/3x3_reduce
I1019 15:29:12.221724  4186 net.cpp:141] Setting up inception_3a/3x3_reduce
I1019 15:29:12.221736  4186 net.cpp:148] Top shape: 20 256 18 7 (645120)
I1019 15:29:12.221740  4186 net.cpp:156] Memory required for data: 1111542000
I1019 15:29:12.221745  4186 layer_factory.hpp:77] Creating layer inception_3a/3x3_reduce_bn
I1019 15:29:12.221748  4186 layer_factory.cpp:265] Layer inception_3a/3x3_reduce_bn is using CAFFE engine.
I1019 15:29:12.221753  4186 net.cpp:91] Creating Layer inception_3a/3x3_reduce_bn
I1019 15:29:12.221766  4186 net.cpp:435] inception_3a/3x3_reduce_bn <- inception_3a/3x3_reduce
I1019 15:29:12.221771  4186 net.cpp:409] inception_3a/3x3_reduce_bn -> inception_3a/3x3_reduce_bn
I1019 15:29:12.222019  4186 net.cpp:141] Setting up inception_3a/3x3_reduce_bn
I1019 15:29:12.222025  4186 net.cpp:148] Top shape: 20 256 18 7 (645120)
I1019 15:29:12.222038  4186 net.cpp:156] Memory required for data: 1114122480
I1019 15:29:12.222044  4186 layer_factory.hpp:77] Creating layer inception_3a/relu_3x3_reduce
I1019 15:29:12.222059  4186 net.cpp:91] Creating Layer inception_3a/relu_3x3_reduce
I1019 15:29:12.222061  4186 net.cpp:435] inception_3a/relu_3x3_reduce <- inception_3a/3x3_reduce_bn
I1019 15:29:12.222064  4186 net.cpp:396] inception_3a/relu_3x3_reduce -> inception_3a/3x3_reduce_bn (in-place)
I1019 15:29:12.222849  4186 net.cpp:141] Setting up inception_3a/relu_3x3_reduce
I1019 15:29:12.222860  4186 net.cpp:148] Top shape: 20 256 18 7 (645120)
I1019 15:29:12.222872  4186 net.cpp:156] Memory required for data: 1116702960
I1019 15:29:12.222874  4186 layer_factory.hpp:77] Creating layer inception_3a/3x3
I1019 15:29:12.222893  4186 net.cpp:91] Creating Layer inception_3a/3x3
I1019 15:29:12.222898  4186 net.cpp:435] inception_3a/3x3 <- inception_3a/3x3_reduce_bn
I1019 15:29:12.222903  4186 net.cpp:409] inception_3a/3x3 -> inception_3a/3x3
I1019 15:29:12.228744  4186 net.cpp:141] Setting up inception_3a/3x3
I1019 15:29:12.228772  4186 net.cpp:148] Top shape: 20 256 18 7 (645120)
I1019 15:29:12.228775  4186 net.cpp:156] Memory required for data: 1119283440
I1019 15:29:12.228785  4186 layer_factory.hpp:77] Creating layer inception_3a/3x3_bn
I1019 15:29:12.228790  4186 layer_factory.cpp:265] Layer inception_3a/3x3_bn is using CAFFE engine.
I1019 15:29:12.228809  4186 net.cpp:91] Creating Layer inception_3a/3x3_bn
I1019 15:29:12.228814  4186 net.cpp:435] inception_3a/3x3_bn <- inception_3a/3x3
I1019 15:29:12.228821  4186 net.cpp:409] inception_3a/3x3_bn -> inception_3a/3x3_bn
I1019 15:29:12.229059  4186 net.cpp:141] Setting up inception_3a/3x3_bn
I1019 15:29:12.229068  4186 net.cpp:148] Top shape: 20 256 18 7 (645120)
I1019 15:29:12.229079  4186 net.cpp:156] Memory required for data: 1121863920
I1019 15:29:12.229086  4186 layer_factory.hpp:77] Creating layer inception_3a/relu_3x3
I1019 15:29:12.229091  4186 net.cpp:91] Creating Layer inception_3a/relu_3x3
I1019 15:29:12.229094  4186 net.cpp:435] inception_3a/relu_3x3 <- inception_3a/3x3_bn
I1019 15:29:12.229110  4186 net.cpp:396] inception_3a/relu_3x3 -> inception_3a/3x3_bn (in-place)
I1019 15:29:12.229279  4186 net.cpp:141] Setting up inception_3a/relu_3x3
I1019 15:29:12.229287  4186 net.cpp:148] Top shape: 20 256 18 7 (645120)
I1019 15:29:12.229300  4186 net.cpp:156] Memory required for data: 1124444400
I1019 15:29:12.229302  4186 layer_factory.hpp:77] Creating layer inception_3a/double_3x3_reduce
I1019 15:29:12.229311  4186 net.cpp:91] Creating Layer inception_3a/double_3x3_reduce
I1019 15:29:12.229315  4186 net.cpp:435] inception_3a/double_3x3_reduce <- inception_2b/output_inception_2b/output_0_split_2
I1019 15:29:12.229323  4186 net.cpp:409] inception_3a/double_3x3_reduce -> inception_3a/double_3x3_reduce
I1019 15:29:12.231726  4186 net.cpp:141] Setting up inception_3a/double_3x3_reduce
I1019 15:29:12.231737  4186 net.cpp:148] Top shape: 20 256 18 7 (645120)
I1019 15:29:12.231740  4186 net.cpp:156] Memory required for data: 1127024880
I1019 15:29:12.231746  4186 layer_factory.hpp:77] Creating layer inception_3a/double_3x3_reduce_bn
I1019 15:29:12.231750  4186 layer_factory.cpp:265] Layer inception_3a/double_3x3_reduce_bn is using CAFFE engine.
I1019 15:29:12.231756  4186 net.cpp:91] Creating Layer inception_3a/double_3x3_reduce_bn
I1019 15:29:12.231770  4186 net.cpp:435] inception_3a/double_3x3_reduce_bn <- inception_3a/double_3x3_reduce
I1019 15:29:12.231775  4186 net.cpp:409] inception_3a/double_3x3_reduce_bn -> inception_3a/double_3x3_reduce_bn
I1019 15:29:12.231982  4186 net.cpp:141] Setting up inception_3a/double_3x3_reduce_bn
I1019 15:29:12.231989  4186 net.cpp:148] Top shape: 20 256 18 7 (645120)
I1019 15:29:12.231992  4186 net.cpp:156] Memory required for data: 1129605360
I1019 15:29:12.232007  4186 layer_factory.hpp:77] Creating layer inception_3a/relu_double_3x3_reduce
I1019 15:29:12.232012  4186 net.cpp:91] Creating Layer inception_3a/relu_double_3x3_reduce
I1019 15:29:12.232015  4186 net.cpp:435] inception_3a/relu_double_3x3_reduce <- inception_3a/double_3x3_reduce_bn
I1019 15:29:12.232019  4186 net.cpp:396] inception_3a/relu_double_3x3_reduce -> inception_3a/double_3x3_reduce_bn (in-place)
I1019 15:29:12.232192  4186 net.cpp:141] Setting up inception_3a/relu_double_3x3_reduce
I1019 15:29:12.232200  4186 net.cpp:148] Top shape: 20 256 18 7 (645120)
I1019 15:29:12.232213  4186 net.cpp:156] Memory required for data: 1132185840
I1019 15:29:12.232215  4186 layer_factory.hpp:77] Creating layer inception_3a/double_3x3_1
I1019 15:29:12.232225  4186 net.cpp:91] Creating Layer inception_3a/double_3x3_1
I1019 15:29:12.232239  4186 net.cpp:435] inception_3a/double_3x3_1 <- inception_3a/double_3x3_reduce_bn
I1019 15:29:12.232244  4186 net.cpp:409] inception_3a/double_3x3_1 -> inception_3a/double_3x3_1
I1019 15:29:12.238363  4186 net.cpp:141] Setting up inception_3a/double_3x3_1
I1019 15:29:12.238389  4186 net.cpp:148] Top shape: 20 256 18 7 (645120)
I1019 15:29:12.238394  4186 net.cpp:156] Memory required for data: 1134766320
I1019 15:29:12.238400  4186 layer_factory.hpp:77] Creating layer inception_3a/double_3x3_1_bn
I1019 15:29:12.238415  4186 layer_factory.cpp:265] Layer inception_3a/double_3x3_1_bn is using CAFFE engine.
I1019 15:29:12.238422  4186 net.cpp:91] Creating Layer inception_3a/double_3x3_1_bn
I1019 15:29:12.238427  4186 net.cpp:435] inception_3a/double_3x3_1_bn <- inception_3a/double_3x3_1
I1019 15:29:12.238435  4186 net.cpp:409] inception_3a/double_3x3_1_bn -> inception_3a/double_3x3_1_bn
I1019 15:29:12.238672  4186 net.cpp:141] Setting up inception_3a/double_3x3_1_bn
I1019 15:29:12.238679  4186 net.cpp:148] Top shape: 20 256 18 7 (645120)
I1019 15:29:12.238692  4186 net.cpp:156] Memory required for data: 1137346800
I1019 15:29:12.238698  4186 layer_factory.hpp:77] Creating layer inception_3a/relu_double_3x3_1
I1019 15:29:12.238713  4186 net.cpp:91] Creating Layer inception_3a/relu_double_3x3_1
I1019 15:29:12.238715  4186 net.cpp:435] inception_3a/relu_double_3x3_1 <- inception_3a/double_3x3_1_bn
I1019 15:29:12.238720  4186 net.cpp:396] inception_3a/relu_double_3x3_1 -> inception_3a/double_3x3_1_bn (in-place)
I1019 15:29:12.238889  4186 net.cpp:141] Setting up inception_3a/relu_double_3x3_1
I1019 15:29:12.238898  4186 net.cpp:148] Top shape: 20 256 18 7 (645120)
I1019 15:29:12.238910  4186 net.cpp:156] Memory required for data: 1139927280
I1019 15:29:12.238912  4186 layer_factory.hpp:77] Creating layer inception_3a/double_3x3_2
I1019 15:29:12.238931  4186 net.cpp:91] Creating Layer inception_3a/double_3x3_2
I1019 15:29:12.238934  4186 net.cpp:435] inception_3a/double_3x3_2 <- inception_3a/double_3x3_1_bn
I1019 15:29:12.238941  4186 net.cpp:409] inception_3a/double_3x3_2 -> inception_3a/double_3x3_2
I1019 15:29:12.244992  4186 net.cpp:141] Setting up inception_3a/double_3x3_2
I1019 15:29:12.245015  4186 net.cpp:148] Top shape: 20 256 18 7 (645120)
I1019 15:29:12.245018  4186 net.cpp:156] Memory required for data: 1142507760
I1019 15:29:12.245029  4186 layer_factory.hpp:77] Creating layer inception_3a/double_3x3_2_bn
I1019 15:29:12.245034  4186 layer_factory.cpp:265] Layer inception_3a/double_3x3_2_bn is using CAFFE engine.
I1019 15:29:12.245055  4186 net.cpp:91] Creating Layer inception_3a/double_3x3_2_bn
I1019 15:29:12.245060  4186 net.cpp:435] inception_3a/double_3x3_2_bn <- inception_3a/double_3x3_2
I1019 15:29:12.245067  4186 net.cpp:409] inception_3a/double_3x3_2_bn -> inception_3a/double_3x3_2_bn
I1019 15:29:12.245311  4186 net.cpp:141] Setting up inception_3a/double_3x3_2_bn
I1019 15:29:12.245317  4186 net.cpp:148] Top shape: 20 256 18 7 (645120)
I1019 15:29:12.245319  4186 net.cpp:156] Memory required for data: 1145088240
I1019 15:29:12.245326  4186 layer_factory.hpp:77] Creating layer inception_3a/relu_double_3x3_2
I1019 15:29:12.245331  4186 net.cpp:91] Creating Layer inception_3a/relu_double_3x3_2
I1019 15:29:12.245333  4186 net.cpp:435] inception_3a/relu_double_3x3_2 <- inception_3a/double_3x3_2_bn
I1019 15:29:12.245337  4186 net.cpp:396] inception_3a/relu_double_3x3_2 -> inception_3a/double_3x3_2_bn (in-place)
I1019 15:29:12.245510  4186 net.cpp:141] Setting up inception_3a/relu_double_3x3_2
I1019 15:29:12.245518  4186 net.cpp:148] Top shape: 20 256 18 7 (645120)
I1019 15:29:12.245520  4186 net.cpp:156] Memory required for data: 1147668720
I1019 15:29:12.245523  4186 layer_factory.hpp:77] Creating layer inception_3a/pool
I1019 15:29:12.245529  4186 net.cpp:91] Creating Layer inception_3a/pool
I1019 15:29:12.245533  4186 net.cpp:435] inception_3a/pool <- inception_2b/output_inception_2b/output_0_split_3
I1019 15:29:12.245548  4186 net.cpp:409] inception_3a/pool -> inception_3a/pool
I1019 15:29:12.246322  4186 net.cpp:141] Setting up inception_3a/pool
I1019 15:29:12.246333  4186 net.cpp:148] Top shape: 20 768 18 7 (1935360)
I1019 15:29:12.246337  4186 net.cpp:156] Memory required for data: 1155410160
I1019 15:29:12.246340  4186 layer_factory.hpp:77] Creating layer inception_3a/pool_proj
I1019 15:29:12.246350  4186 net.cpp:91] Creating Layer inception_3a/pool_proj
I1019 15:29:12.246354  4186 net.cpp:435] inception_3a/pool_proj <- inception_3a/pool
I1019 15:29:12.246361  4186 net.cpp:409] inception_3a/pool_proj -> inception_3a/pool_proj
I1019 15:29:12.249056  4186 net.cpp:141] Setting up inception_3a/pool_proj
I1019 15:29:12.249068  4186 net.cpp:148] Top shape: 20 256 18 7 (645120)
I1019 15:29:12.249071  4186 net.cpp:156] Memory required for data: 1157990640
I1019 15:29:12.249078  4186 layer_factory.hpp:77] Creating layer inception_3a/pool_proj_bn
I1019 15:29:12.249080  4186 layer_factory.cpp:265] Layer inception_3a/pool_proj_bn is using CAFFE engine.
I1019 15:29:12.249086  4186 net.cpp:91] Creating Layer inception_3a/pool_proj_bn
I1019 15:29:12.249100  4186 net.cpp:435] inception_3a/pool_proj_bn <- inception_3a/pool_proj
I1019 15:29:12.249106  4186 net.cpp:409] inception_3a/pool_proj_bn -> inception_3a/pool_proj_bn
I1019 15:29:12.249325  4186 net.cpp:141] Setting up inception_3a/pool_proj_bn
I1019 15:29:12.249332  4186 net.cpp:148] Top shape: 20 256 18 7 (645120)
I1019 15:29:12.249336  4186 net.cpp:156] Memory required for data: 1160571120
I1019 15:29:12.249341  4186 layer_factory.hpp:77] Creating layer inception_3a/relu_pool_proj
I1019 15:29:12.249356  4186 net.cpp:91] Creating Layer inception_3a/relu_pool_proj
I1019 15:29:12.249358  4186 net.cpp:435] inception_3a/relu_pool_proj <- inception_3a/pool_proj_bn
I1019 15:29:12.249361  4186 net.cpp:396] inception_3a/relu_pool_proj -> inception_3a/pool_proj_bn (in-place)
I1019 15:29:12.250039  4186 net.cpp:141] Setting up inception_3a/relu_pool_proj
I1019 15:29:12.250051  4186 net.cpp:148] Top shape: 20 256 18 7 (645120)
I1019 15:29:12.250053  4186 net.cpp:156] Memory required for data: 1163151600
I1019 15:29:12.250056  4186 layer_factory.hpp:77] Creating layer inception_3a/output
I1019 15:29:12.250062  4186 net.cpp:91] Creating Layer inception_3a/output
I1019 15:29:12.250066  4186 net.cpp:435] inception_3a/output <- inception_3a/1x1_bn
I1019 15:29:12.250071  4186 net.cpp:435] inception_3a/output <- inception_3a/3x3_bn
I1019 15:29:12.250083  4186 net.cpp:435] inception_3a/output <- inception_3a/double_3x3_2_bn
I1019 15:29:12.250087  4186 net.cpp:435] inception_3a/output <- inception_3a/pool_proj_bn
I1019 15:29:12.250090  4186 net.cpp:409] inception_3a/output -> inception_3a/output
I1019 15:29:12.250124  4186 net.cpp:141] Setting up inception_3a/output
I1019 15:29:12.250140  4186 net.cpp:148] Top shape: 20 1024 18 7 (2580480)
I1019 15:29:12.250142  4186 net.cpp:156] Memory required for data: 1173473520
I1019 15:29:12.250144  4186 layer_factory.hpp:77] Creating layer inception_3a/output_inception_3a/output_0_split
I1019 15:29:12.250149  4186 net.cpp:91] Creating Layer inception_3a/output_inception_3a/output_0_split
I1019 15:29:12.250151  4186 net.cpp:435] inception_3a/output_inception_3a/output_0_split <- inception_3a/output
I1019 15:29:12.250156  4186 net.cpp:409] inception_3a/output_inception_3a/output_0_split -> inception_3a/output_inception_3a/output_0_split_0
I1019 15:29:12.250161  4186 net.cpp:409] inception_3a/output_inception_3a/output_0_split -> inception_3a/output_inception_3a/output_0_split_1
I1019 15:29:12.250165  4186 net.cpp:409] inception_3a/output_inception_3a/output_0_split -> inception_3a/output_inception_3a/output_0_split_2
I1019 15:29:12.250231  4186 net.cpp:141] Setting up inception_3a/output_inception_3a/output_0_split
I1019 15:29:12.250236  4186 net.cpp:148] Top shape: 20 1024 18 7 (2580480)
I1019 15:29:12.250239  4186 net.cpp:148] Top shape: 20 1024 18 7 (2580480)
I1019 15:29:12.250241  4186 net.cpp:148] Top shape: 20 1024 18 7 (2580480)
I1019 15:29:12.250243  4186 net.cpp:156] Memory required for data: 1204439280
I1019 15:29:12.250247  4186 layer_factory.hpp:77] Creating layer inception_3b/3x3_reduce
I1019 15:29:12.250254  4186 net.cpp:91] Creating Layer inception_3b/3x3_reduce
I1019 15:29:12.250257  4186 net.cpp:435] inception_3b/3x3_reduce <- inception_3a/output_inception_3a/output_0_split_0
I1019 15:29:12.250272  4186 net.cpp:409] inception_3b/3x3_reduce -> inception_3b/3x3_reduce
I1019 15:29:12.252916  4186 net.cpp:141] Setting up inception_3b/3x3_reduce
I1019 15:29:12.252929  4186 net.cpp:148] Top shape: 20 256 18 7 (645120)
I1019 15:29:12.252931  4186 net.cpp:156] Memory required for data: 1207019760
I1019 15:29:12.252938  4186 layer_factory.hpp:77] Creating layer inception_3b/3x3_reduce_bn
I1019 15:29:12.252941  4186 layer_factory.cpp:265] Layer inception_3b/3x3_reduce_bn is using CAFFE engine.
I1019 15:29:12.252948  4186 net.cpp:91] Creating Layer inception_3b/3x3_reduce_bn
I1019 15:29:12.252951  4186 net.cpp:435] inception_3b/3x3_reduce_bn <- inception_3b/3x3_reduce
I1019 15:29:12.252956  4186 net.cpp:409] inception_3b/3x3_reduce_bn -> inception_3b/3x3_reduce_bn
I1019 15:29:12.253163  4186 net.cpp:141] Setting up inception_3b/3x3_reduce_bn
I1019 15:29:12.253170  4186 net.cpp:148] Top shape: 20 256 18 7 (645120)
I1019 15:29:12.253172  4186 net.cpp:156] Memory required for data: 1209600240
I1019 15:29:12.253178  4186 layer_factory.hpp:77] Creating layer inception_3b/relu_3x3_reduce
I1019 15:29:12.253182  4186 net.cpp:91] Creating Layer inception_3b/relu_3x3_reduce
I1019 15:29:12.253185  4186 net.cpp:435] inception_3b/relu_3x3_reduce <- inception_3b/3x3_reduce_bn
I1019 15:29:12.253190  4186 net.cpp:396] inception_3b/relu_3x3_reduce -> inception_3b/3x3_reduce_bn (in-place)
I1019 15:29:12.253334  4186 net.cpp:141] Setting up inception_3b/relu_3x3_reduce
I1019 15:29:12.253340  4186 net.cpp:148] Top shape: 20 256 18 7 (645120)
I1019 15:29:12.253342  4186 net.cpp:156] Memory required for data: 1212180720
I1019 15:29:12.253345  4186 layer_factory.hpp:77] Creating layer inception_3b/3x3
I1019 15:29:12.253352  4186 net.cpp:91] Creating Layer inception_3b/3x3
I1019 15:29:12.253356  4186 net.cpp:435] inception_3b/3x3 <- inception_3b/3x3_reduce_bn
I1019 15:29:12.253361  4186 net.cpp:409] inception_3b/3x3 -> inception_3b/3x3
I1019 15:29:12.258836  4186 net.cpp:141] Setting up inception_3b/3x3
I1019 15:29:12.258852  4186 net.cpp:148] Top shape: 20 256 9 4 (184320)
I1019 15:29:12.258854  4186 net.cpp:156] Memory required for data: 1212918000
I1019 15:29:12.258862  4186 layer_factory.hpp:77] Creating layer inception_3b/3x3_bn
I1019 15:29:12.258865  4186 layer_factory.cpp:265] Layer inception_3b/3x3_bn is using CAFFE engine.
I1019 15:29:12.258872  4186 net.cpp:91] Creating Layer inception_3b/3x3_bn
I1019 15:29:12.258877  4186 net.cpp:435] inception_3b/3x3_bn <- inception_3b/3x3
I1019 15:29:12.258882  4186 net.cpp:409] inception_3b/3x3_bn -> inception_3b/3x3_bn
I1019 15:29:12.259099  4186 net.cpp:141] Setting up inception_3b/3x3_bn
I1019 15:29:12.259104  4186 net.cpp:148] Top shape: 20 256 9 4 (184320)
I1019 15:29:12.259107  4186 net.cpp:156] Memory required for data: 1213655280
I1019 15:29:12.259114  4186 layer_factory.hpp:77] Creating layer inception_3b/relu_3x3
I1019 15:29:12.259119  4186 net.cpp:91] Creating Layer inception_3b/relu_3x3
I1019 15:29:12.259120  4186 net.cpp:435] inception_3b/relu_3x3 <- inception_3b/3x3_bn
I1019 15:29:12.259125  4186 net.cpp:396] inception_3b/relu_3x3 -> inception_3b/3x3_bn (in-place)
I1019 15:29:12.259268  4186 net.cpp:141] Setting up inception_3b/relu_3x3
I1019 15:29:12.259275  4186 net.cpp:148] Top shape: 20 256 9 4 (184320)
I1019 15:29:12.259277  4186 net.cpp:156] Memory required for data: 1214392560
I1019 15:29:12.259280  4186 layer_factory.hpp:77] Creating layer inception_3b/double_3x3_reduce
I1019 15:29:12.259289  4186 net.cpp:91] Creating Layer inception_3b/double_3x3_reduce
I1019 15:29:12.259291  4186 net.cpp:435] inception_3b/double_3x3_reduce <- inception_3a/output_inception_3a/output_0_split_1
I1019 15:29:12.259297  4186 net.cpp:409] inception_3b/double_3x3_reduce -> inception_3b/double_3x3_reduce
I1019 15:29:12.262902  4186 net.cpp:141] Setting up inception_3b/double_3x3_reduce
I1019 15:29:12.262930  4186 net.cpp:148] Top shape: 20 256 18 7 (645120)
I1019 15:29:12.262934  4186 net.cpp:156] Memory required for data: 1216973040
I1019 15:29:12.262941  4186 layer_factory.hpp:77] Creating layer inception_3b/double_3x3_reduce_bn
I1019 15:29:12.262946  4186 layer_factory.cpp:265] Layer inception_3b/double_3x3_reduce_bn is using CAFFE engine.
I1019 15:29:12.262956  4186 net.cpp:91] Creating Layer inception_3b/double_3x3_reduce_bn
I1019 15:29:12.262962  4186 net.cpp:435] inception_3b/double_3x3_reduce_bn <- inception_3b/double_3x3_reduce
I1019 15:29:12.262969  4186 net.cpp:409] inception_3b/double_3x3_reduce_bn -> inception_3b/double_3x3_reduce_bn
I1019 15:29:12.263203  4186 net.cpp:141] Setting up inception_3b/double_3x3_reduce_bn
I1019 15:29:12.263211  4186 net.cpp:148] Top shape: 20 256 18 7 (645120)
I1019 15:29:12.263222  4186 net.cpp:156] Memory required for data: 1219553520
I1019 15:29:12.263229  4186 layer_factory.hpp:77] Creating layer inception_3b/relu_double_3x3_reduce
I1019 15:29:12.263244  4186 net.cpp:91] Creating Layer inception_3b/relu_double_3x3_reduce
I1019 15:29:12.263247  4186 net.cpp:435] inception_3b/relu_double_3x3_reduce <- inception_3b/double_3x3_reduce_bn
I1019 15:29:12.263250  4186 net.cpp:396] inception_3b/relu_double_3x3_reduce -> inception_3b/double_3x3_reduce_bn (in-place)
I1019 15:29:12.263417  4186 net.cpp:141] Setting up inception_3b/relu_double_3x3_reduce
I1019 15:29:12.263423  4186 net.cpp:148] Top shape: 20 256 18 7 (645120)
I1019 15:29:12.263435  4186 net.cpp:156] Memory required for data: 1222134000
I1019 15:29:12.263438  4186 layer_factory.hpp:77] Creating layer inception_3b/double_3x3_1
I1019 15:29:12.263456  4186 net.cpp:91] Creating Layer inception_3b/double_3x3_1
I1019 15:29:12.263459  4186 net.cpp:435] inception_3b/double_3x3_1 <- inception_3b/double_3x3_reduce_bn
I1019 15:29:12.263465  4186 net.cpp:409] inception_3b/double_3x3_1 -> inception_3b/double_3x3_1
I1019 15:29:12.270043  4186 net.cpp:141] Setting up inception_3b/double_3x3_1
I1019 15:29:12.270072  4186 net.cpp:148] Top shape: 20 256 18 7 (645120)
I1019 15:29:12.270076  4186 net.cpp:156] Memory required for data: 1224714480
I1019 15:29:12.270086  4186 layer_factory.hpp:77] Creating layer inception_3b/double_3x3_1_bn
I1019 15:29:12.270090  4186 layer_factory.cpp:265] Layer inception_3b/double_3x3_1_bn is using CAFFE engine.
I1019 15:29:12.270097  4186 net.cpp:91] Creating Layer inception_3b/double_3x3_1_bn
I1019 15:29:12.270103  4186 net.cpp:435] inception_3b/double_3x3_1_bn <- inception_3b/double_3x3_1
I1019 15:29:12.270109  4186 net.cpp:409] inception_3b/double_3x3_1_bn -> inception_3b/double_3x3_1_bn
I1019 15:29:12.270332  4186 net.cpp:141] Setting up inception_3b/double_3x3_1_bn
I1019 15:29:12.270339  4186 net.cpp:148] Top shape: 20 256 18 7 (645120)
I1019 15:29:12.270341  4186 net.cpp:156] Memory required for data: 1227294960
I1019 15:29:12.270347  4186 layer_factory.hpp:77] Creating layer inception_3b/relu_double_3x3_1
I1019 15:29:12.270352  4186 net.cpp:91] Creating Layer inception_3b/relu_double_3x3_1
I1019 15:29:12.270355  4186 net.cpp:435] inception_3b/relu_double_3x3_1 <- inception_3b/double_3x3_1_bn
I1019 15:29:12.270367  4186 net.cpp:396] inception_3b/relu_double_3x3_1 -> inception_3b/double_3x3_1_bn (in-place)
I1019 15:29:12.270529  4186 net.cpp:141] Setting up inception_3b/relu_double_3x3_1
I1019 15:29:12.270537  4186 net.cpp:148] Top shape: 20 256 18 7 (645120)
I1019 15:29:12.270540  4186 net.cpp:156] Memory required for data: 1229875440
I1019 15:29:12.270542  4186 layer_factory.hpp:77] Creating layer inception_3b/double_3x3_2
I1019 15:29:12.270551  4186 net.cpp:91] Creating Layer inception_3b/double_3x3_2
I1019 15:29:12.270565  4186 net.cpp:435] inception_3b/double_3x3_2 <- inception_3b/double_3x3_1_bn
I1019 15:29:12.270568  4186 net.cpp:409] inception_3b/double_3x3_2 -> inception_3b/double_3x3_2
I1019 15:29:12.276285  4186 net.cpp:141] Setting up inception_3b/double_3x3_2
I1019 15:29:12.276314  4186 net.cpp:148] Top shape: 20 256 9 4 (184320)
I1019 15:29:12.276319  4186 net.cpp:156] Memory required for data: 1230612720
I1019 15:29:12.276325  4186 layer_factory.hpp:77] Creating layer inception_3b/double_3x3_2_bn
I1019 15:29:12.276330  4186 layer_factory.cpp:265] Layer inception_3b/double_3x3_2_bn is using CAFFE engine.
I1019 15:29:12.276348  4186 net.cpp:91] Creating Layer inception_3b/double_3x3_2_bn
I1019 15:29:12.276353  4186 net.cpp:435] inception_3b/double_3x3_2_bn <- inception_3b/double_3x3_2
I1019 15:29:12.276360  4186 net.cpp:409] inception_3b/double_3x3_2_bn -> inception_3b/double_3x3_2_bn
I1019 15:29:12.276598  4186 net.cpp:141] Setting up inception_3b/double_3x3_2_bn
I1019 15:29:12.276605  4186 net.cpp:148] Top shape: 20 256 9 4 (184320)
I1019 15:29:12.276618  4186 net.cpp:156] Memory required for data: 1231350000
I1019 15:29:12.276623  4186 layer_factory.hpp:77] Creating layer inception_3b/relu_double_3x3_2
I1019 15:29:12.276628  4186 net.cpp:91] Creating Layer inception_3b/relu_double_3x3_2
I1019 15:29:12.276631  4186 net.cpp:435] inception_3b/relu_double_3x3_2 <- inception_3b/double_3x3_2_bn
I1019 15:29:12.276645  4186 net.cpp:396] inception_3b/relu_double_3x3_2 -> inception_3b/double_3x3_2_bn (in-place)
I1019 15:29:12.277359  4186 net.cpp:141] Setting up inception_3b/relu_double_3x3_2
I1019 15:29:12.277369  4186 net.cpp:148] Top shape: 20 256 9 4 (184320)
I1019 15:29:12.277381  4186 net.cpp:156] Memory required for data: 1232087280
I1019 15:29:12.277384  4186 layer_factory.hpp:77] Creating layer inception_3b/pool
I1019 15:29:12.277391  4186 net.cpp:91] Creating Layer inception_3b/pool
I1019 15:29:12.277395  4186 net.cpp:435] inception_3b/pool <- inception_3a/output_inception_3a/output_0_split_2
I1019 15:29:12.277408  4186 net.cpp:409] inception_3b/pool -> inception_3b/pool
I1019 15:29:12.277474  4186 net.cpp:141] Setting up inception_3b/pool
I1019 15:29:12.277480  4186 net.cpp:148] Top shape: 20 1024 9 4 (737280)
I1019 15:29:12.277493  4186 net.cpp:156] Memory required for data: 1235036400
I1019 15:29:12.277494  4186 layer_factory.hpp:77] Creating layer inception_3b/output
I1019 15:29:12.277499  4186 net.cpp:91] Creating Layer inception_3b/output
I1019 15:29:12.277503  4186 net.cpp:435] inception_3b/output <- inception_3b/3x3_bn
I1019 15:29:12.277506  4186 net.cpp:435] inception_3b/output <- inception_3b/double_3x3_2_bn
I1019 15:29:12.277519  4186 net.cpp:435] inception_3b/output <- inception_3b/pool
I1019 15:29:12.277524  4186 net.cpp:409] inception_3b/output -> inception_3b/output
I1019 15:29:12.277550  4186 net.cpp:141] Setting up inception_3b/output
I1019 15:29:12.277556  4186 net.cpp:148] Top shape: 20 1536 9 4 (1105920)
I1019 15:29:12.277567  4186 net.cpp:156] Memory required for data: 1239460080
I1019 15:29:12.277570  4186 layer_factory.hpp:77] Creating layer global_pool
I1019 15:29:12.277573  4186 net.cpp:91] Creating Layer global_pool
I1019 15:29:12.277576  4186 net.cpp:435] global_pool <- inception_3b/output
I1019 15:29:12.277581  4186 net.cpp:409] global_pool -> global_pool
I1019 15:29:12.277756  4186 net.cpp:141] Setting up global_pool
I1019 15:29:12.277763  4186 net.cpp:148] Top shape: 20 1536 1 1 (30720)
I1019 15:29:12.277776  4186 net.cpp:156] Memory required for data: 1239582960
I1019 15:29:12.277778  4186 layer_factory.hpp:77] Creating layer fc7
I1019 15:29:12.277786  4186 net.cpp:91] Creating Layer fc7
I1019 15:29:12.277788  4186 net.cpp:435] fc7 <- global_pool
I1019 15:29:12.277792  4186 net.cpp:409] fc7 -> fc7
I1019 15:29:12.280903  4186 net.cpp:141] Setting up fc7
I1019 15:29:12.280926  4186 net.cpp:148] Top shape: 20 256 (5120)
I1019 15:29:12.280930  4186 net.cpp:156] Memory required for data: 1239603440
I1019 15:29:12.280946  4186 layer_factory.hpp:77] Creating layer fc7_bn
I1019 15:29:12.280951  4186 layer_factory.cpp:265] Layer fc7_bn is using CAFFE engine.
I1019 15:29:12.280958  4186 net.cpp:91] Creating Layer fc7_bn
I1019 15:29:12.280962  4186 net.cpp:435] fc7_bn <- fc7
I1019 15:29:12.280968  4186 net.cpp:409] fc7_bn -> fc7_bn
I1019 15:29:12.281200  4186 net.cpp:141] Setting up fc7_bn
I1019 15:29:12.281206  4186 net.cpp:148] Top shape: 20 256 (5120)
I1019 15:29:12.281208  4186 net.cpp:156] Memory required for data: 1239623920
I1019 15:29:12.281214  4186 layer_factory.hpp:77] Creating layer relu7
I1019 15:29:12.281219  4186 net.cpp:91] Creating Layer relu7
I1019 15:29:12.281221  4186 net.cpp:435] relu7 <- fc7_bn
I1019 15:29:12.281235  4186 net.cpp:396] relu7 -> fc7_bn (in-place)
I1019 15:29:12.281433  4186 net.cpp:141] Setting up relu7
I1019 15:29:12.281440  4186 net.cpp:148] Top shape: 20 256 (5120)
I1019 15:29:12.281442  4186 net.cpp:156] Memory required for data: 1239644400
I1019 15:29:12.281445  4186 layer_factory.hpp:77] Creating layer drop7
I1019 15:29:12.281450  4186 net.cpp:91] Creating Layer drop7
I1019 15:29:12.281452  4186 net.cpp:435] drop7 <- fc7_bn
I1019 15:29:12.281456  4186 net.cpp:396] drop7 -> fc7_bn (in-place)
I1019 15:29:12.281491  4186 net.cpp:141] Setting up drop7
I1019 15:29:12.281507  4186 net.cpp:148] Top shape: 20 256 (5120)
I1019 15:29:12.281508  4186 net.cpp:156] Memory required for data: 1239664880
I1019 15:29:12.281510  4186 layer_factory.hpp:77] Creating layer fc8_jstl
I1019 15:29:12.281527  4186 net.cpp:91] Creating Layer fc8_jstl
I1019 15:29:12.281529  4186 net.cpp:435] fc8_jstl <- fc7_bn
I1019 15:29:12.281543  4186 net.cpp:409] fc8_jstl -> fc8_jstl
I1019 15:29:12.286283  4186 net.cpp:141] Setting up fc8_jstl
I1019 15:29:12.286294  4186 net.cpp:148] Top shape: 20 751 (15020)
I1019 15:29:12.286296  4186 net.cpp:156] Memory required for data: 1239724960
I1019 15:29:12.286301  4186 layer_factory.hpp:77] Creating layer fc8_jstl_fc8_jstl_0_split
I1019 15:29:12.286306  4186 net.cpp:91] Creating Layer fc8_jstl_fc8_jstl_0_split
I1019 15:29:12.286309  4186 net.cpp:435] fc8_jstl_fc8_jstl_0_split <- fc8_jstl
I1019 15:29:12.286314  4186 net.cpp:409] fc8_jstl_fc8_jstl_0_split -> fc8_jstl_fc8_jstl_0_split_0
I1019 15:29:12.286319  4186 net.cpp:409] fc8_jstl_fc8_jstl_0_split -> fc8_jstl_fc8_jstl_0_split_1
I1019 15:29:12.286355  4186 net.cpp:141] Setting up fc8_jstl_fc8_jstl_0_split
I1019 15:29:12.286361  4186 net.cpp:148] Top shape: 20 751 (15020)
I1019 15:29:12.286365  4186 net.cpp:148] Top shape: 20 751 (15020)
I1019 15:29:12.286366  4186 net.cpp:156] Memory required for data: 1239845120
I1019 15:29:12.286368  4186 layer_factory.hpp:77] Creating layer loss
I1019 15:29:12.286373  4186 net.cpp:91] Creating Layer loss
I1019 15:29:12.286375  4186 net.cpp:435] loss <- fc8_jstl_fc8_jstl_0_split_0
I1019 15:29:12.286381  4186 net.cpp:435] loss <- label_data_1_split_0
I1019 15:29:12.286386  4186 net.cpp:409] loss -> loss
…
