…
I1016 20:27:39.016803  2801 net.cpp:323] The NetState phase (0) differed from the phase (1) specified by a rule in layer accuracy
I1016 20:27:39.017837  2801 net.cpp:49] Initializing net from parameters: 
state {
  phase: TRAIN
}
layer {
  name: "data"
  type: "ImageData"
  top: "data"
  top: "label"
  include {
    phase: TRAIN
  }
  transform_param {
    mirror: true
    mean_value: 102
    mean_value: 102
    mean_value: 101
  }
  image_data_param {
    source: "/home/nikoong/Algorithm_test/attribute/dataset/DukeMTMC-reID/train.txt"
    batch_size: 45
    shuffle: true
    new_height: 144
    new_width: 56
  }
}
layer {
  name: "conv1"
  type: "Convolution"
  bottom: "data"
  top: "conv1"
  param {
    lr_mult: 1
    decay_mult: 1
  }
  param {
    lr_mult: 2
    decay_mult: 0
  }
  convolution_param {
    num_output: 32
    pad: 1
    kernel_size: 3
    stride: 1
    weight_filler {
      type: "xavier"
    }
    bias_filler {
      type: "constant"
      value: 0.2
    }
  }
}
layer {
  name: "conv1_bn"
  type: "BN"
  bottom: "conv1"
  top: "conv1_bn"
  param {
    lr_mult: 1
    decay_mult: 0
  }
  param {
    lr_mult: 1
    decay_mult: 0
  }
  bn_param {
    slope_filler {
      type: "constant"
      value: 1
    }
    bias_filler {
      type: "constant"
      value: 0
    }
  }
}
layer {
  name: "relu1"
  type: "ReLU"
  bottom: "conv1_bn"
  top: "conv1_bn"
}
layer {
  name: "conv2"
  type: "Convolution"
  bottom: "conv1_bn"
  top: "conv2"
  param {
    lr_mult: 1
    decay_mult: 1
  }
  param {
    lr_mult: 2
    decay_mult: 0
  }
  convolution_param {
    num_output: 32
    pad: 1
    kernel_size: 3
    stride: 1
    weight_filler {
      type: "xavier"
    }
    bias_filler {
      type: "constant"
      value: 0.2
    }
  }
}
layer {
  name: "conv2_bn"
  type: "BN"
  bottom: "conv2"
  top: "conv2_bn"
  param {
    lr_mult: 1
    decay_mult: 0
  }
  param {
    lr_mult: 1
    decay_mult: 0
  }
  bn_param {
    slope_filler {
      type: "constant"
      value: 1
    }
    bias_filler {
      type: "constant"
      value: 0
    }
  }
}
layer {
  name: "relu2"
  type: "ReLU"
  bottom: "conv2_bn"
  top: "conv2_bn"
}
layer {
  name: "conv3"
  type: "Convolution"
  bottom: "conv2_bn"
  top: "conv3"
  param {
    lr_mult: 1
    decay_mult: 1
  }
  param {
    lr_mult: 2
    decay_mult: 0
  }
  convolution_param {
    num_output: 32
    pad: 1
    kernel_size: 3
    stride: 1
    weight_filler {
      type: "xavier"
    }
    bias_filler {
      type: "constant"
      value: 0.2
    }
  }
}
layer {
  name: "conv3_bn"
  type: "BN"
  bottom: "conv3"
  top: "conv3_bn"
  param {
    lr_mult: 1
    decay_mult: 0
  }
  param {
    lr_mult: 1
    decay_mult: 0
  }
  bn_param {
    slope_filler {
      type: "constant"
      value: 1
    }
    bias_filler {
      type: "constant"
      value: 0
    }
  }
}
layer {
  name: "relu3"
  type: "ReLU"
  bottom: "conv3_bn"
  top: "conv3_bn"
}
layer {
  name: "pool1"
  type: "Pooling"
  bottom: "conv3_bn"
  top: "pool1"
  pooling_param {
    pool: MAX
    kernel_size: 2
    stride: 2
  }
}
layer {
  name: "inception_1a/1x1"
  type: "Convolution"
  bottom: "pool1"
  top: "inception_1a/1x1"
  param {
    lr_mult: 1
    decay_mult: 1
  }
  param {
    lr_mult: 2
    decay_mult: 0
  }
  convolution_param {
    num_output: 64
    kernel_size: 1
    weight_filler {
      type: "xavier"
    }
    bias_filler {
      type: "constant"
      value: 0.2
    }
  }
}
layer {
  name: "inception_1a/1x1_bn"
  type: "BN"
  bottom: "inception_1a/1x1"
  top: "inception_1a/1x1_bn"
  param {
    lr_mult: 1
    decay_mult: 0
  }
  param {
    lr_mult: 1
    decay_mult: 0
  }
  bn_param {
    slope_filler {
      type: "constant"
      value: 1
    }
    bias_filler {
      type: "constant"
      value: 0
    }
  }
}
layer {
  name: "inception_1a/relu_1x1"
  type: "ReLU"
  bottom: "inception_1a/1x1_bn"
  top: "inception_1a/1x1_bn"
}
layer {
  name: "inception_1a/3x3_reduce"
  type: "Convolution"
  bottom: "pool1"
  top: "inception_1a/3x3_reduce"
  param {
    lr_mult: 1
    decay_mult: 1
  }
  param {
    lr_mult: 2
    decay_mult: 0
  }
  convolution_param {
    num_output: 64
    kernel_size: 1
    weight_filler {
      type: "xavier"
    }
    bias_filler {
      type: "constant"
      value: 0.2
    }
  }
}
layer {
  name: "inception_1a/3x3_reduce_bn"
  type: "BN"
  bottom: "inception_1a/3x3_reduce"
  top: "inception_1a/3x3_reduce_bn"
  param {
    lr_mult: 1
    decay_mult: 0
  }
  param {
    lr_mult: 1
    decay_mult: 0
  }
  bn_param {
    slope_filler {
      type: "constant"
      value: 1
    }
    bias_filler {
      type: "constant"
      value: 0
    }
  }
}
layer {
  name: "inception_1a/relu_3x3_reduce"
  type: "ReLU"
  bottom: "inception_1a/3x3_reduce_bn"
  top: "inception_1a/3x3_reduce_bn"
}
layer {
  name: "inception_1a/3x3"
  type: "Convolution"
  bottom: "inception_1a/3x3_reduce_bn"
  top: "inception_1a/3x3"
  param {
    lr_mult: 1
    decay_mult: 1
  }
  param {
    lr_mult: 2
    decay_mult: 0
  }
  convolution_param {
    num_output: 64
    pad: 1
    kernel_size: 3
    weight_filler {
      type: "xavier"
    }
    bias_filler {
      type: "constant"
      value: 0.2
    }
  }
}
layer {
  name: "inception_1a/3x3_bn"
  type: "BN"
  bottom: "inception_1a/3x3"
  top: "inception_1a/3x3_bn"
  param {
    lr_mult: 1
    decay_mult: 0
  }
  param {
    lr_mult: 1
    decay_mult: 0
  }
  bn_param {
    slope_filler {
      type: "constant"
      value: 1
    }
    bias_filler {
      type: "constant"
      value: 0
    }
  }
}
layer {
  name: "inception_1a/relu_3x3"
  type: "ReLU"
  bottom: "inception_1a/3x3_bn"
  top: "inception_1a/3x3_bn"
}
layer {
  name: "inception_1a/double_3x3_reduce"
  type: "Convolution"
  bottom: "pool1"
  top: "inception_1a/double_3x3_reduce"
  param {
    lr_mult: 1
    decay_mult: 1
  }
  param {
    lr_mult: 2
    decay_mult: 0
  }
  convolution_param {
    num_output: 64
    kernel_size: 1
    weight_filler {
      type: "xavier"
    }
    bias_filler {
      type: "constant"
      value: 0.2
    }
  }
}
layer {
  name: "inception_1a/double_3x3_reduce_bn"
  type: "BN"
  bottom: "inception_1a/double_3x3_reduce"
  top: "inception_1a/double_3x3_reduce_bn"
  param {
    lr_mult: 1
    decay_mult: 0
  }
  param {
    lr_mult: 1
    decay_mult: 0
  }
  bn_param {
    slope_filler {
      type: "constant"
      value: 1
    }
    bias_filler {
      type: "constant"
      value: 0
    }
  }
}
layer {
  name: "inception_1a/relu_double_3x3_reduce"
  type: "ReLU"
  bottom: "inception_1a/double_3x3_reduce_bn"
  top: "inception_1a/double_3x3_reduce_bn"
}
layer {
  name: "inception_1a/double_3x3_1"
  type: "Convolution"
  bottom: "inception_1a/double_3x3_reduce_bn"
  top: "inception_1a/double_3x3_1"
  param {
    lr_mult: 1
    decay_mult: 1
  }
  param {
    lr_mult: 2
    decay_mult: 0
  }
  convolution_param {
    num_output: 64
    pad: 1
    kernel_size: 3
    weight_filler {
      type: "xavier"
    }
    bias_filler {
      type: "constant"
      value: 0.2
    }
  }
}
layer {
  name: "inception_1a/double_3x3_1_bn"
  type: "BN"
  bottom: "inception_1a/double_3x3_1"
  top: "inception_1a/double_3x3_1_bn"
  param {
    lr_mult: 1
    decay_mult: 0
  }
  param {
    lr_mult: 1
    decay_mult: 0
  }
  bn_param {
    slope_filler {
      type: "constant"
      value: 1
    }
    bias_filler {
      type: "constant"
      value: 0
    }
  }
}
layer {
  name: "inception_1a/relu_double_3x3_1"
  type: "ReLU"
  bottom: "inception_1a/double_3x3_1_bn"
  top: "inception_1a/double_3x3_1_bn"
}
layer {
  name: "inception_1a/double_3x3_2"
  type: "Convolution"
  bottom: "inception_1a/double_3x3_1_bn"
  top: "inception_1a/double_3x3_2"
  param {
    lr_mult: 1
    decay_mult: 1
  }
  param {
    lr_mult: 2
    decay_mult: 0
  }
  convolution_param {
    num_output: 64
    pad: 1
    kernel_size: 3
    weight_filler {
      type: "xavier"
    }
    bias_filler {
      type: "constant"
      value: 0.2
    }
  }
}
layer {
  name: "inception_1a/double_3x3_2_bn"
  type: "BN"
  bottom: "inception_1a/double_3x3_2"
  top: "inception_1a/double_3x3_2_bn"
  param {
    lr_mult: 1
    decay_mult: 0
  }
  param {
    lr_mult: 1
    decay_mult: 0
  }
  bn_param {
    slope_filler {
      type: "constant"
      value: 1
    }
    bias_filler {
      type: "constant"
      value: 0
    }
  }
}
layer {
  name: "inception_1a/relu_double_3x3_2"
  type: "ReLU"
  bottom: "inception_1a/double_3x3_2_bn"
  top: "inception_1a/double_3x3_2_bn"
}
layer {
  name: "inception_1a/pool"
  type: "Pooling"
  bottom: "pool1"
  top: "inception_1a/pool"
  pooling_param {
    pool: AVE
    kernel_size: 3
    stride: 1
    pad: 1
  }
}
layer {
  name: "inception_1a/pool_proj"
  type: "Convolution"
  bottom: "inception_1a/pool"
  top: "inception_1a/pool_proj"
  param {
    lr_mult: 1
    decay_mult: 1
  }
  param {
    lr_mult: 2
    decay_mult: 0
  }
  convolution_param {
    num_output: 64
    kernel_size: 1
    weight_filler {
      type: "xavier"
    }
    bias_filler {
      type: "constant"
      value: 0.2
    }
  }
}
layer {
  name: "inception_1a/pool_proj_bn"
  type: "BN"
  bottom: "inception_1a/pool_proj"
  top: "inception_1a/pool_proj_bn"
  param {
    lr_mult: 1
    decay_mult: 0
  }
  param {
    lr_mult: 1
    decay_mult: 0
  }
  bn_param {
    slope_filler {
      type: "constant"
      value: 1
    }
    bias_filler {
      type: "constant"
      value: 0
    }
  }
}
layer {
  name: "inception_1a/relu_pool_proj"
  type: "ReLU"
  bottom: "inception_1a/pool_proj_bn"
  top: "inception_1a/pool_proj_bn"
}
layer {
  name: "inception_1a/output"
  type: "Concat"
  bottom: "inception_1a/1x1_bn"
  bottom: "inception_1a/3x3_bn"
  bottom: "inception_1a/double_3x3_2_bn"
  bottom: "inception_1a/pool_proj_bn"
  top: "inception_1a/output"
}
layer {
  name: "inception_1b/3x3_reduce"
  type: "Convolution"
  bottom: "inception_1a/output"
  top: "inception_1b/3x3_reduce"
  param {
    lr_mult: 1
    decay_mult: 1
  }
  param {
    lr_mult: 2
    decay_mult: 0
  }
  convolution_param {
    num_output: 64
    kernel_size: 1
    weight_filler {
      type: "xavier"
    }
    bias_filler {
      type: "constant"
      value: 0.2
    }
  }
}
layer {
  name: "inception_1b/3x3_reduce_bn"
  type: "BN"
  bottom: "inception_1b/3x3_reduce"
  top: "inception_1b/3x3_reduce_bn"
  param {
    lr_mult: 1
    decay_mult: 0
  }
  param {
    lr_mult: 1
    decay_mult: 0
  }
  bn_param {
    slope_filler {
      type: "constant"
      value: 1
    }
    bias_filler {
      type: "constant"
      value: 0
    }
  }
}
layer {
  name: "inception_1b/relu_3x3_reduce"
  type: "ReLU"
  bottom: "inception_1b/3x3_reduce_bn"
  top: "inception_1b/3x3_reduce_bn"
}
layer {
  name: "inception_1b/3x3"
  type: "Convolution"
  bottom: "inception_1b/3x3_reduce_bn"
  top: "inception_1b/3x3"
  param {
    lr_mult: 1
    decay_mult: 1
  }
  param {
    lr_mult: 2
    decay_mult: 0
  }
  convolution_param {
    num_output: 64
    pad: 1
    kernel_size: 3
    stride: 2
    weight_filler {
      type: "xavier"
    }
    bias_filler {
      type: "constant"
      value: 0.2
    }
  }
}
layer {
  name: "inception_1b/3x3_bn"
  type: "BN"
  bottom: "inception_1b/3x3"
  top: "inception_1b/3x3_bn"
  param {
    lr_mult: 1
    decay_mult: 0
  }
  param {
    lr_mult: 1
    decay_mult: 0
  }
  bn_param {
    slope_filler {
      type: "constant"
      value: 1
    }
    bias_filler {
      type: "constant"
      value: 0
    }
  }
}
layer {
  name: "inception_1b/relu_3x3"
  type: "ReLU"
  bottom: "inception_1b/3x3_bn"
  top: "inception_1b/3x3_bn"
}
layer {
  name: "inception_1b/double_3x3_reduce"
  type: "Convolution"
  bottom: "inception_1a/output"
  top: "inception_1b/double_3x3_reduce"
  param {
    lr_mult: 1
    decay_mult: 1
  }
  param {
    lr_mult: 2
    decay_mult: 0
  }
  convolution_param {
    num_output: 64
    kernel_size: 1
    weight_filler {
      type: "xavier"
    }
    bias_filler {
      type: "constant"
      value: 0.2
    }
  }
}
layer {
  name: "inception_1b/double_3x3_reduce_bn"
  type: "BN"
  bottom: "inception_1b/double_3x3_reduce"
  top: "inception_1b/double_3x3_reduce_bn"
  param {
    lr_mult: 1
    decay_mult: 0
  }
  param {
    lr_mult: 1
    decay_mult: 0
  }
  bn_param {
    slope_filler {
      type: "constant"
      value: 1
    }
    bias_filler {
      type: "constant"
      value: 0
    }
  }
}
layer {
  name: "inception_1b/relu_double_3x3_reduce"
  type: "ReLU"
  bottom: "inception_1b/double_3x3_reduce_bn"
  top: "inception_1b/double_3x3_reduce_bn"
}
layer {
  name: "inception_1b/double_3x3_1"
  type: "Convolution"
  bottom: "inception_1b/double_3x3_reduce_bn"
  top: "inception_1b/double_3x3_1"
  param {
    lr_mult: 1
    decay_mult: 1
  }
  param {
    lr_mult: 2
    decay_mult: 0
  }
  convolution_param {
    num_output: 64
    pad: 1
    kernel_size: 3
    weight_filler {
      type: "xavier"
    }
    bias_filler {
      type: "constant"
      value: 0.2
    }
  }
}
layer {
  name: "inception_1b/double_3x3_1_bn"
  type: "BN"
  bottom: "inception_1b/double_3x3_1"
  top: "inception_1b/double_3x3_1_bn"
  param {
    lr_mult: 1
    decay_mult: 0
  }
  param {
    lr_mult: 1
    decay_mult: 0
  }
  bn_param {
    slope_filler {
      type: "constant"
      value: 1
    }
    bias_filler {
      type: "constant"
      value: 0
    }
  }
}
layer {
  name: "inception_1b/relu_double_3x3_1"
  type: "ReLU"
  bottom: "inception_1b/double_3x3_1_bn"
  top: "inception_1b/double_3x3_1_bn"
}
layer {
  name: "inception_1b/double_3x3_2"
  type: "Convolution"
  bottom: "inception_1b/double_3x3_1_bn"
  top: "inception_1b/double_3x3_2"
  param {
    lr_mult: 1
    decay_mult: 1
  }
  param {
    lr_mult: 2
    decay_mult: 0
  }
  convolution_param {
    num_output: 64
    pad: 1
    kernel_size: 3
    stride: 2
    weight_filler {
      type: "xavier"
    }
    bias_filler {
      type: "constant"
      value: 0.2
    }
  }
}
layer {
  name: "inception_1b/double_3x3_2_bn"
  type: "BN"
  bottom: "inception_1b/double_3x3_2"
  top: "inception_1b/double_3x3_2_bn"
  param {
    lr_mult: 1
    decay_mult: 0
  }
  param {
    lr_mult: 1
    decay_mult: 0
  }
  bn_param {
    slope_filler {
      type: "constant"
      value: 1
    }
    bias_filler {
      type: "constant"
      value: 0
    }
  }
}
layer {
  name: "inception_1b/relu_double_3x3_2"
  type: "ReLU"
  bottom: "inception_1b/double_3x3_2_bn"
  top: "inception_1b/double_3x3_2_bn"
}
layer {
  name: "inception_1b/pool"
  type: "Pooling"
  bottom: "inception_1a/output"
  top: "inception_1b/pool"
  pooling_param {
    pool: MAX
    kernel_size: 3
    stride: 2
  }
}
layer {
  name: "inception_1b/output"
  type: "Concat"
  bottom: "inception_1b/3x3_bn"
  bottom: "inception_1b/double_3x3_2_bn"
  bottom: "inception_1b/pool"
  top: "inception_1b/output"
}
layer {
  name: "inception_2a/1x1"
  type: "Convolution"
  bottom: "inception_1b/output"
  top: "inception_2a/1x1"
  param {
    lr_mult: 1
    decay_mult: 1
  }
  param {
    lr_mult: 2
    decay_mult: 0
  }
  convolution_param {
    num_output: 128
    kernel_size: 1
    weight_filler {
      type: "xavier"
    }
    bias_filler {
      type: "constant"
      value: 0.2
    }
  }
}
layer {
  name: "inception_2a/1x1_bn"
  type: "BN"
  bottom: "inception_2a/1x1"
  top: "inception_2a/1x1_bn"
  param {
    lr_mult: 1
    decay_mult: 0
  }
  param {
    lr_mult: 1
    decay_mult: 0
  }
  bn_param {
    slope_filler {
      type: "constant"
      value: 1
    }
    bias_filler {
      type: "constant"
      value: 0
    }
  }
}
layer {
  name: "inception_2a/relu_1x1"
  type: "ReLU"
  bottom: "inception_2a/1x1_bn"
  top: "inception_2a/1x1_bn"
}
layer {
  name: "inception_2a/3x3_reduce"
  type: "Convolution"
  bottom: "inception_1b/output"
  top: "inception_2a/3x3_reduce"
  param {
    lr_mult: 1
    decay_mult: 1
  }
  param {
    lr_mult: 2
    decay_mult: 0
  }
  convolution_param {
    num_output: 128
    kernel_size: 1
    weight_filler {
      type: "xavier"
    }
    bias_filler {
      type: "constant"
      value: 0.2
    }
  }
}
layer {
  name: "inception_2a/3x3_reduce_bn"
  type: "BN"
  bottom: "inception_2a/3x3_reduce"
  top: "inception_2a/3x3_reduce_bn"
  param {
    lr_mult: 1
    decay_mult: 0
  }
  param {
    lr_mult: 1
    decay_mult: 0
  }
  bn_param {
    slope_filler {
      type: "constant"
      value: 1
    }
    bias_filler {
      type: "constant"
      value: 0
    }
  }
}
layer {
  name: "inception_2a/relu_3x3_reduce"
  type: "ReLU"
  bottom: "inception_2a/3x3_reduce_bn"
  top: "inception_2a/3x3_reduce_bn"
}
layer {
  name: "inception_2a/3x3"
  type: "Convolution"
  bottom: "inception_2a/3x3_reduce_bn"
  top: "inception_2a/3x3"
  param {
    lr_mult: 1
    decay_mult: 1
  }
  param {
    lr_mult: 2
    decay_mult: 0
  }
  convolution_param {
    num_output: 128
    pad: 1
    kernel_size: 3
    weight_filler {
      type: "xavier"
    }
    bias_filler {
      type: "constant"
      value: 0.2
    }
  }
}
layer {
  name: "inception_2a/3x3_bn"
  type: "BN"
  bottom: "inception_2a/3x3"
  top: "inception_2a/3x3_bn"
  param {
    lr_mult: 1
    decay_mult: 0
  }
  param {
    lr_mult: 1
    decay_mult: 0
  }
  bn_param {
    slope_filler {
      type: "constant"
      value: 1
    }
    bias_filler {
      type: "constant"
      value: 0
    }
  }
}
layer {
  name: "inception_2a/relu_3x3"
  type: "ReLU"
  bottom: "inception_2a/3x3_bn"
  top: "inception_2a/3x3_bn"
}
layer {
  name: "inception_2a/double_3x3_reduce"
  type: "Convolution"
  bottom: "inception_1b/output"
  top: "inception_2a/double_3x3_reduce"
  param {
    lr_mult: 1
    decay_mult: 1
  }
  param {
    lr_mult: 2
    decay_mult: 0
  }
  convolution_param {
    num_output: 128
    kernel_size: 1
    weight_filler {
      type: "xavier"
    }
    bias_filler {
      type: "constant"
      value: 0.2
    }
  }
}
layer {
  name: "inception_2a/double_3x3_reduce_bn"
  type: "BN"
  bottom: "inception_2a/double_3x3_reduce"
  top: "inception_2a/double_3x3_reduce_bn"
  param {
    lr_mult: 1
    decay_mult: 0
  }
  param {
    lr_mult: 1
    decay_mult: 0
  }
  bn_param {
    slope_filler {
      type: "constant"
      value: 1
    }
    bias_filler {
      type: "constant"
      value: 0
    }
  }
}
layer {
  name: "inception_2a/relu_double_3x3_reduce"
  type: "ReLU"
  bottom: "inception_2a/double_3x3_reduce_bn"
  top: "inception_2a/double_3x3_reduce_bn"
}
layer {
  name: "inception_2a/double_3x3_1"
  type: "Convolution"
  bottom: "inception_2a/double_3x3_reduce_bn"
  top: "inception_2a/double_3x3_1"
  param {
    lr_mult: 1
    decay_mult: 1
  }
  param {
    lr_mult: 2
    decay_mult: 0
  }
  convolution_param {
    num_output: 128
    pad: 1
    kernel_size: 3
    weight_filler {
      type: "xavier"
    }
    bias_filler {
      type: "constant"
      value: 0.2
    }
  }
}
layer {
  name: "inception_2a/double_3x3_1_bn"
  type: "BN"
  bottom: "inception_2a/double_3x3_1"
  top: "inception_2a/double_3x3_1_bn"
  param {
    lr_mult: 1
    decay_mult: 0
  }
  param {
    lr_mult: 1
    decay_mult: 0
  }
  bn_param {
    slope_filler {
      type: "constant"
      value: 1
    }
    bias_filler {
      type: "constant"
      value: 0
    }
  }
}
layer {
  name: "inception_2a/relu_double_3x3_1"
  type: "ReLU"
  bottom: "inception_2a/double_3x3_1_bn"
  top: "inception_2a/double_3x3_1_bn"
}
layer {
  name: "inception_2a/double_3x3_2"
  type: "Convolution"
  bottom: "inception_2a/double_3x3_1_bn"
  top: "inception_2a/double_3x3_2"
  param {
    lr_mult: 1
    decay_mult: 1
  }
  param {
    lr_mult: 2
    decay_mult: 0
  }
  convolution_param {
    num_output: 128
    pad: 1
    kernel_size: 3
    weight_filler {
      type: "xavier"
    }
    bias_filler {
      type: "constant"
      value: 0.2
    }
  }
}
layer {
  name: "inception_2a/double_3x3_2_bn"
  type: "BN"
  bottom: "inception_2a/double_3x3_2"
  top: "inception_2a/double_3x3_2_bn"
  param {
    lr_mult: 1
    decay_mult: 0
  }
  param {
    lr_mult: 1
    decay_mult: 0
  }
  bn_param {
    slope_filler {
      type: "constant"
      value: 1
    }
    bias_filler {
      type: "constant"
      value: 0
    }
  }
}
layer {
  name: "inception_2a/relu_double_3x3_2"
  type: "ReLU"
  bottom: "inception_2a/double_3x3_2_bn"
  top: "inception_2a/double_3x3_2_bn"
}
layer {
  name: "inception_2a/pool"
  type: "Pooling"
  bottom: "inception_1b/output"
  top: "inception_2a/pool"
  pooling_param {
    pool: AVE
    kernel_size: 3
    stride: 1
    pad: 1
  }
}
layer {
  name: "inception_2a/pool_proj"
  type: "Convolution"
  bottom: "inception_2a/pool"
  top: "inception_2a/pool_proj"
  param {
    lr_mult: 1
    decay_mult: 1
  }
  param {
    lr_mult: 2
    decay_mult: 0
  }
  convolution_param {
    num_output: 128
    kernel_size: 1
    weight_filler {
      type: "xavier"
    }
    bias_filler {
      type: "constant"
      value: 0.2
    }
  }
}
layer {
  name: "inception_2a/pool_proj_bn"
  type: "BN"
  bottom: "inception_2a/pool_proj"
  top: "inception_2a/pool_proj_bn"
  param {
    lr_mult: 1
    decay_mult: 0
  }
  param {
    lr_mult: 1
    decay_mult: 0
  }
  bn_param {
    slope_filler {
      type: "constant"
      value: 1
    }
    bias_filler {
      type: "constant"
      value: 0
    }
  }
}
layer {
  name: "inception_2a/relu_pool_proj"
  type: "ReLU"
  bottom: "inception_2a/pool_proj_bn"
  top: "inception_2a/pool_proj_bn"
}
layer {
  name: "inception_2a/output"
  type: "Concat"
  bottom: "inception_2a/1x1_bn"
  bottom: "inception_2a/3x3_bn"
  bottom: "inception_2a/double_3x3_2_bn"
  bottom: "inception_2a/pool_proj_bn"
  top: "inception_2a/output"
}
layer {
  name: "inception_2b/3x3_reduce"
  type: "Convolution"
  bottom: "inception_2a/output"
  top: "inception_2b/3x3_reduce"
  param {
    lr_mult: 1
    decay_mult: 1
  }
  param {
    lr_mult: 2
    decay_mult: 0
  }
  convolution_param {
    num_output: 128
    kernel_size: 1
    weight_filler {
      type: "xavier"
    }
    bias_filler {
      type: "constant"
      value: 0.2
    }
  }
}
layer {
  name: "inception_2b/3x3_reduce_bn"
  type: "BN"
  bottom: "inception_2b/3x3_reduce"
  top: "inception_2b/3x3_reduce_bn"
  param {
    lr_mult: 1
    decay_mult: 0
  }
  param {
    lr_mult: 1
    decay_mult: 0
  }
  bn_param {
    slope_filler {
      type: "constant"
      value: 1
    }
    bias_filler {
      type: "constant"
      value: 0
    }
  }
}
layer {
  name: "inception_2b/relu_3x3_reduce"
  type: "ReLU"
  bottom: "inception_2b/3x3_reduce_bn"
  top: "inception_2b/3x3_reduce_bn"
}
layer {
  name: "inception_2b/3x3"
  type: "Convolution"
  bottom: "inception_2b/3x3_reduce_bn"
  top: "inception_2b/3x3"
  param {
    lr_mult: 1
    decay_mult: 1
  }
  param {
    lr_mult: 2
    decay_mult: 0
  }
  convolution_param {
    num_output: 128
    pad: 1
    kernel_size: 3
    stride: 2
    weight_filler {
      type: "xavier"
    }
    bias_filler {
      type: "constant"
      value: 0.2
    }
  }
}
layer {
  name: "inception_2b/3x3_bn"
  type: "BN"
  bottom: "inception_2b/3x3"
  top: "inception_2b/3x3_bn"
  param {
    lr_mult: 1
    decay_mult: 0
  }
  param {
    lr_mult: 1
    decay_mult: 0
  }
  bn_param {
    slope_filler {
      type: "constant"
      value: 1
    }
    bias_filler {
      type: "constant"
      value: 0
    }
  }
}
layer {
  name: "inception_2b/relu_3x3"
  type: "ReLU"
  bottom: "inception_2b/3x3_bn"
  top: "inception_2b/3x3_bn"
}
layer {
  name: "inception_2b/double_3x3_reduce"
  type: "Convolution"
  bottom: "inception_2a/output"
  top: "inception_2b/double_3x3_reduce"
  param {
    lr_mult: 1
    decay_mult: 1
  }
  param {
    lr_mult: 2
    decay_mult: 0
  }
  convolution_param {
    num_output: 128
    kernel_size: 1
    weight_filler {
      type: "xavier"
    }
    bias_filler {
      type: "constant"
      value: 0.2
    }
  }
}
layer {
  name: "inception_2b/double_3x3_reduce_bn"
  type: "BN"
  bottom: "inception_2b/double_3x3_reduce"
  top: "inception_2b/double_3x3_reduce_bn"
  param {
    lr_mult: 1
    decay_mult: 0
  }
  param {
    lr_mult: 1
    decay_mult: 0
  }
  bn_param {
    slope_filler {
      type: "constant"
      value: 1
    }
    bias_filler {
      type: "constant"
      value: 0
    }
  }
}
layer {
  name: "inception_2b/relu_double_3x3_reduce"
  type: "ReLU"
  bottom: "inception_2b/double_3x3_reduce_bn"
  top: "inception_2b/double_3x3_reduce_bn"
}
layer {
  name: "inception_2b/double_3x3_1"
  type: "Convolution"
  bottom: "inception_2b/double_3x3_reduce_bn"
  top: "inception_2b/double_3x3_1"
  param {
    lr_mult: 1
    decay_mult: 1
  }
  param {
    lr_mult: 2
    decay_mult: 0
  }
  convolution_param {
    num_output: 128
    pad: 1
    kernel_size: 3
    weight_filler {
      type: "xavier"
    }
    bias_filler {
      type: "constant"
      value: 0.2
    }
  }
}
layer {
  name: "inception_2b/double_3x3_1_bn"
  type: "BN"
  bottom: "inception_2b/double_3x3_1"
  top: "inception_2b/double_3x3_1_bn"
  param {
    lr_mult: 1
    decay_mult: 0
  }
  param {
    lr_mult: 1
    decay_mult: 0
  }
  bn_param {
    slope_filler {
      type: "constant"
      value: 1
    }
    bias_filler {
      type: "constant"
      value: 0
    }
  }
}
layer {
  name: "inception_2b/relu_double_3x3_1"
  type: "ReLU"
  bottom: "inception_2b/double_3x3_1_bn"
  top: "inception_2b/double_3x3_1_bn"
}
layer {
  name: "inception_2b/double_3x3_2"
  type: "Convolution"
  bottom: "inception_2b/double_3x3_1_bn"
  top: "inception_2b/double_3x3_2"
  param {
    lr_mult: 1
    decay_mult: 1
  }
  param {
    lr_mult: 2
    decay_mult: 0
  }
  convolution_param {
    num_output: 128
    pad: 1
    kernel_size: 3
    stride: 2
    weight_filler {
      type: "xavier"
    }
    bias_filler {
      type: "constant"
      value: 0.2
    }
  }
}
layer {
  name: "inception_2b/double_3x3_2_bn"
  type: "BN"
  bottom: "inception_2b/double_3x3_2"
  top: "inception_2b/double_3x3_2_bn"
  param {
    lr_mult: 1
    decay_mult: 0
  }
  param {
    lr_mult: 1
    decay_mult: 0
  }
  bn_param {
    slope_filler {
      type: "constant"
      value: 1
    }
    bias_filler {
      type: "constant"
      value: 0
    }
  }
}
layer {
  name: "inception_2b/relu_double_3x3_2"
  type: "ReLU"
  bottom: "inception_2b/double_3x3_2_bn"
  top: "inception_2b/double_3x3_2_bn"
}
layer {
  name: "inception_2b/pool"
  type: "Pooling"
  bottom: "inception_2a/output"
  top: "inception_2b/pool"
  pooling_param {
    pool: MAX
    kernel_size: 3
    stride: 2
  }
}
layer {
  name: "inception_2b/output"
  type: "Concat"
  bottom: "inception_2b/3x3_bn"
  bottom: "inception_2b/double_3x3_2_bn"
  bottom: "inception_2b/pool"
  top: "inception_2b/output"
}
layer {
  name: "inception_3a/1x1"
  type: "Convolution"
  bottom: "inception_2b/output"
  top: "inception_3a/1x1"
  param {
    lr_mult: 1
    decay_mult: 1
  }
  param {
    lr_mult: 2
    decay_mult: 0
  }
  convolution_param {
    num_output: 256
    kernel_size: 1
    weight_filler {
      type: "xavier"
    }
    bias_filler {
      type: "constant"
      value: 0.2
    }
  }
}
layer {
  name: "inception_3a/1x1_bn"
  type: "BN"
  bottom: "inception_3a/1x1"
  top: "inception_3a/1x1_bn"
  param {
    lr_mult: 1
    decay_mult: 0
  }
  param {
    lr_mult: 1
    decay_mult: 0
  }
  bn_param {
    slope_filler {
      type: "constant"
      value: 1
    }
    bias_filler {
      type: "constant"
      value: 0
    }
  }
}
layer {
  name: "inception_3a/relu_1x1"
  type: "ReLU"
  bottom: "inception_3a/1x1_bn"
  top: "inception_3a/1x1_bn"
}
layer {
  name: "inception_3a/3x3_reduce"
  type: "Convolution"
  bottom: "inception_2b/output"
  top: "inception_3a/3x3_reduce"
  param {
    lr_mult: 1
    decay_mult: 1
  }
  param {
    lr_mult: 2
    decay_mult: 0
  }
  convolution_param {
    num_output: 256
    kernel_size: 1
    weight_filler {
      type: "xavier"
    }
    bias_filler {
      type: "constant"
      value: 0.2
    }
  }
}
layer {
  name: "inception_3a/3x3_reduce_bn"
  type: "BN"
  bottom: "inception_3a/3x3_reduce"
  top: "inception_3a/3x3_reduce_bn"
  param {
    lr_mult: 1
    decay_mult: 0
  }
  param {
    lr_mult: 1
    decay_mult: 0
  }
  bn_param {
    slope_filler {
      type: "constant"
      value: 1
    }
    bias_filler {
      type: "constant"
      value: 0
    }
  }
}
layer {
  name: "inception_3a/relu_3x3_reduce"
  type: "ReLU"
  bottom: "inception_3a/3x3_reduce_bn"
  top: "inception_3a/3x3_reduce_bn"
}
layer {
  name: "inception_3a/3x3"
  type: "Convolution"
  bottom: "inception_3a/3x3_reduce_bn"
  top: "inception_3a/3x3"
  param {
    lr_mult: 1
    decay_mult: 1
  }
  param {
    lr_mult: 2
    decay_mult: 0
  }
  convolution_param {
    num_output: 256
    pad: 1
    kernel_size: 3
    weight_filler {
      type: "xavier"
    }
    bias_filler {
      type: "constant"
      value: 0.2
    }
  }
}
layer {
  name: "inception_3a/3x3_bn"
  type: "BN"
  bottom: "inception_3a/3x3"
  top: "inception_3a/3x3_bn"
  param {
    lr_mult: 1
    decay_mult: 0
  }
  param {
    lr_mult: 1
    decay_mult: 0
  }
  bn_param {
    slope_filler {
      type: "constant"
      value: 1
    }
    bias_filler {
      type: "constant"
      value: 0
    }
  }
}
layer {
  name: "inception_3a/relu_3x3"
  type: "ReLU"
  bottom: "inception_3a/3x3_bn"
  top: "inception_3a/3x3_bn"
}
layer {
  name: "inception_3a/double_3x3_reduce"
  type: "Convolution"
  bottom: "inception_2b/output"
  top: "inception_3a/double_3x3_reduce"
  param {
    lr_mult: 1
    decay_mult: 1
  }
  param {
    lr_mult: 2
    decay_mult: 0
  }
  convolution_param {
    num_output: 256
    kernel_size: 1
    weight_filler {
      type: "xavier"
    }
    bias_filler {
      type: "constant"
      value: 0.2
    }
  }
}
layer {
  name: "inception_3a/double_3x3_reduce_bn"
  type: "BN"
  bottom: "inception_3a/double_3x3_reduce"
  top: "inception_3a/double_3x3_reduce_bn"
  param {
    lr_mult: 1
    decay_mult: 0
  }
  param {
    lr_mult: 1
    decay_mult: 0
  }
  bn_param {
    slope_filler {
      type: "constant"
      value: 1
    }
    bias_filler {
      type: "constant"
      value: 0
I1016 20:27:39.018301  2801 layer_factory.hpp:77] Creating layer data
I1016 20:27:39.018332  2801 net.cpp:91] Creating Layer data
I1016 20:27:39.018337  2801 net.cpp:409] data -> data
I1016 20:27:39.018362  2801 net.cpp:409] data -> label
I1016 20:27:39.018656  2801 image_data_layer.cpp:37] Opening file /home/nikoong/Algorithm_test/attribute/dataset/DukeMTMC-reID/train.txt
I1016 20:27:39.023494  2801 image_data_layer.cpp:47] Shuffling data
I1016 20:27:39.025588  2801 image_data_layer.cpp:52] A total of 16522 images.
I1016 20:27:39.164685  2801 image_data_layer.cpp:79] output data size: 45,3,144,56
I1016 20:27:39.179304  2801 net.cpp:141] Setting up data
I1016 20:27:39.179338  2801 net.cpp:148] Top shape: 45 3 144 56 (1088640)
I1016 20:27:39.179343  2801 net.cpp:148] Top shape: 45 (45)
I1016 20:27:39.179345  2801 net.cpp:156] Memory required for data: 4354740
I1016 20:27:39.179352  2801 layer_factory.hpp:77] Creating layer conv1
I1016 20:27:39.179381  2801 net.cpp:91] Creating Layer conv1
I1016 20:27:39.179385  2801 net.cpp:435] conv1 <- data
I1016 20:27:39.179396  2801 net.cpp:409] conv1 -> conv1
I1016 20:27:39.503145  2801 net.cpp:141] Setting up conv1
I1016 20:27:39.503181  2801 net.cpp:148] Top shape: 45 32 144 56 (11612160)
I1016 20:27:39.503185  2801 net.cpp:156] Memory required for data: 50803380
I1016 20:27:39.503214  2801 layer_factory.hpp:77] Creating layer conv1_bn
I1016 20:27:39.503219  2801 layer_factory.cpp:265] Layer conv1_bn is using CAFFE engine.
I1016 20:27:39.503229  2801 net.cpp:91] Creating Layer conv1_bn
I1016 20:27:39.503233  2801 net.cpp:435] conv1_bn <- conv1
I1016 20:27:39.503239  2801 net.cpp:409] conv1_bn -> conv1_bn
I1016 20:27:39.503504  2801 net.cpp:141] Setting up conv1_bn
I1016 20:27:39.503512  2801 net.cpp:148] Top shape: 45 32 144 56 (11612160)
I1016 20:27:39.503525  2801 net.cpp:156] Memory required for data: 97252020
I1016 20:27:39.503532  2801 layer_factory.hpp:77] Creating layer relu1
I1016 20:27:39.503537  2801 net.cpp:91] Creating Layer relu1
I1016 20:27:39.503551  2801 net.cpp:435] relu1 <- conv1_bn
I1016 20:27:39.503554  2801 net.cpp:396] relu1 -> conv1_bn (in-place)
I1016 20:27:39.503706  2801 net.cpp:141] Setting up relu1
I1016 20:27:39.503715  2801 net.cpp:148] Top shape: 45 32 144 56 (11612160)
I1016 20:27:39.503726  2801 net.cpp:156] Memory required for data: 143700660
I1016 20:27:39.503729  2801 layer_factory.hpp:77] Creating layer conv2
I1016 20:27:39.503738  2801 net.cpp:91] Creating Layer conv2
I1016 20:27:39.503751  2801 net.cpp:435] conv2 <- conv1_bn
I1016 20:27:39.503756  2801 net.cpp:409] conv2 -> conv2
I1016 20:27:39.504817  2801 net.cpp:141] Setting up conv2
I1016 20:27:39.504829  2801 net.cpp:148] Top shape: 45 32 144 56 (11612160)
I1016 20:27:39.504832  2801 net.cpp:156] Memory required for data: 190149300
I1016 20:27:39.504837  2801 layer_factory.hpp:77] Creating layer conv2_bn
I1016 20:27:39.504840  2801 layer_factory.cpp:265] Layer conv2_bn is using CAFFE engine.
I1016 20:27:39.504847  2801 net.cpp:91] Creating Layer conv2_bn
I1016 20:27:39.504848  2801 net.cpp:435] conv2_bn <- conv2
I1016 20:27:39.504863  2801 net.cpp:409] conv2_bn -> conv2_bn
I1016 20:27:39.505009  2801 net.cpp:141] Setting up conv2_bn
I1016 20:27:39.505015  2801 net.cpp:148] Top shape: 45 32 144 56 (11612160)
I1016 20:27:39.505018  2801 net.cpp:156] Memory required for data: 236597940
I1016 20:27:39.505025  2801 layer_factory.hpp:77] Creating layer relu2
I1016 20:27:39.505030  2801 net.cpp:91] Creating Layer relu2
I1016 20:27:39.505033  2801 net.cpp:435] relu2 <- conv2_bn
I1016 20:27:39.505036  2801 net.cpp:396] relu2 -> conv2_bn (in-place)
I1016 20:27:39.505165  2801 net.cpp:141] Setting up relu2
I1016 20:27:39.505172  2801 net.cpp:148] Top shape: 45 32 144 56 (11612160)
I1016 20:27:39.505175  2801 net.cpp:156] Memory required for data: 283046580
I1016 20:27:39.505177  2801 layer_factory.hpp:77] Creating layer conv3
I1016 20:27:39.505184  2801 net.cpp:91] Creating Layer conv3
I1016 20:27:39.505187  2801 net.cpp:435] conv3 <- conv2_bn
I1016 20:27:39.505192  2801 net.cpp:409] conv3 -> conv3
I1016 20:27:39.506150  2801 net.cpp:141] Setting up conv3
I1016 20:27:39.506161  2801 net.cpp:148] Top shape: 45 32 144 56 (11612160)
I1016 20:27:39.506165  2801 net.cpp:156] Memory required for data: 329495220
I1016 20:27:39.506170  2801 layer_factory.hpp:77] Creating layer conv3_bn
I1016 20:27:39.506172  2801 layer_factory.cpp:265] Layer conv3_bn is using CAFFE engine.
I1016 20:27:39.506178  2801 net.cpp:91] Creating Layer conv3_bn
I1016 20:27:39.506181  2801 net.cpp:435] conv3_bn <- conv3
I1016 20:27:39.506196  2801 net.cpp:409] conv3_bn -> conv3_bn
I1016 20:27:39.506342  2801 net.cpp:141] Setting up conv3_bn
I1016 20:27:39.506348  2801 net.cpp:148] Top shape: 45 32 144 56 (11612160)
I1016 20:27:39.506351  2801 net.cpp:156] Memory required for data: 375943860
I1016 20:27:39.506358  2801 layer_factory.hpp:77] Creating layer relu3
I1016 20:27:39.506362  2801 net.cpp:91] Creating Layer relu3
I1016 20:27:39.506364  2801 net.cpp:435] relu3 <- conv3_bn
I1016 20:27:39.506368  2801 net.cpp:396] relu3 -> conv3_bn (in-place)
I1016 20:27:39.506927  2801 net.cpp:141] Setting up relu3
I1016 20:27:39.506937  2801 net.cpp:148] Top shape: 45 32 144 56 (11612160)
I1016 20:27:39.506940  2801 net.cpp:156] Memory required for data: 422392500
I1016 20:27:39.506943  2801 layer_factory.hpp:77] Creating layer pool1
I1016 20:27:39.506950  2801 net.cpp:91] Creating Layer pool1
I1016 20:27:39.506953  2801 net.cpp:435] pool1 <- conv3_bn
I1016 20:27:39.506956  2801 net.cpp:409] pool1 -> pool1
I1016 20:27:39.506999  2801 net.cpp:141] Setting up pool1
I1016 20:27:39.507014  2801 net.cpp:148] Top shape: 45 32 72 28 (2903040)
I1016 20:27:39.507016  2801 net.cpp:156] Memory required for data: 434004660
I1016 20:27:39.507019  2801 layer_factory.hpp:77] Creating layer pool1_pool1_0_split
I1016 20:27:39.507024  2801 net.cpp:91] Creating Layer pool1_pool1_0_split
I1016 20:27:39.507026  2801 net.cpp:435] pool1_pool1_0_split <- pool1
I1016 20:27:39.507030  2801 net.cpp:409] pool1_pool1_0_split -> pool1_pool1_0_split_0
I1016 20:27:39.507033  2801 net.cpp:409] pool1_pool1_0_split -> pool1_pool1_0_split_1
I1016 20:27:39.507037  2801 net.cpp:409] pool1_pool1_0_split -> pool1_pool1_0_split_2
I1016 20:27:39.507050  2801 net.cpp:409] pool1_pool1_0_split -> pool1_pool1_0_split_3
I1016 20:27:39.507083  2801 net.cpp:141] Setting up pool1_pool1_0_split
I1016 20:27:39.507088  2801 net.cpp:148] Top shape: 45 32 72 28 (2903040)
I1016 20:27:39.507091  2801 net.cpp:148] Top shape: 45 32 72 28 (2903040)
I1016 20:27:39.507094  2801 net.cpp:148] Top shape: 45 32 72 28 (2903040)
I1016 20:27:39.507107  2801 net.cpp:148] Top shape: 45 32 72 28 (2903040)
I1016 20:27:39.507108  2801 net.cpp:156] Memory required for data: 480453300
I1016 20:27:39.507112  2801 layer_factory.hpp:77] Creating layer inception_1a/1x1
I1016 20:27:39.507127  2801 net.cpp:91] Creating Layer inception_1a/1x1
I1016 20:27:39.507129  2801 net.cpp:435] inception_1a/1x1 <- pool1_pool1_0_split_0
I1016 20:27:39.507133  2801 net.cpp:409] inception_1a/1x1 -> inception_1a/1x1
I1016 20:27:39.508733  2801 net.cpp:141] Setting up inception_1a/1x1
I1016 20:27:39.508744  2801 net.cpp:148] Top shape: 45 64 72 28 (5806080)
I1016 20:27:39.508747  2801 net.cpp:156] Memory required for data: 503677620
I1016 20:27:39.508754  2801 layer_factory.hpp:77] Creating layer inception_1a/1x1_bn
I1016 20:27:39.508756  2801 layer_factory.cpp:265] Layer inception_1a/1x1_bn is using CAFFE engine.
I1016 20:27:39.508761  2801 net.cpp:91] Creating Layer inception_1a/1x1_bn
I1016 20:27:39.508764  2801 net.cpp:435] inception_1a/1x1_bn <- inception_1a/1x1
I1016 20:27:39.508780  2801 net.cpp:409] inception_1a/1x1_bn -> inception_1a/1x1_bn
I1016 20:27:39.508931  2801 net.cpp:141] Setting up inception_1a/1x1_bn
I1016 20:27:39.508939  2801 net.cpp:148] Top shape: 45 64 72 28 (5806080)
I1016 20:27:39.508940  2801 net.cpp:156] Memory required for data: 526901940
I1016 20:27:39.508946  2801 layer_factory.hpp:77] Creating layer inception_1a/relu_1x1
I1016 20:27:39.508950  2801 net.cpp:91] Creating Layer inception_1a/relu_1x1
I1016 20:27:39.508952  2801 net.cpp:435] inception_1a/relu_1x1 <- inception_1a/1x1_bn
I1016 20:27:39.508956  2801 net.cpp:396] inception_1a/relu_1x1 -> inception_1a/1x1_bn (in-place)
I1016 20:27:39.509089  2801 net.cpp:141] Setting up inception_1a/relu_1x1
I1016 20:27:39.509096  2801 net.cpp:148] Top shape: 45 64 72 28 (5806080)
I1016 20:27:39.509099  2801 net.cpp:156] Memory required for data: 550126260
I1016 20:27:39.509101  2801 layer_factory.hpp:77] Creating layer inception_1a/3x3_reduce
I1016 20:27:39.509109  2801 net.cpp:91] Creating Layer inception_1a/3x3_reduce
I1016 20:27:39.509111  2801 net.cpp:435] inception_1a/3x3_reduce <- pool1_pool1_0_split_1
I1016 20:27:39.509115  2801 net.cpp:409] inception_1a/3x3_reduce -> inception_1a/3x3_reduce
I1016 20:27:39.510059  2801 net.cpp:141] Setting up inception_1a/3x3_reduce
I1016 20:27:39.510069  2801 net.cpp:148] Top shape: 45 64 72 28 (5806080)
I1016 20:27:39.510072  2801 net.cpp:156] Memory required for data: 573350580
I1016 20:27:39.510077  2801 layer_factory.hpp:77] Creating layer inception_1a/3x3_reduce_bn
I1016 20:27:39.510080  2801 layer_factory.cpp:265] Layer inception_1a/3x3_reduce_bn is using CAFFE engine.
I1016 20:27:39.510087  2801 net.cpp:91] Creating Layer inception_1a/3x3_reduce_bn
I1016 20:27:39.510089  2801 net.cpp:435] inception_1a/3x3_reduce_bn <- inception_1a/3x3_reduce
I1016 20:27:39.510103  2801 net.cpp:409] inception_1a/3x3_reduce_bn -> inception_1a/3x3_reduce_bn
I1016 20:27:39.510252  2801 net.cpp:141] Setting up inception_1a/3x3_reduce_bn
I1016 20:27:39.510259  2801 net.cpp:148] Top shape: 45 64 72 28 (5806080)
I1016 20:27:39.510262  2801 net.cpp:156] Memory required for data: 596574900
I1016 20:27:39.510267  2801 layer_factory.hpp:77] Creating layer inception_1a/relu_3x3_reduce
I1016 20:27:39.510272  2801 net.cpp:91] Creating Layer inception_1a/relu_3x3_reduce
I1016 20:27:39.510274  2801 net.cpp:435] inception_1a/relu_3x3_reduce <- inception_1a/3x3_reduce_bn
I1016 20:27:39.510277  2801 net.cpp:396] inception_1a/relu_3x3_reduce -> inception_1a/3x3_reduce_bn (in-place)
I1016 20:27:39.510409  2801 net.cpp:141] Setting up inception_1a/relu_3x3_reduce
I1016 20:27:39.510417  2801 net.cpp:148] Top shape: 45 64 72 28 (5806080)
I1016 20:27:39.510419  2801 net.cpp:156] Memory required for data: 619799220
I1016 20:27:39.510422  2801 layer_factory.hpp:77] Creating layer inception_1a/3x3
I1016 20:27:39.510429  2801 net.cpp:91] Creating Layer inception_1a/3x3
I1016 20:27:39.510432  2801 net.cpp:435] inception_1a/3x3 <- inception_1a/3x3_reduce_bn
I1016 20:27:39.510437  2801 net.cpp:409] inception_1a/3x3 -> inception_1a/3x3
I1016 20:27:39.512286  2801 net.cpp:141] Setting up inception_1a/3x3
I1016 20:27:39.512313  2801 net.cpp:148] Top shape: 45 64 72 28 (5806080)
I1016 20:27:39.512317  2801 net.cpp:156] Memory required for data: 643023540
I1016 20:27:39.512322  2801 layer_factory.hpp:77] Creating layer inception_1a/3x3_bn
I1016 20:27:39.512326  2801 layer_factory.cpp:265] Layer inception_1a/3x3_bn is using CAFFE engine.
I1016 20:27:39.512341  2801 net.cpp:91] Creating Layer inception_1a/3x3_bn
I1016 20:27:39.512346  2801 net.cpp:435] inception_1a/3x3_bn <- inception_1a/3x3
I1016 20:27:39.512351  2801 net.cpp:409] inception_1a/3x3_bn -> inception_1a/3x3_bn
I1016 20:27:39.512512  2801 net.cpp:141] Setting up inception_1a/3x3_bn
I1016 20:27:39.512518  2801 net.cpp:148] Top shape: 45 64 72 28 (5806080)
I1016 20:27:39.512521  2801 net.cpp:156] Memory required for data: 666247860
I1016 20:27:39.512528  2801 layer_factory.hpp:77] Creating layer inception_1a/relu_3x3
I1016 20:27:39.512533  2801 net.cpp:91] Creating Layer inception_1a/relu_3x3
I1016 20:27:39.512536  2801 net.cpp:435] inception_1a/relu_3x3 <- inception_1a/3x3_bn
I1016 20:27:39.512539  2801 net.cpp:396] inception_1a/relu_3x3 -> inception_1a/3x3_bn (in-place)
I1016 20:27:39.512668  2801 net.cpp:141] Setting up inception_1a/relu_3x3
I1016 20:27:39.512676  2801 net.cpp:148] Top shape: 45 64 72 28 (5806080)
I1016 20:27:39.512678  2801 net.cpp:156] Memory required for data: 689472180
I1016 20:27:39.512681  2801 layer_factory.hpp:77] Creating layer inception_1a/double_3x3_reduce
I1016 20:27:39.512687  2801 net.cpp:91] Creating Layer inception_1a/double_3x3_reduce
I1016 20:27:39.512691  2801 net.cpp:435] inception_1a/double_3x3_reduce <- pool1_pool1_0_split_2
I1016 20:27:39.512694  2801 net.cpp:409] inception_1a/double_3x3_reduce -> inception_1a/double_3x3_reduce
I1016 20:27:39.513646  2801 net.cpp:141] Setting up inception_1a/double_3x3_reduce
I1016 20:27:39.513658  2801 net.cpp:148] Top shape: 45 64 72 28 (5806080)
I1016 20:27:39.513660  2801 net.cpp:156] Memory required for data: 712696500
I1016 20:27:39.513664  2801 layer_factory.hpp:77] Creating layer inception_1a/double_3x3_reduce_bn
I1016 20:27:39.513667  2801 layer_factory.cpp:265] Layer inception_1a/double_3x3_reduce_bn is using CAFFE engine.
I1016 20:27:39.513672  2801 net.cpp:91] Creating Layer inception_1a/double_3x3_reduce_bn
I1016 20:27:39.513675  2801 net.cpp:435] inception_1a/double_3x3_reduce_bn <- inception_1a/double_3x3_reduce
I1016 20:27:39.513689  2801 net.cpp:409] inception_1a/double_3x3_reduce_bn -> inception_1a/double_3x3_reduce_bn
I1016 20:27:39.513841  2801 net.cpp:141] Setting up inception_1a/double_3x3_reduce_bn
I1016 20:27:39.513847  2801 net.cpp:148] Top shape: 45 64 72 28 (5806080)
I1016 20:27:39.513859  2801 net.cpp:156] Memory required for data: 735920820
I1016 20:27:39.513864  2801 layer_factory.hpp:77] Creating layer inception_1a/relu_double_3x3_reduce
I1016 20:27:39.513870  2801 net.cpp:91] Creating Layer inception_1a/relu_double_3x3_reduce
I1016 20:27:39.513871  2801 net.cpp:435] inception_1a/relu_double_3x3_reduce <- inception_1a/double_3x3_reduce_bn
I1016 20:27:39.513875  2801 net.cpp:396] inception_1a/relu_double_3x3_reduce -> inception_1a/double_3x3_reduce_bn (in-place)
I1016 20:27:39.513998  2801 net.cpp:141] Setting up inception_1a/relu_double_3x3_reduce
I1016 20:27:39.514004  2801 net.cpp:148] Top shape: 45 64 72 28 (5806080)
I1016 20:27:39.514016  2801 net.cpp:156] Memory required for data: 759145140
I1016 20:27:39.514019  2801 layer_factory.hpp:77] Creating layer inception_1a/double_3x3_1
I1016 20:27:39.514025  2801 net.cpp:91] Creating Layer inception_1a/double_3x3_1
I1016 20:27:39.514029  2801 net.cpp:435] inception_1a/double_3x3_1 <- inception_1a/double_3x3_reduce_bn
I1016 20:27:39.514032  2801 net.cpp:409] inception_1a/double_3x3_1 -> inception_1a/double_3x3_1
I1016 20:27:39.515349  2801 net.cpp:141] Setting up inception_1a/double_3x3_1
I1016 20:27:39.515362  2801 net.cpp:148] Top shape: 45 64 72 28 (5806080)
I1016 20:27:39.515365  2801 net.cpp:156] Memory required for data: 782369460
I1016 20:27:39.515370  2801 layer_factory.hpp:77] Creating layer inception_1a/double_3x3_1_bn
I1016 20:27:39.515373  2801 layer_factory.cpp:265] Layer inception_1a/double_3x3_1_bn is using CAFFE engine.
I1016 20:27:39.515378  2801 net.cpp:91] Creating Layer inception_1a/double_3x3_1_bn
I1016 20:27:39.515390  2801 net.cpp:435] inception_1a/double_3x3_1_bn <- inception_1a/double_3x3_1
I1016 20:27:39.515394  2801 net.cpp:409] inception_1a/double_3x3_1_bn -> inception_1a/double_3x3_1_bn
I1016 20:27:39.515554  2801 net.cpp:141] Setting up inception_1a/double_3x3_1_bn
I1016 20:27:39.515560  2801 net.cpp:148] Top shape: 45 64 72 28 (5806080)
I1016 20:27:39.515563  2801 net.cpp:156] Memory required for data: 805593780
I1016 20:27:39.515568  2801 layer_factory.hpp:77] Creating layer inception_1a/relu_double_3x3_1
I1016 20:27:39.515573  2801 net.cpp:91] Creating Layer inception_1a/relu_double_3x3_1
I1016 20:27:39.515575  2801 net.cpp:435] inception_1a/relu_double_3x3_1 <- inception_1a/double_3x3_1_bn
I1016 20:27:39.515588  2801 net.cpp:396] inception_1a/relu_double_3x3_1 -> inception_1a/double_3x3_1_bn (in-place)
I1016 20:27:39.515712  2801 net.cpp:141] Setting up inception_1a/relu_double_3x3_1
I1016 20:27:39.515720  2801 net.cpp:148] Top shape: 45 64 72 28 (5806080)
I1016 20:27:39.515722  2801 net.cpp:156] Memory required for data: 828818100
I1016 20:27:39.515725  2801 layer_factory.hpp:77] Creating layer inception_1a/double_3x3_2
I1016 20:27:39.515732  2801 net.cpp:91] Creating Layer inception_1a/double_3x3_2
I1016 20:27:39.515734  2801 net.cpp:435] inception_1a/double_3x3_2 <- inception_1a/double_3x3_1_bn
I1016 20:27:39.515748  2801 net.cpp:409] inception_1a/double_3x3_2 -> inception_1a/double_3x3_2
I1016 20:27:39.516918  2801 net.cpp:141] Setting up inception_1a/double_3x3_2
I1016 20:27:39.516940  2801 net.cpp:148] Top shape: 45 64 72 28 (5806080)
I1016 20:27:39.516943  2801 net.cpp:156] Memory required for data: 852042420
I1016 20:27:39.516957  2801 layer_factory.hpp:77] Creating layer inception_1a/double_3x3_2_bn
I1016 20:27:39.516969  2801 layer_factory.cpp:265] Layer inception_1a/double_3x3_2_bn is using CAFFE engine.
I1016 20:27:39.516975  2801 net.cpp:91] Creating Layer inception_1a/double_3x3_2_bn
I1016 20:27:39.516978  2801 net.cpp:435] inception_1a/double_3x3_2_bn <- inception_1a/double_3x3_2
I1016 20:27:39.516983  2801 net.cpp:409] inception_1a/double_3x3_2_bn -> inception_1a/double_3x3_2_bn
I1016 20:27:39.517153  2801 net.cpp:141] Setting up inception_1a/double_3x3_2_bn
I1016 20:27:39.517158  2801 net.cpp:148] Top shape: 45 64 72 28 (5806080)
I1016 20:27:39.517170  2801 net.cpp:156] Memory required for data: 875266740
I1016 20:27:39.517176  2801 layer_factory.hpp:77] Creating layer inception_1a/relu_double_3x3_2
I1016 20:27:39.517180  2801 net.cpp:91] Creating Layer inception_1a/relu_double_3x3_2
I1016 20:27:39.517184  2801 net.cpp:435] inception_1a/relu_double_3x3_2 <- inception_1a/double_3x3_2_bn
I1016 20:27:39.517196  2801 net.cpp:396] inception_1a/relu_double_3x3_2 -> inception_1a/double_3x3_2_bn (in-place)
I1016 20:27:39.517828  2801 net.cpp:141] Setting up inception_1a/relu_double_3x3_2
I1016 20:27:39.517840  2801 net.cpp:148] Top shape: 45 64 72 28 (5806080)
I1016 20:27:39.517843  2801 net.cpp:156] Memory required for data: 898491060
I1016 20:27:39.517846  2801 layer_factory.hpp:77] Creating layer inception_1a/pool
I1016 20:27:39.517853  2801 net.cpp:91] Creating Layer inception_1a/pool
I1016 20:27:39.517855  2801 net.cpp:435] inception_1a/pool <- pool1_pool1_0_split_3
I1016 20:27:39.517859  2801 net.cpp:409] inception_1a/pool -> inception_1a/pool
I1016 20:27:39.518009  2801 net.cpp:141] Setting up inception_1a/pool
I1016 20:27:39.518018  2801 net.cpp:148] Top shape: 45 32 72 28 (2903040)
I1016 20:27:39.518029  2801 net.cpp:156] Memory required for data: 910103220
I1016 20:27:39.518033  2801 layer_factory.hpp:77] Creating layer inception_1a/pool_proj
I1016 20:27:39.518039  2801 net.cpp:91] Creating Layer inception_1a/pool_proj
I1016 20:27:39.518041  2801 net.cpp:435] inception_1a/pool_proj <- inception_1a/pool
I1016 20:27:39.518046  2801 net.cpp:409] inception_1a/pool_proj -> inception_1a/pool_proj
I1016 20:27:39.519170  2801 net.cpp:141] Setting up inception_1a/pool_proj
I1016 20:27:39.519191  2801 net.cpp:148] Top shape: 45 64 72 28 (5806080)
I1016 20:27:39.519193  2801 net.cpp:156] Memory required for data: 933327540
I1016 20:27:39.519198  2801 layer_factory.hpp:77] Creating layer inception_1a/pool_proj_bn
I1016 20:27:39.519202  2801 layer_factory.cpp:265] Layer inception_1a/pool_proj_bn is using CAFFE engine.
I1016 20:27:39.519218  2801 net.cpp:91] Creating Layer inception_1a/pool_proj_bn
I1016 20:27:39.519222  2801 net.cpp:435] inception_1a/pool_proj_bn <- inception_1a/pool_proj
I1016 20:27:39.519227  2801 net.cpp:409] inception_1a/pool_proj_bn -> inception_1a/pool_proj_bn
I1016 20:27:39.519402  2801 net.cpp:141] Setting up inception_1a/pool_proj_bn
I1016 20:27:39.519407  2801 net.cpp:148] Top shape: 45 64 72 28 (5806080)
I1016 20:27:39.519420  2801 net.cpp:156] Memory required for data: 956551860
I1016 20:27:39.519426  2801 layer_factory.hpp:77] Creating layer inception_1a/relu_pool_proj
I1016 20:27:39.519430  2801 net.cpp:91] Creating Layer inception_1a/relu_pool_proj
I1016 20:27:39.519433  2801 net.cpp:435] inception_1a/relu_pool_proj <- inception_1a/pool_proj_bn
I1016 20:27:39.519448  2801 net.cpp:396] inception_1a/relu_pool_proj -> inception_1a/pool_proj_bn (in-place)
I1016 20:27:39.519639  2801 net.cpp:141] Setting up inception_1a/relu_pool_proj
I1016 20:27:39.519646  2801 net.cpp:148] Top shape: 45 64 72 28 (5806080)
I1016 20:27:39.519659  2801 net.cpp:156] Memory required for data: 979776180
I1016 20:27:39.519660  2801 layer_factory.hpp:77] Creating layer inception_1a/output
I1016 20:27:39.519665  2801 net.cpp:91] Creating Layer inception_1a/output
I1016 20:27:39.519677  2801 net.cpp:435] inception_1a/output <- inception_1a/1x1_bn
I1016 20:27:39.519681  2801 net.cpp:435] inception_1a/output <- inception_1a/3x3_bn
I1016 20:27:39.519685  2801 net.cpp:435] inception_1a/output <- inception_1a/double_3x3_2_bn
I1016 20:27:39.519687  2801 net.cpp:435] inception_1a/output <- inception_1a/pool_proj_bn
I1016 20:27:39.519690  2801 net.cpp:409] inception_1a/output -> inception_1a/output
I1016 20:27:39.519711  2801 net.cpp:141] Setting up inception_1a/output
I1016 20:27:39.519716  2801 net.cpp:148] Top shape: 45 256 72 28 (23224320)
I1016 20:27:39.519718  2801 net.cpp:156] Memory required for data: 1072673460
I1016 20:27:39.519721  2801 layer_factory.hpp:77] Creating layer inception_1a/output_inception_1a/output_0_split
I1016 20:27:39.519726  2801 net.cpp:91] Creating Layer inception_1a/output_inception_1a/output_0_split
I1016 20:27:39.519727  2801 net.cpp:435] inception_1a/output_inception_1a/output_0_split <- inception_1a/output
I1016 20:27:39.519731  2801 net.cpp:409] inception_1a/output_inception_1a/output_0_split -> inception_1a/output_inception_1a/output_0_split_0
I1016 20:27:39.519735  2801 net.cpp:409] inception_1a/output_inception_1a/output_0_split -> inception_1a/output_inception_1a/output_0_split_1
I1016 20:27:39.519739  2801 net.cpp:409] inception_1a/output_inception_1a/output_0_split -> inception_1a/output_inception_1a/output_0_split_2
I1016 20:27:39.519778  2801 net.cpp:141] Setting up inception_1a/output_inception_1a/output_0_split
I1016 20:27:39.519793  2801 net.cpp:148] Top shape: 45 256 72 28 (23224320)
I1016 20:27:39.519795  2801 net.cpp:148] Top shape: 45 256 72 28 (23224320)
I1016 20:27:39.519807  2801 net.cpp:148] Top shape: 45 256 72 28 (23224320)
I1016 20:27:39.519809  2801 net.cpp:156] Memory required for data: 1351365300
I1016 20:27:39.519811  2801 layer_factory.hpp:77] Creating layer inception_1b/3x3_reduce
I1016 20:27:39.519827  2801 net.cpp:91] Creating Layer inception_1b/3x3_reduce
I1016 20:27:39.519830  2801 net.cpp:435] inception_1b/3x3_reduce <- inception_1a/output_inception_1a/output_0_split_0
I1016 20:27:39.519834  2801 net.cpp:409] inception_1b/3x3_reduce -> inception_1b/3x3_reduce
I1016 20:27:39.521479  2801 net.cpp:141] Setting up inception_1b/3x3_reduce
I1016 20:27:39.521491  2801 net.cpp:148] Top shape: 45 64 72 28 (5806080)
I1016 20:27:39.521493  2801 net.cpp:156] Memory required for data: 1374589620
I1016 20:27:39.521498  2801 layer_factory.hpp:77] Creating layer inception_1b/3x3_reduce_bn
I1016 20:27:39.521502  2801 layer_factory.cpp:265] Layer inception_1b/3x3_reduce_bn is using CAFFE engine.
I1016 20:27:39.521507  2801 net.cpp:91] Creating Layer inception_1b/3x3_reduce_bn
I1016 20:27:39.521518  2801 net.cpp:435] inception_1b/3x3_reduce_bn <- inception_1b/3x3_reduce
I1016 20:27:39.521523  2801 net.cpp:409] inception_1b/3x3_reduce_bn -> inception_1b/3x3_reduce_bn
I1016 20:27:39.521719  2801 net.cpp:141] Setting up inception_1b/3x3_reduce_bn
I1016 20:27:39.521726  2801 net.cpp:148] Top shape: 45 64 72 28 (5806080)
I1016 20:27:39.521739  2801 net.cpp:156] Memory required for data: 1397813940
I1016 20:27:39.521749  2801 layer_factory.hpp:77] Creating layer inception_1b/relu_3x3_reduce
I1016 20:27:39.521762  2801 net.cpp:91] Creating Layer inception_1b/relu_3x3_reduce
I1016 20:27:39.521765  2801 net.cpp:435] inception_1b/relu_3x3_reduce <- inception_1b/3x3_reduce_bn
I1016 20:27:39.521769  2801 net.cpp:396] inception_1b/relu_3x3_reduce -> inception_1b/3x3_reduce_bn (in-place)
I1016 20:27:39.521908  2801 net.cpp:141] Setting up inception_1b/relu_3x3_reduce
I1016 20:27:39.521915  2801 net.cpp:148] Top shape: 45 64 72 28 (5806080)
I1016 20:27:39.521919  2801 net.cpp:156] Memory required for data: 1421038260
I1016 20:27:39.521920  2801 layer_factory.hpp:77] Creating layer inception_1b/3x3
I1016 20:27:39.521927  2801 net.cpp:91] Creating Layer inception_1b/3x3
I1016 20:27:39.521929  2801 net.cpp:435] inception_1b/3x3 <- inception_1b/3x3_reduce_bn
I1016 20:27:39.521944  2801 net.cpp:409] inception_1b/3x3 -> inception_1b/3x3
I1016 20:27:39.523516  2801 net.cpp:141] Setting up inception_1b/3x3
I1016 20:27:39.523527  2801 net.cpp:148] Top shape: 45 64 36 14 (1451520)
I1016 20:27:39.523530  2801 net.cpp:156] Memory required for data: 1426844340
I1016 20:27:39.523535  2801 layer_factory.hpp:77] Creating layer inception_1b/3x3_bn
I1016 20:27:39.523540  2801 layer_factory.cpp:265] Layer inception_1b/3x3_bn is using CAFFE engine.
I1016 20:27:39.523555  2801 net.cpp:91] Creating Layer inception_1b/3x3_bn
I1016 20:27:39.523558  2801 net.cpp:435] inception_1b/3x3_bn <- inception_1b/3x3
I1016 20:27:39.523562  2801 net.cpp:409] inception_1b/3x3_bn -> inception_1b/3x3_bn
I1016 20:27:39.523739  2801 net.cpp:141] Setting up inception_1b/3x3_bn
I1016 20:27:39.523746  2801 net.cpp:148] Top shape: 45 64 36 14 (1451520)
I1016 20:27:39.523747  2801 net.cpp:156] Memory required for data: 1432650420
I1016 20:27:39.523753  2801 layer_factory.hpp:77] Creating layer inception_1b/relu_3x3
I1016 20:27:39.523757  2801 net.cpp:91] Creating Layer inception_1b/relu_3x3
I1016 20:27:39.523761  2801 net.cpp:435] inception_1b/relu_3x3 <- inception_1b/3x3_bn
I1016 20:27:39.523774  2801 net.cpp:396] inception_1b/relu_3x3 -> inception_1b/3x3_bn (in-place)
I1016 20:27:39.523910  2801 net.cpp:141] Setting up inception_1b/relu_3x3
I1016 20:27:39.523917  2801 net.cpp:148] Top shape: 45 64 36 14 (1451520)
I1016 20:27:39.523919  2801 net.cpp:156] Memory required for data: 1438456500
I1016 20:27:39.523922  2801 layer_factory.hpp:77] Creating layer inception_1b/double_3x3_reduce
I1016 20:27:39.523929  2801 net.cpp:91] Creating Layer inception_1b/double_3x3_reduce
I1016 20:27:39.523932  2801 net.cpp:435] inception_1b/double_3x3_reduce <- inception_1a/output_inception_1a/output_0_split_1
I1016 20:27:39.523947  2801 net.cpp:409] inception_1b/double_3x3_reduce -> inception_1b/double_3x3_reduce
I1016 20:27:39.525015  2801 net.cpp:141] Setting up inception_1b/double_3x3_reduce
I1016 20:27:39.525027  2801 net.cpp:148] Top shape: 45 64 72 28 (5806080)
I1016 20:27:39.525029  2801 net.cpp:156] Memory required for data: 1461680820
I1016 20:27:39.525034  2801 layer_factory.hpp:77] Creating layer inception_1b/double_3x3_reduce_bn
I1016 20:27:39.525038  2801 layer_factory.cpp:265] Layer inception_1b/double_3x3_reduce_bn is using CAFFE engine.
I1016 20:27:39.525053  2801 net.cpp:91] Creating Layer inception_1b/double_3x3_reduce_bn
I1016 20:27:39.525056  2801 net.cpp:435] inception_1b/double_3x3_reduce_bn <- inception_1b/double_3x3_reduce
I1016 20:27:39.525061  2801 net.cpp:409] inception_1b/double_3x3_reduce_bn -> inception_1b/double_3x3_reduce_bn
I1016 20:27:39.525230  2801 net.cpp:141] Setting up inception_1b/double_3x3_reduce_bn
I1016 20:27:39.525236  2801 net.cpp:148] Top shape: 45 64 72 28 (5806080)
I1016 20:27:39.525238  2801 net.cpp:156] Memory required for data: 1484905140
I1016 20:27:39.525244  2801 layer_factory.hpp:77] Creating layer inception_1b/relu_double_3x3_reduce
I1016 20:27:39.525249  2801 net.cpp:91] Creating Layer inception_1b/relu_double_3x3_reduce
I1016 20:27:39.525252  2801 net.cpp:435] inception_1b/relu_double_3x3_reduce <- inception_1b/double_3x3_reduce_bn
I1016 20:27:39.525264  2801 net.cpp:396] inception_1b/relu_double_3x3_reduce -> inception_1b/double_3x3_reduce_bn (in-place)
I1016 20:27:39.525835  2801 net.cpp:141] Setting up inception_1b/relu_double_3x3_reduce
I1016 20:27:39.525846  2801 net.cpp:148] Top shape: 45 64 72 28 (5806080)
I1016 20:27:39.525848  2801 net.cpp:156] Memory required for data: 1508129460
I1016 20:27:39.525851  2801 layer_factory.hpp:77] Creating layer inception_1b/double_3x3_1
I1016 20:27:39.525859  2801 net.cpp:91] Creating Layer inception_1b/double_3x3_1
I1016 20:27:39.525871  2801 net.cpp:435] inception_1b/double_3x3_1 <- inception_1b/double_3x3_reduce_bn
I1016 20:27:39.525876  2801 net.cpp:409] inception_1b/double_3x3_1 -> inception_1b/double_3x3_1
I1016 20:27:39.526599  2801 net.cpp:141] Setting up inception_1b/double_3x3_1
I1016 20:27:39.526609  2801 net.cpp:148] Top shape: 45 64 72 28 (5806080)
I1016 20:27:39.526612  2801 net.cpp:156] Memory required for data: 1531353780
I1016 20:27:39.526618  2801 layer_factory.hpp:77] Creating layer inception_1b/double_3x3_1_bn
I1016 20:27:39.526620  2801 layer_factory.cpp:265] Layer inception_1b/double_3x3_1_bn is using CAFFE engine.
I1016 20:27:39.526624  2801 net.cpp:91] Creating Layer inception_1b/double_3x3_1_bn
I1016 20:27:39.526636  2801 net.cpp:435] inception_1b/double_3x3_1_bn <- inception_1b/double_3x3_1
I1016 20:27:39.526643  2801 net.cpp:409] inception_1b/double_3x3_1_bn -> inception_1b/double_3x3_1_bn
I1016 20:27:39.526824  2801 net.cpp:141] Setting up inception_1b/double_3x3_1_bn
I1016 20:27:39.526831  2801 net.cpp:148] Top shape: 45 64 72 28 (5806080)
I1016 20:27:39.526842  2801 net.cpp:156] Memory required for data: 1554578100
I1016 20:27:39.526849  2801 layer_factory.hpp:77] Creating layer inception_1b/relu_double_3x3_1
I1016 20:27:39.526863  2801 net.cpp:91] Creating Layer inception_1b/relu_double_3x3_1
I1016 20:27:39.526866  2801 net.cpp:435] inception_1b/relu_double_3x3_1 <- inception_1b/double_3x3_1_bn
I1016 20:27:39.526870  2801 net.cpp:396] inception_1b/relu_double_3x3_1 -> inception_1b/double_3x3_1_bn (in-place)
I1016 20:27:39.527447  2801 net.cpp:141] Setting up inception_1b/relu_double_3x3_1
I1016 20:27:39.527458  2801 net.cpp:148] Top shape: 45 64 72 28 (5806080)
I1016 20:27:39.527470  2801 net.cpp:156] Memory required for data: 1577802420
I1016 20:27:39.527473  2801 layer_factory.hpp:77] Creating layer inception_1b/double_3x3_2
I1016 20:27:39.527493  2801 net.cpp:91] Creating Layer inception_1b/double_3x3_2
I1016 20:27:39.527498  2801 net.cpp:435] inception_1b/double_3x3_2 <- inception_1b/double_3x3_1_bn
I1016 20:27:39.527503  2801 net.cpp:409] inception_1b/double_3x3_2 -> inception_1b/double_3x3_2
I1016 20:27:39.528736  2801 net.cpp:141] Setting up inception_1b/double_3x3_2
I1016 20:27:39.528748  2801 net.cpp:148] Top shape: 45 64 36 14 (1451520)
I1016 20:27:39.528750  2801 net.cpp:156] Memory required for data: 1583608500
I1016 20:27:39.528755  2801 layer_factory.hpp:77] Creating layer inception_1b/double_3x3_2_bn
I1016 20:27:39.528759  2801 layer_factory.cpp:265] Layer inception_1b/double_3x3_2_bn is using CAFFE engine.
I1016 20:27:39.528764  2801 net.cpp:91] Creating Layer inception_1b/double_3x3_2_bn
I1016 20:27:39.528767  2801 net.cpp:435] inception_1b/double_3x3_2_bn <- inception_1b/double_3x3_2
I1016 20:27:39.528781  2801 net.cpp:409] inception_1b/double_3x3_2_bn -> inception_1b/double_3x3_2_bn
I1016 20:27:39.528955  2801 net.cpp:141] Setting up inception_1b/double_3x3_2_bn
I1016 20:27:39.528962  2801 net.cpp:148] Top shape: 45 64 36 14 (1451520)
I1016 20:27:39.528975  2801 net.cpp:156] Memory required for data: 1589414580
I1016 20:27:39.528980  2801 layer_factory.hpp:77] Creating layer inception_1b/relu_double_3x3_2
I1016 20:27:39.528985  2801 net.cpp:91] Creating Layer inception_1b/relu_double_3x3_2
I1016 20:27:39.528987  2801 net.cpp:435] inception_1b/relu_double_3x3_2 <- inception_1b/double_3x3_2_bn
I1016 20:27:39.528990  2801 net.cpp:396] inception_1b/relu_double_3x3_2 -> inception_1b/double_3x3_2_bn (in-place)
I1016 20:27:39.529120  2801 net.cpp:141] Setting up inception_1b/relu_double_3x3_2
I1016 20:27:39.529129  2801 net.cpp:148] Top shape: 45 64 36 14 (1451520)
I1016 20:27:39.529141  2801 net.cpp:156] Memory required for data: 1595220660
I1016 20:27:39.529144  2801 layer_factory.hpp:77] Creating layer inception_1b/pool
I1016 20:27:39.529148  2801 net.cpp:91] Creating Layer inception_1b/pool
I1016 20:27:39.529151  2801 net.cpp:435] inception_1b/pool <- inception_1a/output_inception_1a/output_0_split_2
I1016 20:27:39.529155  2801 net.cpp:409] inception_1b/pool -> inception_1b/pool
I1016 20:27:39.529196  2801 net.cpp:141] Setting up inception_1b/pool
I1016 20:27:39.529201  2801 net.cpp:148] Top shape: 45 256 36 14 (5806080)
I1016 20:27:39.529203  2801 net.cpp:156] Memory required for data: 1618444980
I1016 20:27:39.529215  2801 layer_factory.hpp:77] Creating layer inception_1b/output
I1016 20:27:39.529219  2801 net.cpp:91] Creating Layer inception_1b/output
I1016 20:27:39.529222  2801 net.cpp:435] inception_1b/output <- inception_1b/3x3_bn
I1016 20:27:39.529225  2801 net.cpp:435] inception_1b/output <- inception_1b/double_3x3_2_bn
I1016 20:27:39.529228  2801 net.cpp:435] inception_1b/output <- inception_1b/pool
I1016 20:27:39.529232  2801 net.cpp:409] inception_1b/output -> inception_1b/output
I1016 20:27:39.529249  2801 net.cpp:141] Setting up inception_1b/output
I1016 20:27:39.529254  2801 net.cpp:148] Top shape: 45 384 36 14 (8709120)
I1016 20:27:39.529258  2801 net.cpp:156] Memory required for data: 1653281460
I1016 20:27:39.529259  2801 layer_factory.hpp:77] Creating layer inception_1b/output_inception_1b/output_0_split
I1016 20:27:39.529263  2801 net.cpp:91] Creating Layer inception_1b/output_inception_1b/output_0_split
I1016 20:27:39.529266  2801 net.cpp:435] inception_1b/output_inception_1b/output_0_split <- inception_1b/output
I1016 20:27:39.529270  2801 net.cpp:409] inception_1b/output_inception_1b/output_0_split -> inception_1b/output_inception_1b/output_0_split_0
I1016 20:27:39.529274  2801 net.cpp:409] inception_1b/output_inception_1b/output_0_split -> inception_1b/output_inception_1b/output_0_split_1
I1016 20:27:39.529279  2801 net.cpp:409] inception_1b/output_inception_1b/output_0_split -> inception_1b/output_inception_1b/output_0_split_2
I1016 20:27:39.529283  2801 net.cpp:409] inception_1b/output_inception_1b/output_0_split -> inception_1b/output_inception_1b/output_0_split_3
I1016 20:27:39.529330  2801 net.cpp:141] Setting up inception_1b/output_inception_1b/output_0_split
I1016 20:27:39.529335  2801 net.cpp:148] Top shape: 45 384 36 14 (8709120)
I1016 20:27:39.529348  2801 net.cpp:148] Top shape: 45 384 36 14 (8709120)
I1016 20:27:39.529350  2801 net.cpp:148] Top shape: 45 384 36 14 (8709120)
I1016 20:27:39.529355  2801 net.cpp:148] Top shape: 45 384 36 14 (8709120)
I1016 20:27:39.529356  2801 net.cpp:156] Memory required for data: 1792627380
I1016 20:27:39.529358  2801 layer_factory.hpp:77] Creating layer inception_2a/1x1
I1016 20:27:39.529366  2801 net.cpp:91] Creating Layer inception_2a/1x1
I1016 20:27:39.529368  2801 net.cpp:435] inception_2a/1x1 <- inception_1b/output_inception_1b/output_0_split_0
I1016 20:27:39.529372  2801 net.cpp:409] inception_2a/1x1 -> inception_2a/1x1
I1016 20:27:39.531293  2801 net.cpp:141] Setting up inception_2a/1x1
I1016 20:27:39.531317  2801 net.cpp:148] Top shape: 45 128 36 14 (2903040)
I1016 20:27:39.531321  2801 net.cpp:156] Memory required for data: 1804239540
I1016 20:27:39.531327  2801 layer_factory.hpp:77] Creating layer inception_2a/1x1_bn
I1016 20:27:39.531329  2801 layer_factory.cpp:265] Layer inception_2a/1x1_bn is using CAFFE engine.
I1016 20:27:39.531335  2801 net.cpp:91] Creating Layer inception_2a/1x1_bn
I1016 20:27:39.531338  2801 net.cpp:435] inception_2a/1x1_bn <- inception_2a/1x1
I1016 20:27:39.531345  2801 net.cpp:409] inception_2a/1x1_bn -> inception_2a/1x1_bn
I1016 20:27:39.531512  2801 net.cpp:141] Setting up inception_2a/1x1_bn
I1016 20:27:39.531518  2801 net.cpp:148] Top shape: 45 128 36 14 (2903040)
I1016 20:27:39.531522  2801 net.cpp:156] Memory required for data: 1815851700
I1016 20:27:39.531527  2801 layer_factory.hpp:77] Creating layer inception_2a/relu_1x1
I1016 20:27:39.531532  2801 net.cpp:91] Creating Layer inception_2a/relu_1x1
I1016 20:27:39.531534  2801 net.cpp:435] inception_2a/relu_1x1 <- inception_2a/1x1_bn
I1016 20:27:39.531538  2801 net.cpp:396] inception_2a/relu_1x1 -> inception_2a/1x1_bn (in-place)
I1016 20:27:39.531679  2801 net.cpp:141] Setting up inception_2a/relu_1x1
I1016 20:27:39.531687  2801 net.cpp:148] Top shape: 45 128 36 14 (2903040)
I1016 20:27:39.531700  2801 net.cpp:156] Memory required for data: 1827463860
I1016 20:27:39.531702  2801 layer_factory.hpp:77] Creating layer inception_2a/3x3_reduce
I1016 20:27:39.531710  2801 net.cpp:91] Creating Layer inception_2a/3x3_reduce
I1016 20:27:39.531713  2801 net.cpp:435] inception_2a/3x3_reduce <- inception_1b/output_inception_1b/output_0_split_1
I1016 20:27:39.531718  2801 net.cpp:409] inception_2a/3x3_reduce -> inception_2a/3x3_reduce
I1016 20:27:39.533044  2801 net.cpp:141] Setting up inception_2a/3x3_reduce
I1016 20:27:39.533057  2801 net.cpp:148] Top shape: 45 128 36 14 (2903040)
I1016 20:27:39.533071  2801 net.cpp:156] Memory required for data: 1839076020
I1016 20:27:39.533077  2801 layer_factory.hpp:77] Creating layer inception_2a/3x3_reduce_bn
I1016 20:27:39.533079  2801 layer_factory.cpp:265] Layer inception_2a/3x3_reduce_bn is using CAFFE engine.
I1016 20:27:39.533085  2801 net.cpp:91] Creating Layer inception_2a/3x3_reduce_bn
I1016 20:27:39.533088  2801 net.cpp:435] inception_2a/3x3_reduce_bn <- inception_2a/3x3_reduce
I1016 20:27:39.533094  2801 net.cpp:409] inception_2a/3x3_reduce_bn -> inception_2a/3x3_reduce_bn
I1016 20:27:39.533269  2801 net.cpp:141] Setting up inception_2a/3x3_reduce_bn
I1016 20:27:39.533275  2801 net.cpp:148] Top shape: 45 128 36 14 (2903040)
I1016 20:27:39.533288  2801 net.cpp:156] Memory required for data: 1850688180
I1016 20:27:39.533293  2801 layer_factory.hpp:77] Creating layer inception_2a/relu_3x3_reduce
I1016 20:27:39.533298  2801 net.cpp:91] Creating Layer inception_2a/relu_3x3_reduce
I1016 20:27:39.533300  2801 net.cpp:435] inception_2a/relu_3x3_reduce <- inception_2a/3x3_reduce_bn
I1016 20:27:39.533313  2801 net.cpp:396] inception_2a/relu_3x3_reduce -> inception_2a/3x3_reduce_bn (in-place)
I1016 20:27:39.533458  2801 net.cpp:141] Setting up inception_2a/relu_3x3_reduce
I1016 20:27:39.533466  2801 net.cpp:148] Top shape: 45 128 36 14 (2903040)
I1016 20:27:39.533478  2801 net.cpp:156] Memory required for data: 1862300340
I1016 20:27:39.533481  2801 layer_factory.hpp:77] Creating layer inception_2a/3x3
I1016 20:27:39.533499  2801 net.cpp:91] Creating Layer inception_2a/3x3
I1016 20:27:39.533501  2801 net.cpp:435] inception_2a/3x3 <- inception_2a/3x3_reduce_bn
I1016 20:27:39.533506  2801 net.cpp:409] inception_2a/3x3 -> inception_2a/3x3
I1016 20:27:39.536903  2801 net.cpp:141] Setting up inception_2a/3x3
I1016 20:27:39.536923  2801 net.cpp:148] Top shape: 45 128 36 14 (2903040)
I1016 20:27:39.536926  2801 net.cpp:156] Memory required for data: 1873912500
I1016 20:27:39.536943  2801 layer_factory.hpp:77] Creating layer inception_2a/3x3_bn
I1016 20:27:39.536948  2801 layer_factory.cpp:265] Layer inception_2a/3x3_bn is using CAFFE engine.
I1016 20:27:39.536957  2801 net.cpp:91] Creating Layer inception_2a/3x3_bn
I1016 20:27:39.536962  2801 net.cpp:435] inception_2a/3x3_bn <- inception_2a/3x3
I1016 20:27:39.536967  2801 net.cpp:409] inception_2a/3x3_bn -> inception_2a/3x3_bn
I1016 20:27:39.537147  2801 net.cpp:141] Setting up inception_2a/3x3_bn
I1016 20:27:39.537154  2801 net.cpp:148] Top shape: 45 128 36 14 (2903040)
I1016 20:27:39.537156  2801 net.cpp:156] Memory required for data: 1885524660
I1016 20:27:39.537173  2801 layer_factory.hpp:77] Creating layer inception_2a/relu_3x3
I1016 20:27:39.537178  2801 net.cpp:91] Creating Layer inception_2a/relu_3x3
I1016 20:27:39.537179  2801 net.cpp:435] inception_2a/relu_3x3 <- inception_2a/3x3_bn
I1016 20:27:39.537184  2801 net.cpp:396] inception_2a/relu_3x3 -> inception_2a/3x3_bn (in-place)
I1016 20:27:39.537317  2801 net.cpp:141] Setting up inception_2a/relu_3x3
I1016 20:27:39.537324  2801 net.cpp:148] Top shape: 45 128 36 14 (2903040)
I1016 20:27:39.537328  2801 net.cpp:156] Memory required for data: 1897136820
I1016 20:27:39.537330  2801 layer_factory.hpp:77] Creating layer inception_2a/double_3x3_reduce
I1016 20:27:39.537338  2801 net.cpp:91] Creating Layer inception_2a/double_3x3_reduce
I1016 20:27:39.537343  2801 net.cpp:435] inception_2a/double_3x3_reduce <- inception_1b/output_inception_1b/output_0_split_2
I1016 20:27:39.537348  2801 net.cpp:409] inception_2a/double_3x3_reduce -> inception_2a/double_3x3_reduce
I1016 20:27:39.538627  2801 net.cpp:141] Setting up inception_2a/double_3x3_reduce
I1016 20:27:39.538638  2801 net.cpp:148] Top shape: 45 128 36 14 (2903040)
I1016 20:27:39.538650  2801 net.cpp:156] Memory required for data: 1908748980
I1016 20:27:39.538655  2801 layer_factory.hpp:77] Creating layer inception_2a/double_3x3_reduce_bn
I1016 20:27:39.538658  2801 layer_factory.cpp:265] Layer inception_2a/double_3x3_reduce_bn is using CAFFE engine.
I1016 20:27:39.538676  2801 net.cpp:91] Creating Layer inception_2a/double_3x3_reduce_bn
I1016 20:27:39.538681  2801 net.cpp:435] inception_2a/double_3x3_reduce_bn <- inception_2a/double_3x3_reduce
I1016 20:27:39.538686  2801 net.cpp:409] inception_2a/double_3x3_reduce_bn -> inception_2a/double_3x3_reduce_bn
I1016 20:27:39.538863  2801 net.cpp:141] Setting up inception_2a/double_3x3_reduce_bn
I1016 20:27:39.538869  2801 net.cpp:148] Top shape: 45 128 36 14 (2903040)
I1016 20:27:39.538882  2801 net.cpp:156] Memory required for data: 1920361140
I1016 20:27:39.538887  2801 layer_factory.hpp:77] Creating layer inception_2a/relu_double_3x3_reduce
I1016 20:27:39.538892  2801 net.cpp:91] Creating Layer inception_2a/relu_double_3x3_reduce
I1016 20:27:39.538894  2801 net.cpp:435] inception_2a/relu_double_3x3_reduce <- inception_2a/double_3x3_reduce_bn
I1016 20:27:39.538908  2801 net.cpp:396] inception_2a/relu_double_3x3_reduce -> inception_2a/double_3x3_reduce_bn (in-place)
I1016 20:27:39.539530  2801 net.cpp:141] Setting up inception_2a/relu_double_3x3_reduce
I1016 20:27:39.539541  2801 net.cpp:148] Top shape: 45 128 36 14 (2903040)
I1016 20:27:39.539553  2801 net.cpp:156] Memory required for data: 1931973300
I1016 20:27:39.539556  2801 layer_factory.hpp:77] Creating layer inception_2a/double_3x3_1
I1016 20:27:39.539564  2801 net.cpp:91] Creating Layer inception_2a/double_3x3_1
I1016 20:27:39.539567  2801 net.cpp:435] inception_2a/double_3x3_1 <- inception_2a/double_3x3_reduce_bn
I1016 20:27:39.539583  2801 net.cpp:409] inception_2a/double_3x3_1 -> inception_2a/double_3x3_1
I1016 20:27:39.541373  2801 net.cpp:141] Setting up inception_2a/double_3x3_1
I1016 20:27:39.541394  2801 net.cpp:148] Top shape: 45 128 36 14 (2903040)
I1016 20:27:39.541398  2801 net.cpp:156] Memory required for data: 1943585460
I1016 20:27:39.541402  2801 layer_factory.hpp:77] Creating layer inception_2a/double_3x3_1_bn
I1016 20:27:39.541406  2801 layer_factory.cpp:265] Layer inception_2a/double_3x3_1_bn is using CAFFE engine.
I1016 20:27:39.541421  2801 net.cpp:91] Creating Layer inception_2a/double_3x3_1_bn
I1016 20:27:39.541425  2801 net.cpp:435] inception_2a/double_3x3_1_bn <- inception_2a/double_3x3_1
I1016 20:27:39.541429  2801 net.cpp:409] inception_2a/double_3x3_1_bn -> inception_2a/double_3x3_1_bn
I1016 20:27:39.541607  2801 net.cpp:141] Setting up inception_2a/double_3x3_1_bn
I1016 20:27:39.541613  2801 net.cpp:148] Top shape: 45 128 36 14 (2903040)
I1016 20:27:39.541625  2801 net.cpp:156] Memory required for data: 1955197620
I1016 20:27:39.541631  2801 layer_factory.hpp:77] Creating layer inception_2a/relu_double_3x3_1
I1016 20:27:39.541635  2801 net.cpp:91] Creating Layer inception_2a/relu_double_3x3_1
I1016 20:27:39.541638  2801 net.cpp:435] inception_2a/relu_double_3x3_1 <- inception_2a/double_3x3_1_bn
I1016 20:27:39.541651  2801 net.cpp:396] inception_2a/relu_double_3x3_1 -> inception_2a/double_3x3_1_bn (in-place)
I1016 20:27:39.542237  2801 net.cpp:141] Setting up inception_2a/relu_double_3x3_1
I1016 20:27:39.542248  2801 net.cpp:148] Top shape: 45 128 36 14 (2903040)
I1016 20:27:39.542260  2801 net.cpp:156] Memory required for data: 1966809780
I1016 20:27:39.542263  2801 layer_factory.hpp:77] Creating layer inception_2a/double_3x3_2
I1016 20:27:39.542271  2801 net.cpp:91] Creating Layer inception_2a/double_3x3_2
I1016 20:27:39.542284  2801 net.cpp:435] inception_2a/double_3x3_2 <- inception_2a/double_3x3_1_bn
I1016 20:27:39.542290  2801 net.cpp:409] inception_2a/double_3x3_2 -> inception_2a/double_3x3_2
I1016 20:27:39.544523  2801 net.cpp:141] Setting up inception_2a/double_3x3_2
I1016 20:27:39.544534  2801 net.cpp:148] Top shape: 45 128 36 14 (2903040)
I1016 20:27:39.544538  2801 net.cpp:156] Memory required for data: 1978421940
I1016 20:27:39.544543  2801 layer_factory.hpp:77] Creating layer inception_2a/double_3x3_2_bn
I1016 20:27:39.544545  2801 layer_factory.cpp:265] Layer inception_2a/double_3x3_2_bn is using CAFFE engine.
I1016 20:27:39.544551  2801 net.cpp:91] Creating Layer inception_2a/double_3x3_2_bn
I1016 20:27:39.544555  2801 net.cpp:435] inception_2a/double_3x3_2_bn <- inception_2a/double_3x3_2
I1016 20:27:39.544570  2801 net.cpp:409] inception_2a/double_3x3_2_bn -> inception_2a/double_3x3_2_bn
I1016 20:27:39.544739  2801 net.cpp:141] Setting up inception_2a/double_3x3_2_bn
I1016 20:27:39.544746  2801 net.cpp:148] Top shape: 45 128 36 14 (2903040)
I1016 20:27:39.544749  2801 net.cpp:156] Memory required for data: 1990034100
I1016 20:27:39.544754  2801 layer_factory.hpp:77] Creating layer inception_2a/relu_double_3x3_2
I1016 20:27:39.544759  2801 net.cpp:91] Creating Layer inception_2a/relu_double_3x3_2
I1016 20:27:39.544760  2801 net.cpp:435] inception_2a/relu_double_3x3_2 <- inception_2a/double_3x3_2_bn
I1016 20:27:39.544764  2801 net.cpp:396] inception_2a/relu_double_3x3_2 -> inception_2a/double_3x3_2_bn (in-place)
I1016 20:27:39.544916  2801 net.cpp:141] Setting up inception_2a/relu_double_3x3_2
I1016 20:27:39.544924  2801 net.cpp:148] Top shape: 45 128 36 14 (2903040)
I1016 20:27:39.544927  2801 net.cpp:156] Memory required for data: 2001646260
I1016 20:27:39.544929  2801 layer_factory.hpp:77] Creating layer inception_2a/pool
I1016 20:27:39.544935  2801 net.cpp:91] Creating Layer inception_2a/pool
I1016 20:27:39.544939  2801 net.cpp:435] inception_2a/pool <- inception_1b/output_inception_1b/output_0_split_3
I1016 20:27:39.544952  2801 net.cpp:409] inception_2a/pool -> inception_2a/pool
I1016 20:27:39.545104  2801 net.cpp:141] Setting up inception_2a/pool
I1016 20:27:39.545111  2801 net.cpp:148] Top shape: 45 384 36 14 (8709120)
I1016 20:27:39.545114  2801 net.cpp:156] Memory required for data: 2036482740
I1016 20:27:39.545115  2801 layer_factory.hpp:77] Creating layer inception_2a/pool_proj
I1016 20:27:39.545122  2801 net.cpp:91] Creating Layer inception_2a/pool_proj
I1016 20:27:39.545125  2801 net.cpp:435] inception_2a/pool_proj <- inception_2a/pool
I1016 20:27:39.545140  2801 net.cpp:409] inception_2a/pool_proj -> inception_2a/pool_proj
I1016 20:27:39.546399  2801 net.cpp:141] Setting up inception_2a/pool_proj
I1016 20:27:39.546411  2801 net.cpp:148] Top shape: 45 128 36 14 (2903040)
I1016 20:27:39.546412  2801 net.cpp:156] Memory required for data: 2048094900
I1016 20:27:39.546417  2801 layer_factory.hpp:77] Creating layer inception_2a/pool_proj_bn
I1016 20:27:39.546420  2801 layer_factory.cpp:265] Layer inception_2a/pool_proj_bn is using CAFFE engine.
I1016 20:27:39.546437  2801 net.cpp:91] Creating Layer inception_2a/pool_proj_bn
I1016 20:27:39.546439  2801 net.cpp:435] inception_2a/pool_proj_bn <- inception_2a/pool_proj
I1016 20:27:39.546444  2801 net.cpp:409] inception_2a/pool_proj_bn -> inception_2a/pool_proj_bn
I1016 20:27:39.546613  2801 net.cpp:141] Setting up inception_2a/pool_proj_bn
I1016 20:27:39.546620  2801 net.cpp:148] Top shape: 45 128 36 14 (2903040)
I1016 20:27:39.546622  2801 net.cpp:156] Memory required for data: 2059707060
I1016 20:27:39.546633  2801 layer_factory.hpp:77] Creating layer inception_2a/relu_pool_proj
I1016 20:27:39.546648  2801 net.cpp:91] Creating Layer inception_2a/relu_pool_proj
I1016 20:27:39.546650  2801 net.cpp:435] inception_2a/relu_pool_proj <- inception_2a/pool_proj_bn
I1016 20:27:39.546654  2801 net.cpp:396] inception_2a/relu_pool_proj -> inception_2a/pool_proj_bn (in-place)
I1016 20:27:39.546793  2801 net.cpp:141] Setting up inception_2a/relu_pool_proj
I1016 20:27:39.546800  2801 net.cpp:148] Top shape: 45 128 36 14 (2903040)
I1016 20:27:39.546803  2801 net.cpp:156] Memory required for data: 2071319220
I1016 20:27:39.546805  2801 layer_factory.hpp:77] Creating layer inception_2a/output
I1016 20:27:39.546810  2801 net.cpp:91] Creating Layer inception_2a/output
I1016 20:27:39.546813  2801 net.cpp:435] inception_2a/output <- inception_2a/1x1_bn
I1016 20:27:39.546816  2801 net.cpp:435] inception_2a/output <- inception_2a/3x3_bn
I1016 20:27:39.546828  2801 net.cpp:435] inception_2a/output <- inception_2a/double_3x3_2_bn
I1016 20:27:39.546831  2801 net.cpp:435] inception_2a/output <- inception_2a/pool_proj_bn
I1016 20:27:39.546836  2801 net.cpp:409] inception_2a/output -> inception_2a/output
I1016 20:27:39.546856  2801 net.cpp:141] Setting up inception_2a/output
I1016 20:27:39.546862  2801 net.cpp:148] Top shape: 45 512 36 14 (11612160)
I1016 20:27:39.546876  2801 net.cpp:156] Memory required for data: 2117767860
I1016 20:27:39.546878  2801 layer_factory.hpp:77] Creating layer inception_2a/output_inception_2a/output_0_split
I1016 20:27:39.546883  2801 net.cpp:91] Creating Layer inception_2a/output_inception_2a/output_0_split
I1016 20:27:39.546886  2801 net.cpp:435] inception_2a/output_inception_2a/output_0_split <- inception_2a/output
I1016 20:27:39.546890  2801 net.cpp:409] inception_2a/output_inception_2a/output_0_split -> inception_2a/output_inception_2a/output_0_split_0
I1016 20:27:39.546905  2801 net.cpp:409] inception_2a/output_inception_2a/output_0_split -> inception_2a/output_inception_2a/output_0_split_1
I1016 20:27:39.546910  2801 net.cpp:409] inception_2a/output_inception_2a/output_0_split -> inception_2a/output_inception_2a/output_0_split_2
I1016 20:27:39.546952  2801 net.cpp:141] Setting up inception_2a/output_inception_2a/output_0_split
I1016 20:27:39.546958  2801 net.cpp:148] Top shape: 45 512 36 14 (11612160)
I1016 20:27:39.546962  2801 net.cpp:148] Top shape: 45 512 36 14 (11612160)
I1016 20:27:39.546963  2801 net.cpp:148] Top shape: 45 512 36 14 (11612160)
I1016 20:27:39.546965  2801 net.cpp:156] Memory required for data: 2257113780
I1016 20:27:39.546968  2801 layer_factory.hpp:77] Creating layer inception_2b/3x3_reduce
I1016 20:27:39.546984  2801 net.cpp:91] Creating Layer inception_2b/3x3_reduce
I1016 20:27:39.546986  2801 net.cpp:435] inception_2b/3x3_reduce <- inception_2a/output_inception_2a/output_0_split_0
I1016 20:27:39.546991  2801 net.cpp:409] inception_2b/3x3_reduce -> inception_2b/3x3_reduce
I1016 20:27:39.548476  2801 net.cpp:141] Setting up inception_2b/3x3_reduce
I1016 20:27:39.548488  2801 net.cpp:148] Top shape: 45 128 36 14 (2903040)
I1016 20:27:39.548501  2801 net.cpp:156] Memory required for data: 2268725940
I1016 20:27:39.548506  2801 layer_factory.hpp:77] Creating layer inception_2b/3x3_reduce_bn
I1016 20:27:39.548511  2801 layer_factory.cpp:265] Layer inception_2b/3x3_reduce_bn is using CAFFE engine.
I1016 20:27:39.548516  2801 net.cpp:91] Creating Layer inception_2b/3x3_reduce_bn
I1016 20:27:39.548519  2801 net.cpp:435] inception_2b/3x3_reduce_bn <- inception_2b/3x3_reduce
I1016 20:27:39.548526  2801 net.cpp:409] inception_2b/3x3_reduce_bn -> inception_2b/3x3_reduce_bn
I1016 20:27:39.548727  2801 net.cpp:141] Setting up inception_2b/3x3_reduce_bn
I1016 20:27:39.548733  2801 net.cpp:148] Top shape: 45 128 36 14 (2903040)
I1016 20:27:39.548744  2801 net.cpp:156] Memory required for data: 2280338100
I1016 20:27:39.548750  2801 layer_factory.hpp:77] Creating layer inception_2b/relu_3x3_reduce
I1016 20:27:39.548764  2801 net.cpp:91] Creating Layer inception_2b/relu_3x3_reduce
I1016 20:27:39.548768  2801 net.cpp:435] inception_2b/relu_3x3_reduce <- inception_2b/3x3_reduce_bn
I1016 20:27:39.548771  2801 net.cpp:396] inception_2b/relu_3x3_reduce -> inception_2b/3x3_reduce_bn (in-place)
I1016 20:27:39.548918  2801 net.cpp:141] Setting up inception_2b/relu_3x3_reduce
I1016 20:27:39.548924  2801 net.cpp:148] Top shape: 45 128 36 14 (2903040)
I1016 20:27:39.548936  2801 net.cpp:156] Memory required for data: 2291950260
I1016 20:27:39.548939  2801 layer_factory.hpp:77] Creating layer inception_2b/3x3
I1016 20:27:39.548948  2801 net.cpp:91] Creating Layer inception_2b/3x3
I1016 20:27:39.548950  2801 net.cpp:435] inception_2b/3x3 <- inception_2b/3x3_reduce_bn
I1016 20:27:39.548955  2801 net.cpp:409] inception_2b/3x3 -> inception_2b/3x3
I1016 20:27:39.551571  2801 net.cpp:141] Setting up inception_2b/3x3
I1016 20:27:39.551612  2801 net.cpp:148] Top shape: 45 128 18 7 (725760)
I1016 20:27:39.551615  2801 net.cpp:156] Memory required for data: 2294853300
I1016 20:27:39.551631  2801 layer_factory.hpp:77] Creating layer inception_2b/3x3_bn
I1016 20:27:39.551645  2801 layer_factory.cpp:265] Layer inception_2b/3x3_bn is using CAFFE engine.
I1016 20:27:39.551652  2801 net.cpp:91] Creating Layer inception_2b/3x3_bn
I1016 20:27:39.551657  2801 net.cpp:435] inception_2b/3x3_bn <- inception_2b/3x3
I1016 20:27:39.551663  2801 net.cpp:409] inception_2b/3x3_bn -> inception_2b/3x3_bn
I1016 20:27:39.551841  2801 net.cpp:141] Setting up inception_2b/3x3_bn
I1016 20:27:39.551847  2801 net.cpp:148] Top shape: 45 128 18 7 (725760)
I1016 20:27:39.551859  2801 net.cpp:156] Memory required for data: 2297756340
I1016 20:27:39.551865  2801 layer_factory.hpp:77] Creating layer inception_2b/relu_3x3
I1016 20:27:39.551872  2801 net.cpp:91] Creating Layer inception_2b/relu_3x3
I1016 20:27:39.551874  2801 net.cpp:435] inception_2b/relu_3x3 <- inception_2b/3x3_bn
I1016 20:27:39.551877  2801 net.cpp:396] inception_2b/relu_3x3 -> inception_2b/3x3_bn (in-place)
I1016 20:27:39.552527  2801 net.cpp:141] Setting up inception_2b/relu_3x3
I1016 20:27:39.552538  2801 net.cpp:148] Top shape: 45 128 18 7 (725760)
I1016 20:27:39.552551  2801 net.cpp:156] Memory required for data: 2300659380
I1016 20:27:39.552554  2801 layer_factory.hpp:77] Creating layer inception_2b/double_3x3_reduce
I1016 20:27:39.552574  2801 net.cpp:91] Creating Layer inception_2b/double_3x3_reduce
I1016 20:27:39.552577  2801 net.cpp:435] inception_2b/double_3x3_reduce <- inception_2a/output_inception_2a/output_0_split_1
I1016 20:27:39.552582  2801 net.cpp:409] inception_2b/double_3x3_reduce -> inception_2b/double_3x3_reduce
I1016 20:27:39.554744  2801 net.cpp:141] Setting up inception_2b/double_3x3_reduce
I1016 20:27:39.554769  2801 net.cpp:148] Top shape: 45 128 36 14 (2903040)
I1016 20:27:39.554771  2801 net.cpp:156] Memory required for data: 2312271540
I1016 20:27:39.554777  2801 layer_factory.hpp:77] Creating layer inception_2b/double_3x3_reduce_bn
I1016 20:27:39.554781  2801 layer_factory.cpp:265] Layer inception_2b/double_3x3_reduce_bn is using CAFFE engine.
I1016 20:27:39.554788  2801 net.cpp:91] Creating Layer inception_2b/double_3x3_reduce_bn
I1016 20:27:39.554792  2801 net.cpp:435] inception_2b/double_3x3_reduce_bn <- inception_2b/double_3x3_reduce
I1016 20:27:39.554798  2801 net.cpp:409] inception_2b/double_3x3_reduce_bn -> inception_2b/double_3x3_reduce_bn
I1016 20:27:39.554975  2801 net.cpp:141] Setting up inception_2b/double_3x3_reduce_bn
I1016 20:27:39.554982  2801 net.cpp:148] Top shape: 45 128 36 14 (2903040)
I1016 20:27:39.554993  2801 net.cpp:156] Memory required for data: 2323883700
I1016 20:27:39.555001  2801 layer_factory.hpp:77] Creating layer inception_2b/relu_double_3x3_reduce
I1016 20:27:39.555016  2801 net.cpp:91] Creating Layer inception_2b/relu_double_3x3_reduce
I1016 20:27:39.555019  2801 net.cpp:435] inception_2b/relu_double_3x3_reduce <- inception_2b/double_3x3_reduce_bn
I1016 20:27:39.555022  2801 net.cpp:396] inception_2b/relu_double_3x3_reduce -> inception_2b/double_3x3_reduce_bn (in-place)
I1016 20:27:39.555169  2801 net.cpp:141] Setting up inception_2b/relu_double_3x3_reduce
I1016 20:27:39.555177  2801 net.cpp:148] Top shape: 45 128 36 14 (2903040)
I1016 20:27:39.555181  2801 net.cpp:156] Memory required for data: 2335495860
I1016 20:27:39.555182  2801 layer_factory.hpp:77] Creating layer inception_2b/double_3x3_1
I1016 20:27:39.555192  2801 net.cpp:91] Creating Layer inception_2b/double_3x3_1
I1016 20:27:39.555205  2801 net.cpp:435] inception_2b/double_3x3_1 <- inception_2b/double_3x3_reduce_bn
I1016 20:27:39.555210  2801 net.cpp:409] inception_2b/double_3x3_1 -> inception_2b/double_3x3_1
I1016 20:27:39.557466  2801 net.cpp:141] Setting up inception_2b/double_3x3_1
I1016 20:27:39.557477  2801 net.cpp:148] Top shape: 45 128 36 14 (2903040)
I1016 20:27:39.557481  2801 net.cpp:156] Memory required for data: 2347108020
I1016 20:27:39.557485  2801 layer_factory.hpp:77] Creating layer inception_2b/double_3x3_1_bn
I1016 20:27:39.557489  2801 layer_factory.cpp:265] Layer inception_2b/double_3x3_1_bn is using CAFFE engine.
I1016 20:27:39.557494  2801 net.cpp:91] Creating Layer inception_2b/double_3x3_1_bn
I1016 20:27:39.557498  2801 net.cpp:435] inception_2b/double_3x3_1_bn <- inception_2b/double_3x3_1
I1016 20:27:39.557512  2801 net.cpp:409] inception_2b/double_3x3_1_bn -> inception_2b/double_3x3_1_bn
I1016 20:27:39.557687  2801 net.cpp:141] Setting up inception_2b/double_3x3_1_bn
I1016 20:27:39.557694  2801 net.cpp:148] Top shape: 45 128 36 14 (2903040)
I1016 20:27:39.557696  2801 net.cpp:156] Memory required for data: 2358720180
I1016 20:27:39.557703  2801 layer_factory.hpp:77] Creating layer inception_2b/relu_double_3x3_1
I1016 20:27:39.557706  2801 net.cpp:91] Creating Layer inception_2b/relu_double_3x3_1
I1016 20:27:39.557708  2801 net.cpp:435] inception_2b/relu_double_3x3_1 <- inception_2b/double_3x3_1_bn
I1016 20:27:39.557711  2801 net.cpp:396] inception_2b/relu_double_3x3_1 -> inception_2b/double_3x3_1_bn (in-place)
I1016 20:27:39.557864  2801 net.cpp:141] Setting up inception_2b/relu_double_3x3_1
I1016 20:27:39.557873  2801 net.cpp:148] Top shape: 45 128 36 14 (2903040)
I1016 20:27:39.557875  2801 net.cpp:156] Memory required for data: 2370332340
I1016 20:27:39.557878  2801 layer_factory.hpp:77] Creating layer inception_2b/double_3x3_2
I1016 20:27:39.557885  2801 net.cpp:91] Creating Layer inception_2b/double_3x3_2
I1016 20:27:39.557888  2801 net.cpp:435] inception_2b/double_3x3_2 <- inception_2b/double_3x3_1_bn
I1016 20:27:39.557893  2801 net.cpp:409] inception_2b/double_3x3_2 -> inception_2b/double_3x3_2
I1016 20:27:39.559660  2801 net.cpp:141] Setting up inception_2b/double_3x3_2
I1016 20:27:39.559671  2801 net.cpp:148] Top shape: 45 128 18 7 (725760)
I1016 20:27:39.559674  2801 net.cpp:156] Memory required for data: 2373235380
I1016 20:27:39.559679  2801 layer_factory.hpp:77] Creating layer inception_2b/double_3x3_2_bn
I1016 20:27:39.559681  2801 layer_factory.cpp:265] Layer inception_2b/double_3x3_2_bn is using CAFFE engine.
I1016 20:27:39.559687  2801 net.cpp:91] Creating Layer inception_2b/double_3x3_2_bn
I1016 20:27:39.559690  2801 net.cpp:435] inception_2b/double_3x3_2_bn <- inception_2b/double_3x3_2
I1016 20:27:39.559705  2801 net.cpp:409] inception_2b/double_3x3_2_bn -> inception_2b/double_3x3_2_bn
I1016 20:27:39.559881  2801 net.cpp:141] Setting up inception_2b/double_3x3_2_bn
I1016 20:27:39.559887  2801 net.cpp:148] Top shape: 45 128 18 7 (725760)
I1016 20:27:39.559890  2801 net.cpp:156] Memory required for data: 2376138420
I1016 20:27:39.559895  2801 layer_factory.hpp:77] Creating layer inception_2b/relu_double_3x3_2
I1016 20:27:39.559900  2801 net.cpp:91] Creating Layer inception_2b/relu_double_3x3_2
I1016 20:27:39.559902  2801 net.cpp:435] inception_2b/relu_double_3x3_2 <- inception_2b/double_3x3_2_bn
I1016 20:27:39.559916  2801 net.cpp:396] inception_2b/relu_double_3x3_2 -> inception_2b/double_3x3_2_bn (in-place)
I1016 20:27:39.560051  2801 net.cpp:141] Setting up inception_2b/relu_double_3x3_2
I1016 20:27:39.560060  2801 net.cpp:148] Top shape: 45 128 18 7 (725760)
I1016 20:27:39.560061  2801 net.cpp:156] Memory required for data: 2379041460
I1016 20:27:39.560065  2801 layer_factory.hpp:77] Creating layer inception_2b/pool
I1016 20:27:39.560070  2801 net.cpp:91] Creating Layer inception_2b/pool
I1016 20:27:39.560072  2801 net.cpp:435] inception_2b/pool <- inception_2a/output_inception_2a/output_0_split_2
I1016 20:27:39.560086  2801 net.cpp:409] inception_2b/pool -> inception_2b/pool
I1016 20:27:39.560129  2801 net.cpp:141] Setting up inception_2b/pool
I1016 20:27:39.560135  2801 net.cpp:148] Top shape: 45 512 18 7 (2903040)
I1016 20:27:39.560137  2801 net.cpp:156] Memory required for data: 2390653620
I1016 20:27:39.560139  2801 layer_factory.hpp:77] Creating layer inception_2b/output
I1016 20:27:39.560153  2801 net.cpp:91] Creating Layer inception_2b/output
I1016 20:27:39.560156  2801 net.cpp:435] inception_2b/output <- inception_2b/3x3_bn
I1016 20:27:39.560159  2801 net.cpp:435] inception_2b/output <- inception_2b/double_3x3_2_bn
I1016 20:27:39.560163  2801 net.cpp:435] inception_2b/output <- inception_2b/pool
I1016 20:27:39.560166  2801 net.cpp:409] inception_2b/output -> inception_2b/output
I1016 20:27:39.560184  2801 net.cpp:141] Setting up inception_2b/output
I1016 20:27:39.560189  2801 net.cpp:148] Top shape: 45 768 18 7 (4354560)
I1016 20:27:39.560201  2801 net.cpp:156] Memory required for data: 2408071860
I1016 20:27:39.560204  2801 layer_factory.hpp:77] Creating layer inception_2b/output_inception_2b/output_0_split
I1016 20:27:39.560209  2801 net.cpp:91] Creating Layer inception_2b/output_inception_2b/output_0_split
I1016 20:27:39.560220  2801 net.cpp:435] inception_2b/output_inception_2b/output_0_split <- inception_2b/output
I1016 20:27:39.560223  2801 net.cpp:409] inception_2b/output_inception_2b/output_0_split -> inception_2b/output_inception_2b/output_0_split_0
I1016 20:27:39.560228  2801 net.cpp:409] inception_2b/output_inception_2b/output_0_split -> inception_2b/output_inception_2b/output_0_split_1
I1016 20:27:39.560233  2801 net.cpp:409] inception_2b/output_inception_2b/output_0_split -> inception_2b/output_inception_2b/output_0_split_2
I1016 20:27:39.560237  2801 net.cpp:409] inception_2b/output_inception_2b/output_0_split -> inception_2b/output_inception_2b/output_0_split_3
I1016 20:27:39.560293  2801 net.cpp:141] Setting up inception_2b/output_inception_2b/output_0_split
I1016 20:27:39.560299  2801 net.cpp:148] Top shape: 45 768 18 7 (4354560)
I1016 20:27:39.560302  2801 net.cpp:148] Top shape: 45 768 18 7 (4354560)
I1016 20:27:39.560305  2801 net.cpp:148] Top shape: 45 768 18 7 (4354560)
I1016 20:27:39.560307  2801 net.cpp:148] Top shape: 45 768 18 7 (4354560)
I1016 20:27:39.560309  2801 net.cpp:156] Memory required for data: 2477744820
I1016 20:27:39.560312  2801 layer_factory.hpp:77] Creating layer inception_3a/1x1
I1016 20:27:39.560319  2801 net.cpp:91] Creating Layer inception_3a/1x1
I1016 20:27:39.560330  2801 net.cpp:435] inception_3a/1x1 <- inception_2b/output_inception_2b/output_0_split_0
I1016 20:27:39.560335  2801 net.cpp:409] inception_3a/1x1 -> inception_3a/1x1
I1016 20:27:39.563205  2801 net.cpp:141] Setting up inception_3a/1x1
I1016 20:27:39.563232  2801 net.cpp:148] Top shape: 45 256 18 7 (1451520)
I1016 20:27:39.563235  2801 net.cpp:156] Memory required for data: 2483550900
I1016 20:27:39.563242  2801 layer_factory.hpp:77] Creating layer inception_3a/1x1_bn
I1016 20:27:39.563247  2801 layer_factory.cpp:265] Layer inception_3a/1x1_bn is using CAFFE engine.
I1016 20:27:39.563256  2801 net.cpp:91] Creating Layer inception_3a/1x1_bn
I1016 20:27:39.563261  2801 net.cpp:435] inception_3a/1x1_bn <- inception_3a/1x1
I1016 20:27:39.563266  2801 net.cpp:409] inception_3a/1x1_bn -> inception_3a/1x1_bn
I1016 20:27:39.563488  2801 net.cpp:141] Setting up inception_3a/1x1_bn
I1016 20:27:39.563494  2801 net.cpp:148] Top shape: 45 256 18 7 (1451520)
I1016 20:27:39.563505  2801 net.cpp:156] Memory required for data: 2489356980
I1016 20:27:39.563511  2801 layer_factory.hpp:77] Creating layer inception_3a/relu_1x1
I1016 20:27:39.563525  2801 net.cpp:91] Creating Layer inception_3a/relu_1x1
I1016 20:27:39.563529  2801 net.cpp:435] inception_3a/relu_1x1 <- inception_3a/1x1_bn
I1016 20:27:39.563542  2801 net.cpp:396] inception_3a/relu_1x1 -> inception_3a/1x1_bn (in-place)
I1016 20:27:39.563722  2801 net.cpp:141] Setting up inception_3a/relu_1x1
I1016 20:27:39.563730  2801 net.cpp:148] Top shape: 45 256 18 7 (1451520)
I1016 20:27:39.563742  2801 net.cpp:156] Memory required for data: 2495163060
I1016 20:27:39.563745  2801 layer_factory.hpp:77] Creating layer inception_3a/3x3_reduce
I1016 20:27:39.563753  2801 net.cpp:91] Creating Layer inception_3a/3x3_reduce
I1016 20:27:39.563757  2801 net.cpp:435] inception_3a/3x3_reduce <- inception_2b/output_inception_2b/output_0_split_1
I1016 20:27:39.563762  2801 net.cpp:409] inception_3a/3x3_reduce -> inception_3a/3x3_reduce
I1016 20:27:39.566016  2801 net.cpp:141] Setting up inception_3a/3x3_reduce
I1016 20:27:39.566040  2801 net.cpp:148] Top shape: 45 256 18 7 (1451520)
I1016 20:27:39.566042  2801 net.cpp:156] Memory required for data: 2500969140
I1016 20:27:39.566048  2801 layer_factory.hpp:77] Creating layer inception_3a/3x3_reduce_bn
I1016 20:27:39.566051  2801 layer_factory.cpp:265] Layer inception_3a/3x3_reduce_bn is using CAFFE engine.
I1016 20:27:39.566057  2801 net.cpp:91] Creating Layer inception_3a/3x3_reduce_bn
I1016 20:27:39.566061  2801 net.cpp:435] inception_3a/3x3_reduce_bn <- inception_3a/3x3_reduce
I1016 20:27:39.566066  2801 net.cpp:409] inception_3a/3x3_reduce_bn -> inception_3a/3x3_reduce_bn
I1016 20:27:39.566241  2801 net.cpp:141] Setting up inception_3a/3x3_reduce_bn
I1016 20:27:39.566248  2801 net.cpp:148] Top shape: 45 256 18 7 (1451520)
I1016 20:27:39.566251  2801 net.cpp:156] Memory required for data: 2506775220
I1016 20:27:39.566267  2801 layer_factory.hpp:77] Creating layer inception_3a/relu_3x3_reduce
I1016 20:27:39.566272  2801 net.cpp:91] Creating Layer inception_3a/relu_3x3_reduce
I1016 20:27:39.566274  2801 net.cpp:435] inception_3a/relu_3x3_reduce <- inception_3a/3x3_reduce_bn
I1016 20:27:39.566278  2801 net.cpp:396] inception_3a/relu_3x3_reduce -> inception_3a/3x3_reduce_bn (in-place)
I1016 20:27:39.566437  2801 net.cpp:141] Setting up inception_3a/relu_3x3_reduce
I1016 20:27:39.566445  2801 net.cpp:148] Top shape: 45 256 18 7 (1451520)
I1016 20:27:39.566447  2801 net.cpp:156] Memory required for data: 2512581300
I1016 20:27:39.566459  2801 layer_factory.hpp:77] Creating layer inception_3a/3x3
I1016 20:27:39.566468  2801 net.cpp:91] Creating Layer inception_3a/3x3
I1016 20:27:39.566480  2801 net.cpp:435] inception_3a/3x3 <- inception_3a/3x3_reduce_bn
I1016 20:27:39.566485  2801 net.cpp:409] inception_3a/3x3 -> inception_3a/3x3
I1016 20:27:39.572149  2801 net.cpp:141] Setting up inception_3a/3x3
I1016 20:27:39.572171  2801 net.cpp:148] Top shape: 45 256 18 7 (1451520)
I1016 20:27:39.572175  2801 net.cpp:156] Memory required for data: 2518387380
I1016 20:27:39.572182  2801 layer_factory.hpp:77] Creating layer inception_3a/3x3_bn
I1016 20:27:39.572186  2801 layer_factory.cpp:265] Layer inception_3a/3x3_bn is using CAFFE engine.
I1016 20:27:39.572194  2801 net.cpp:91] Creating Layer inception_3a/3x3_bn
I1016 20:27:39.572211  2801 net.cpp:435] inception_3a/3x3_bn <- inception_3a/3x3
I1016 20:27:39.572216  2801 net.cpp:409] inception_3a/3x3_bn -> inception_3a/3x3_bn
I1016 20:27:39.572410  2801 net.cpp:141] Setting up inception_3a/3x3_bn
I1016 20:27:39.572417  2801 net.cpp:148] Top shape: 45 256 18 7 (1451520)
I1016 20:27:39.572419  2801 net.cpp:156] Memory required for data: 2524193460
I1016 20:27:39.572424  2801 layer_factory.hpp:77] Creating layer inception_3a/relu_3x3
I1016 20:27:39.572430  2801 net.cpp:91] Creating Layer inception_3a/relu_3x3
I1016 20:27:39.572433  2801 net.cpp:435] inception_3a/relu_3x3 <- inception_3a/3x3_bn
I1016 20:27:39.572437  2801 net.cpp:396] inception_3a/relu_3x3 -> inception_3a/3x3_bn (in-place)
I1016 20:27:39.573032  2801 net.cpp:141] Setting up inception_3a/relu_3x3
I1016 20:27:39.573042  2801 net.cpp:148] Top shape: 45 256 18 7 (1451520)
I1016 20:27:39.573045  2801 net.cpp:156] Memory required for data: 2529999540
I1016 20:27:39.573047  2801 layer_factory.hpp:77] Creating layer inception_3a/double_3x3_reduce
I1016 20:27:39.573056  2801 net.cpp:91] Creating Layer inception_3a/double_3x3_reduce
I1016 20:27:39.573060  2801 net.cpp:435] inception_3a/double_3x3_reduce <- inception_2b/output_inception_2b/output_0_split_2
I1016 20:27:39.573076  2801 net.cpp:409] inception_3a/double_3x3_reduce -> inception_3a/double_3x3_reduce
I1016 20:27:39.575844  2801 net.cpp:141] Setting up inception_3a/double_3x3_reduce
I1016 20:27:39.575856  2801 net.cpp:148] Top shape: 45 256 18 7 (1451520)
I1016 20:27:39.575858  2801 net.cpp:156] Memory required for data: 2535805620
I1016 20:27:39.575865  2801 layer_factory.hpp:77] Creating layer inception_3a/double_3x3_reduce_bn
I1016 20:27:39.575868  2801 layer_factory.cpp:265] Layer inception_3a/double_3x3_reduce_bn is using CAFFE engine.
I1016 20:27:39.575875  2801 net.cpp:91] Creating Layer inception_3a/double_3x3_reduce_bn
I1016 20:27:39.575889  2801 net.cpp:435] inception_3a/double_3x3_reduce_bn <- inception_3a/double_3x3_reduce
I1016 20:27:39.575894  2801 net.cpp:409] inception_3a/double_3x3_reduce_bn -> inception_3a/double_3x3_reduce_bn
I1016 20:27:39.576071  2801 net.cpp:141] Setting up inception_3a/double_3x3_reduce_bn
I1016 20:27:39.576078  2801 net.cpp:148] Top shape: 45 256 18 7 (1451520)
I1016 20:27:39.576081  2801 net.cpp:156] Memory required for data: 2541611700
I1016 20:27:39.576086  2801 layer_factory.hpp:77] Creating layer inception_3a/relu_double_3x3_reduce
I1016 20:27:39.576092  2801 net.cpp:91] Creating Layer inception_3a/relu_double_3x3_reduce
I1016 20:27:39.576094  2801 net.cpp:435] inception_3a/relu_double_3x3_reduce <- inception_3a/double_3x3_reduce_bn
I1016 20:27:39.576097  2801 net.cpp:396] inception_3a/relu_double_3x3_reduce -> inception_3a/double_3x3_reduce_bn (in-place)
I1016 20:27:39.576242  2801 net.cpp:141] Setting up inception_3a/relu_double_3x3_reduce
I1016 20:27:39.576249  2801 net.cpp:148] Top shape: 45 256 18 7 (1451520)
I1016 20:27:39.576251  2801 net.cpp:156] Memory required for data: 2547417780
I1016 20:27:39.576254  2801 layer_factory.hpp:77] Creating layer inception_3a/double_3x3_1
I1016 20:27:39.576262  2801 net.cpp:91] Creating Layer inception_3a/double_3x3_1
I1016 20:27:39.576266  2801 net.cpp:435] inception_3a/double_3x3_1 <- inception_3a/double_3x3_reduce_bn
I1016 20:27:39.576297  2801 net.cpp:409] inception_3a/double_3x3_1 -> inception_3a/double_3x3_1
I1016 20:27:39.581960  2801 net.cpp:141] Setting up inception_3a/double_3x3_1
I1016 20:27:39.581974  2801 net.cpp:148] Top shape: 45 256 18 7 (1451520)
I1016 20:27:39.581977  2801 net.cpp:156] Memory required for data: 2553223860
I1016 20:27:39.581984  2801 layer_factory.hpp:77] Creating layer inception_3a/double_3x3_1_bn
I1016 20:27:39.581986  2801 layer_factory.cpp:265] Layer inception_3a/double_3x3_1_bn is using CAFFE engine.
I1016 20:27:39.581993  2801 net.cpp:91] Creating Layer inception_3a/double_3x3_1_bn
I1016 20:27:39.582006  2801 net.cpp:435] inception_3a/double_3x3_1_bn <- inception_3a/double_3x3_1
I1016 20:27:39.582011  2801 net.cpp:409] inception_3a/double_3x3_1_bn -> inception_3a/double_3x3_1_bn
I1016 20:27:39.582196  2801 net.cpp:141] Setting up inception_3a/double_3x3_1_bn
I1016 20:27:39.582203  2801 net.cpp:148] Top shape: 45 256 18 7 (1451520)
I1016 20:27:39.582206  2801 net.cpp:156] Memory required for data: 2559029940
I1016 20:27:39.582211  2801 layer_factory.hpp:77] Creating layer inception_3a/relu_double_3x3_1
I1016 20:27:39.582216  2801 net.cpp:91] Creating Layer inception_3a/relu_double_3x3_1
I1016 20:27:39.582218  2801 net.cpp:435] inception_3a/relu_double_3x3_1 <- inception_3a/double_3x3_1_bn
I1016 20:27:39.582222  2801 net.cpp:396] inception_3a/relu_double_3x3_1 -> inception_3a/double_3x3_1_bn (in-place)
I1016 20:27:39.582376  2801 net.cpp:141] Setting up inception_3a/relu_double_3x3_1
I1016 20:27:39.582383  2801 net.cpp:148] Top shape: 45 256 18 7 (1451520)
I1016 20:27:39.582386  2801 net.cpp:156] Memory required for data: 2564836020
I1016 20:27:39.582388  2801 layer_factory.hpp:77] Creating layer inception_3a/double_3x3_2
I1016 20:27:39.582396  2801 net.cpp:91] Creating Layer inception_3a/double_3x3_2
I1016 20:27:39.582398  2801 net.cpp:435] inception_3a/double_3x3_2 <- inception_3a/double_3x3_1_bn
I1016 20:27:39.582403  2801 net.cpp:409] inception_3a/double_3x3_2 -> inception_3a/double_3x3_2
I1016 20:27:39.588109  2801 net.cpp:141] Setting up inception_3a/double_3x3_2
I1016 20:27:39.588129  2801 net.cpp:148] Top shape: 45 256 18 7 (1451520)
I1016 20:27:39.588131  2801 net.cpp:156] Memory required for data: 2570642100
I1016 20:27:39.588140  2801 layer_factory.hpp:77] Creating layer inception_3a/double_3x3_2_bn
I1016 20:27:39.588145  2801 layer_factory.cpp:265] Layer inception_3a/double_3x3_2_bn is using CAFFE engine.
I1016 20:27:39.588162  2801 net.cpp:91] Creating Layer inception_3a/double_3x3_2_bn
I1016 20:27:39.588168  2801 net.cpp:435] inception_3a/double_3x3_2_bn <- inception_3a/double_3x3_2
I1016 20:27:39.588173  2801 net.cpp:409] inception_3a/double_3x3_2_bn -> inception_3a/double_3x3_2_bn
I1016 20:27:39.588377  2801 net.cpp:141] Setting up inception_3a/double_3x3_2_bn
I1016 20:27:39.588384  2801 net.cpp:148] Top shape: 45 256 18 7 (1451520)
I1016 20:27:39.588387  2801 net.cpp:156] Memory required for data: 2576448180
I1016 20:27:39.588392  2801 layer_factory.hpp:77] Creating layer inception_3a/relu_double_3x3_2
I1016 20:27:39.588397  2801 net.cpp:91] Creating Layer inception_3a/relu_double_3x3_2
I1016 20:27:39.588399  2801 net.cpp:435] inception_3a/relu_double_3x3_2 <- inception_3a/double_3x3_2_bn
I1016 20:27:39.588403  2801 net.cpp:396] inception_3a/relu_double_3x3_2 -> inception_3a/double_3x3_2_bn (in-place)
I1016 20:27:39.588557  2801 net.cpp:141] Setting up inception_3a/relu_double_3x3_2
I1016 20:27:39.588564  2801 net.cpp:148] Top shape: 45 256 18 7 (1451520)
I1016 20:27:39.588567  2801 net.cpp:156] Memory required for data: 2582254260
I1016 20:27:39.588569  2801 layer_factory.hpp:77] Creating layer inception_3a/pool
I1016 20:27:39.588574  2801 net.cpp:91] Creating Layer inception_3a/pool
I1016 20:27:39.588578  2801 net.cpp:435] inception_3a/pool <- inception_2b/output_inception_2b/output_0_split_3
I1016 20:27:39.588583  2801 net.cpp:409] inception_3a/pool -> inception_3a/pool
I1016 20:27:39.588754  2801 net.cpp:141] Setting up inception_3a/pool
I1016 20:27:39.588762  2801 net.cpp:148] Top shape: 45 768 18 7 (4354560)
I1016 20:27:39.588775  2801 net.cpp:156] Memory required for data: 2599672500
I1016 20:27:39.588778  2801 layer_factory.hpp:77] Creating layer inception_3a/pool_proj
I1016 20:27:39.588788  2801 net.cpp:91] Creating Layer inception_3a/pool_proj
I1016 20:27:39.588800  2801 net.cpp:435] inception_3a/pool_proj <- inception_3a/pool
I1016 20:27:39.588805  2801 net.cpp:409] inception_3a/pool_proj -> inception_3a/pool_proj
I1016 20:27:39.590854  2801 net.cpp:141] Setting up inception_3a/pool_proj
I1016 20:27:39.590865  2801 net.cpp:148] Top shape: 45 256 18 7 (1451520)
I1016 20:27:39.590867  2801 net.cpp:156] Memory required for data: 2605478580
I1016 20:27:39.590873  2801 layer_factory.hpp:77] Creating layer inception_3a/pool_proj_bn
I1016 20:27:39.590875  2801 layer_factory.cpp:265] Layer inception_3a/pool_proj_bn is using CAFFE engine.
I1016 20:27:39.590883  2801 net.cpp:91] Creating Layer inception_3a/pool_proj_bn
I1016 20:27:39.590885  2801 net.cpp:435] inception_3a/pool_proj_bn <- inception_3a/pool_proj
I1016 20:27:39.590900  2801 net.cpp:409] inception_3a/pool_proj_bn -> inception_3a/pool_proj_bn
I1016 20:27:39.591084  2801 net.cpp:141] Setting up inception_3a/pool_proj_bn
I1016 20:27:39.591089  2801 net.cpp:148] Top shape: 45 256 18 7 (1451520)
I1016 20:27:39.591092  2801 net.cpp:156] Memory required for data: 2611284660
I1016 20:27:39.591097  2801 layer_factory.hpp:77] Creating layer inception_3a/relu_pool_proj
I1016 20:27:39.591101  2801 net.cpp:91] Creating Layer inception_3a/relu_pool_proj
I1016 20:27:39.591104  2801 net.cpp:435] inception_3a/relu_pool_proj <- inception_3a/pool_proj_bn
I1016 20:27:39.591107  2801 net.cpp:396] inception_3a/relu_pool_proj -> inception_3a/pool_proj_bn (in-place)
I1016 20:27:39.591706  2801 net.cpp:141] Setting up inception_3a/relu_pool_proj
I1016 20:27:39.591715  2801 net.cpp:148] Top shape: 45 256 18 7 (1451520)
I1016 20:27:39.591718  2801 net.cpp:156] Memory required for data: 2617090740
I1016 20:27:39.591720  2801 layer_factory.hpp:77] Creating layer inception_3a/output
I1016 20:27:39.591725  2801 net.cpp:91] Creating Layer inception_3a/output
I1016 20:27:39.591728  2801 net.cpp:435] inception_3a/output <- inception_3a/1x1_bn
I1016 20:27:39.591732  2801 net.cpp:435] inception_3a/output <- inception_3a/3x3_bn
I1016 20:27:39.591735  2801 net.cpp:435] inception_3a/output <- inception_3a/double_3x3_2_bn
I1016 20:27:39.591747  2801 net.cpp:435] inception_3a/output <- inception_3a/pool_proj_bn
I1016 20:27:39.591751  2801 net.cpp:409] inception_3a/output -> inception_3a/output
I1016 20:27:39.591776  2801 net.cpp:141] Setting up inception_3a/output
I1016 20:27:39.591783  2801 net.cpp:148] Top shape: 45 1024 18 7 (5806080)
I1016 20:27:39.591784  2801 net.cpp:156] Memory required for data: 2640315060
I1016 20:27:39.591786  2801 layer_factory.hpp:77] Creating layer inception_3a/output_inception_3a/output_0_split
I1016 20:27:39.591801  2801 net.cpp:91] Creating Layer inception_3a/output_inception_3a/output_0_split
I1016 20:27:39.591804  2801 net.cpp:435] inception_3a/output_inception_3a/output_0_split <- inception_3a/output
I1016 20:27:39.591817  2801 net.cpp:409] inception_3a/output_inception_3a/output_0_split -> inception_3a/output_inception_3a/output_0_split_0
I1016 20:27:39.591821  2801 net.cpp:409] inception_3a/output_inception_3a/output_0_split -> inception_3a/output_inception_3a/output_0_split_1
I1016 20:27:39.591826  2801 net.cpp:409] inception_3a/output_inception_3a/output_0_split -> inception_3a/output_inception_3a/output_0_split_2
I1016 20:27:39.591871  2801 net.cpp:141] Setting up inception_3a/output_inception_3a/output_0_split
I1016 20:27:39.591877  2801 net.cpp:148] Top shape: 45 1024 18 7 (5806080)
I1016 20:27:39.591881  2801 net.cpp:148] Top shape: 45 1024 18 7 (5806080)
I1016 20:27:39.591883  2801 net.cpp:148] Top shape: 45 1024 18 7 (5806080)
I1016 20:27:39.591886  2801 net.cpp:156] Memory required for data: 2709988020
I1016 20:27:39.591887  2801 layer_factory.hpp:77] Creating layer inception_3b/3x3_reduce
I1016 20:27:39.591893  2801 net.cpp:91] Creating Layer inception_3b/3x3_reduce
I1016 20:27:39.591897  2801 net.cpp:435] inception_3b/3x3_reduce <- inception_3a/output_inception_3a/output_0_split_0
I1016 20:27:39.591909  2801 net.cpp:409] inception_3b/3x3_reduce -> inception_3b/3x3_reduce
I1016 20:27:39.594539  2801 net.cpp:141] Setting up inception_3b/3x3_reduce
I1016 20:27:39.594563  2801 net.cpp:148] Top shape: 45 256 18 7 (1451520)
I1016 20:27:39.594566  2801 net.cpp:156] Memory required for data: 2715794100
I1016 20:27:39.594573  2801 layer_factory.hpp:77] Creating layer inception_3b/3x3_reduce_bn
I1016 20:27:39.594576  2801 layer_factory.cpp:265] Layer inception_3b/3x3_reduce_bn is using CAFFE engine.
I1016 20:27:39.594593  2801 net.cpp:91] Creating Layer inception_3b/3x3_reduce_bn
I1016 20:27:39.594596  2801 net.cpp:435] inception_3b/3x3_reduce_bn <- inception_3b/3x3_reduce
I1016 20:27:39.594601  2801 net.cpp:409] inception_3b/3x3_reduce_bn -> inception_3b/3x3_reduce_bn
I1016 20:27:39.594799  2801 net.cpp:141] Setting up inception_3b/3x3_reduce_bn
I1016 20:27:39.594805  2801 net.cpp:148] Top shape: 45 256 18 7 (1451520)
I1016 20:27:39.594816  2801 net.cpp:156] Memory required for data: 2721600180
I1016 20:27:39.594822  2801 layer_factory.hpp:77] Creating layer inception_3b/relu_3x3_reduce
I1016 20:27:39.594827  2801 net.cpp:91] Creating Layer inception_3b/relu_3x3_reduce
I1016 20:27:39.594830  2801 net.cpp:435] inception_3b/relu_3x3_reduce <- inception_3b/3x3_reduce_bn
I1016 20:27:39.594833  2801 net.cpp:396] inception_3b/relu_3x3_reduce -> inception_3b/3x3_reduce_bn (in-place)
I1016 20:27:39.595476  2801 net.cpp:141] Setting up inception_3b/relu_3x3_reduce
I1016 20:27:39.595486  2801 net.cpp:148] Top shape: 45 256 18 7 (1451520)
I1016 20:27:39.595499  2801 net.cpp:156] Memory required for data: 2727406260
I1016 20:27:39.595501  2801 layer_factory.hpp:77] Creating layer inception_3b/3x3
I1016 20:27:39.595510  2801 net.cpp:91] Creating Layer inception_3b/3x3
I1016 20:27:39.595513  2801 net.cpp:435] inception_3b/3x3 <- inception_3b/3x3_reduce_bn
I1016 20:27:39.595520  2801 net.cpp:409] inception_3b/3x3 -> inception_3b/3x3
I1016 20:27:39.600822  2801 net.cpp:141] Setting up inception_3b/3x3
I1016 20:27:39.600853  2801 net.cpp:148] Top shape: 45 256 9 4 (414720)
I1016 20:27:39.600857  2801 net.cpp:156] Memory required for data: 2729065140
I1016 20:27:39.600865  2801 layer_factory.hpp:77] Creating layer inception_3b/3x3_bn
I1016 20:27:39.600869  2801 layer_factory.cpp:265] Layer inception_3b/3x3_bn is using CAFFE engine.
I1016 20:27:39.600878  2801 net.cpp:91] Creating Layer inception_3b/3x3_bn
I1016 20:27:39.600883  2801 net.cpp:435] inception_3b/3x3_bn <- inception_3b/3x3
I1016 20:27:39.600889  2801 net.cpp:409] inception_3b/3x3_bn -> inception_3b/3x3_bn
I1016 20:27:39.601137  2801 net.cpp:141] Setting up inception_3b/3x3_bn
I1016 20:27:39.601145  2801 net.cpp:148] Top shape: 45 256 9 4 (414720)
I1016 20:27:39.601156  2801 net.cpp:156] Memory required for data: 2730724020
I1016 20:27:39.601162  2801 layer_factory.hpp:77] Creating layer inception_3b/relu_3x3
I1016 20:27:39.601168  2801 net.cpp:91] Creating Layer inception_3b/relu_3x3
I1016 20:27:39.601171  2801 net.cpp:435] inception_3b/relu_3x3 <- inception_3b/3x3_bn
I1016 20:27:39.601174  2801 net.cpp:396] inception_3b/relu_3x3 -> inception_3b/3x3_bn (in-place)
I1016 20:27:39.601330  2801 net.cpp:141] Setting up inception_3b/relu_3x3
I1016 20:27:39.601338  2801 net.cpp:148] Top shape: 45 256 9 4 (414720)
I1016 20:27:39.601341  2801 net.cpp:156] Memory required for data: 2732382900
I1016 20:27:39.601343  2801 layer_factory.hpp:77] Creating layer inception_3b/double_3x3_reduce
I1016 20:27:39.601353  2801 net.cpp:91] Creating Layer inception_3b/double_3x3_reduce
I1016 20:27:39.601357  2801 net.cpp:435] inception_3b/double_3x3_reduce <- inception_3a/output_inception_3a/output_0_split_1
I1016 20:27:39.601363  2801 net.cpp:409] inception_3b/double_3x3_reduce -> inception_3b/double_3x3_reduce
I1016 20:27:39.603946  2801 net.cpp:141] Setting up inception_3b/double_3x3_reduce
I1016 20:27:39.603971  2801 net.cpp:148] Top shape: 45 256 18 7 (1451520)
I1016 20:27:39.603974  2801 net.cpp:156] Memory required for data: 2738188980
I1016 20:27:39.603981  2801 layer_factory.hpp:77] Creating layer inception_3b/double_3x3_reduce_bn
I1016 20:27:39.603984  2801 layer_factory.cpp:265] Layer inception_3b/double_3x3_reduce_bn is using CAFFE engine.
I1016 20:27:39.603999  2801 net.cpp:91] Creating Layer inception_3b/double_3x3_reduce_bn
I1016 20:27:39.604003  2801 net.cpp:435] inception_3b/double_3x3_reduce_bn <- inception_3b/double_3x3_reduce
I1016 20:27:39.604009  2801 net.cpp:409] inception_3b/double_3x3_reduce_bn -> inception_3b/double_3x3_reduce_bn
I1016 20:27:39.604204  2801 net.cpp:141] Setting up inception_3b/double_3x3_reduce_bn
I1016 20:27:39.604210  2801 net.cpp:148] Top shape: 45 256 18 7 (1451520)
I1016 20:27:39.604223  2801 net.cpp:156] Memory required for data: 2743995060
I1016 20:27:39.604228  2801 layer_factory.hpp:77] Creating layer inception_3b/relu_double_3x3_reduce
I1016 20:27:39.604236  2801 net.cpp:91] Creating Layer inception_3b/relu_double_3x3_reduce
I1016 20:27:39.604250  2801 net.cpp:435] inception_3b/relu_double_3x3_reduce <- inception_3b/double_3x3_reduce_bn
I1016 20:27:39.604254  2801 net.cpp:396] inception_3b/relu_double_3x3_reduce -> inception_3b/double_3x3_reduce_bn (in-place)
I1016 20:27:39.604435  2801 net.cpp:141] Setting up inception_3b/relu_double_3x3_reduce
I1016 20:27:39.604444  2801 net.cpp:148] Top shape: 45 256 18 7 (1451520)
I1016 20:27:39.604446  2801 net.cpp:156] Memory required for data: 2749801140
I1016 20:27:39.604449  2801 layer_factory.hpp:77] Creating layer inception_3b/double_3x3_1
I1016 20:27:39.604457  2801 net.cpp:91] Creating Layer inception_3b/double_3x3_1
I1016 20:27:39.604460  2801 net.cpp:435] inception_3b/double_3x3_1 <- inception_3b/double_3x3_reduce_bn
I1016 20:27:39.604465  2801 net.cpp:409] inception_3b/double_3x3_1 -> inception_3b/double_3x3_1
I1016 20:27:39.609810  2801 net.cpp:141] Setting up inception_3b/double_3x3_1
I1016 20:27:39.609827  2801 net.cpp:148] Top shape: 45 256 18 7 (1451520)
I1016 20:27:39.609829  2801 net.cpp:156] Memory required for data: 2755607220
I1016 20:27:39.609838  2801 layer_factory.hpp:77] Creating layer inception_3b/double_3x3_1_bn
I1016 20:27:39.609841  2801 layer_factory.cpp:265] Layer inception_3b/double_3x3_1_bn is using CAFFE engine.
I1016 20:27:39.609846  2801 net.cpp:91] Creating Layer inception_3b/double_3x3_1_bn
I1016 20:27:39.609850  2801 net.cpp:435] inception_3b/double_3x3_1_bn <- inception_3b/double_3x3_1
I1016 20:27:39.609865  2801 net.cpp:409] inception_3b/double_3x3_1_bn -> inception_3b/double_3x3_1_bn
I1016 20:27:39.610057  2801 net.cpp:141] Setting up inception_3b/double_3x3_1_bn
I1016 20:27:39.610064  2801 net.cpp:148] Top shape: 45 256 18 7 (1451520)
I1016 20:27:39.610065  2801 net.cpp:156] Memory required for data: 2761413300
I1016 20:27:39.610071  2801 layer_factory.hpp:77] Creating layer inception_3b/relu_double_3x3_1
I1016 20:27:39.610076  2801 net.cpp:91] Creating Layer inception_3b/relu_double_3x3_1
I1016 20:27:39.610080  2801 net.cpp:435] inception_3b/relu_double_3x3_1 <- inception_3b/double_3x3_1_bn
I1016 20:27:39.610082  2801 net.cpp:396] inception_3b/relu_double_3x3_1 -> inception_3b/double_3x3_1_bn (in-place)
I1016 20:27:39.610234  2801 net.cpp:141] Setting up inception_3b/relu_double_3x3_1
I1016 20:27:39.610241  2801 net.cpp:148] Top shape: 45 256 18 7 (1451520)
I1016 20:27:39.610245  2801 net.cpp:156] Memory required for data: 2767219380
I1016 20:27:39.610247  2801 layer_factory.hpp:77] Creating layer inception_3b/double_3x3_2
I1016 20:27:39.610255  2801 net.cpp:91] Creating Layer inception_3b/double_3x3_2
I1016 20:27:39.610258  2801 net.cpp:435] inception_3b/double_3x3_2 <- inception_3b/double_3x3_1_bn
I1016 20:27:39.610262  2801 net.cpp:409] inception_3b/double_3x3_2 -> inception_3b/double_3x3_2
I1016 20:27:39.615195  2801 net.cpp:141] Setting up inception_3b/double_3x3_2
I1016 20:27:39.615222  2801 net.cpp:148] Top shape: 45 256 9 4 (414720)
I1016 20:27:39.615226  2801 net.cpp:156] Memory required for data: 2768878260
I1016 20:27:39.615232  2801 layer_factory.hpp:77] Creating layer inception_3b/double_3x3_2_bn
I1016 20:27:39.615236  2801 layer_factory.cpp:265] Layer inception_3b/double_3x3_2_bn is using CAFFE engine.
I1016 20:27:39.615253  2801 net.cpp:91] Creating Layer inception_3b/double_3x3_2_bn
I1016 20:27:39.615258  2801 net.cpp:435] inception_3b/double_3x3_2_bn <- inception_3b/double_3x3_2
I1016 20:27:39.615265  2801 net.cpp:409] inception_3b/double_3x3_2_bn -> inception_3b/double_3x3_2_bn
I1016 20:27:39.615489  2801 net.cpp:141] Setting up inception_3b/double_3x3_2_bn
I1016 20:27:39.615496  2801 net.cpp:148] Top shape: 45 256 9 4 (414720)
I1016 20:27:39.615509  2801 net.cpp:156] Memory required for data: 2770537140
I1016 20:27:39.615514  2801 layer_factory.hpp:77] Creating layer inception_3b/relu_double_3x3_2
I1016 20:27:39.615520  2801 net.cpp:91] Creating Layer inception_3b/relu_double_3x3_2
I1016 20:27:39.615522  2801 net.cpp:435] inception_3b/relu_double_3x3_2 <- inception_3b/double_3x3_2_bn
I1016 20:27:39.615536  2801 net.cpp:396] inception_3b/relu_double_3x3_2 -> inception_3b/double_3x3_2_bn (in-place)
I1016 20:27:39.615687  2801 net.cpp:141] Setting up inception_3b/relu_double_3x3_2
I1016 20:27:39.615694  2801 net.cpp:148] Top shape: 45 256 9 4 (414720)
I1016 20:27:39.615707  2801 net.cpp:156] Memory required for data: 2772196020
I1016 20:27:39.615710  2801 layer_factory.hpp:77] Creating layer inception_3b/pool
I1016 20:27:39.615716  2801 net.cpp:91] Creating Layer inception_3b/pool
I1016 20:27:39.615720  2801 net.cpp:435] inception_3b/pool <- inception_3a/output_inception_3a/output_0_split_2
I1016 20:27:39.615734  2801 net.cpp:409] inception_3b/pool -> inception_3b/pool
I1016 20:27:39.615802  2801 net.cpp:141] Setting up inception_3b/pool
I1016 20:27:39.615808  2801 net.cpp:148] Top shape: 45 1024 9 4 (1658880)
I1016 20:27:39.615809  2801 net.cpp:156] Memory required for data: 2778831540
I1016 20:27:39.615821  2801 layer_factory.hpp:77] Creating layer inception_3b/output
I1016 20:27:39.615826  2801 net.cpp:91] Creating Layer inception_3b/output
I1016 20:27:39.615829  2801 net.cpp:435] inception_3b/output <- inception_3b/3x3_bn
I1016 20:27:39.615833  2801 net.cpp:435] inception_3b/output <- inception_3b/double_3x3_2_bn
I1016 20:27:39.615846  2801 net.cpp:435] inception_3b/output <- inception_3b/pool
I1016 20:27:39.615850  2801 net.cpp:409] inception_3b/output -> inception_3b/output
I1016 20:27:39.615870  2801 net.cpp:141] Setting up inception_3b/output
I1016 20:27:39.615876  2801 net.cpp:148] Top shape: 45 1536 9 4 (2488320)
I1016 20:27:39.615878  2801 net.cpp:156] Memory required for data: 2788784820
I1016 20:27:39.615881  2801 layer_factory.hpp:77] Creating layer global_pool
I1016 20:27:39.615885  2801 net.cpp:91] Creating Layer global_pool
I1016 20:27:39.615887  2801 net.cpp:435] global_pool <- inception_3b/output
I1016 20:27:39.615892  2801 net.cpp:409] global_pool -> global_pool
I1016 20:27:39.616533  2801 net.cpp:141] Setting up global_pool
I1016 20:27:39.616544  2801 net.cpp:148] Top shape: 45 1536 1 1 (69120)
I1016 20:27:39.616546  2801 net.cpp:156] Memory required for data: 2789061300
I1016 20:27:39.616549  2801 layer_factory.hpp:77] Creating layer fc7
I1016 20:27:39.616557  2801 net.cpp:91] Creating Layer fc7
I1016 20:27:39.616560  2801 net.cpp:435] fc7 <- global_pool
I1016 20:27:39.616564  2801 net.cpp:409] fc7 -> fc7
I1016 20:27:39.619612  2801 net.cpp:141] Setting up fc7
I1016 20:27:39.619642  2801 net.cpp:148] Top shape: 45 256 (11520)
I1016 20:27:39.619644  2801 net.cpp:156] Memory required for data: 2789107380
I1016 20:27:39.619652  2801 layer_factory.hpp:77] Creating layer fc7_bn
I1016 20:27:39.619655  2801 layer_factory.cpp:265] Layer fc7_bn is using CAFFE engine.
I1016 20:27:39.619673  2801 net.cpp:91] Creating Layer fc7_bn
I1016 20:27:39.619678  2801 net.cpp:435] fc7_bn <- fc7
I1016 20:27:39.619683  2801 net.cpp:409] fc7_bn -> fc7_bn
I1016 20:27:39.619881  2801 net.cpp:141] Setting up fc7_bn
I1016 20:27:39.619887  2801 net.cpp:148] Top shape: 45 256 (11520)
I1016 20:27:39.619899  2801 net.cpp:156] Memory required for data: 2789153460
I1016 20:27:39.619905  2801 layer_factory.hpp:77] Creating layer relu7
I1016 20:27:39.619910  2801 net.cpp:91] Creating Layer relu7
I1016 20:27:39.619913  2801 net.cpp:435] relu7 <- fc7_bn
I1016 20:27:39.619926  2801 net.cpp:396] relu7 -> fc7_bn (in-place)
I1016 20:27:39.620136  2801 net.cpp:141] Setting up relu7
I1016 20:27:39.620143  2801 net.cpp:148] Top shape: 45 256 (11520)
I1016 20:27:39.620156  2801 net.cpp:156] Memory required for data: 2789199540
I1016 20:27:39.620157  2801 layer_factory.hpp:77] Creating layer drop7
I1016 20:27:39.620163  2801 net.cpp:91] Creating Layer drop7
I1016 20:27:39.620167  2801 net.cpp:435] drop7 <- fc7_bn
I1016 20:27:39.620169  2801 net.cpp:396] drop7 -> fc7_bn (in-place)
I1016 20:27:39.620196  2801 net.cpp:141] Setting up drop7
I1016 20:27:39.620211  2801 net.cpp:148] Top shape: 45 256 (11520)
I1016 20:27:39.620213  2801 net.cpp:156] Memory required for data: 2789245620
I1016 20:27:39.620216  2801 layer_factory.hpp:77] Creating layer fc8_jstl
I1016 20:27:39.620230  2801 net.cpp:91] Creating Layer fc8_jstl
I1016 20:27:39.620234  2801 net.cpp:435] fc8_jstl <- fc7_bn
I1016 20:27:39.620237  2801 net.cpp:409] fc8_jstl -> fc8_jstl
I1016 20:27:39.625258  2801 net.cpp:141] Setting up fc8_jstl
I1016 20:27:39.625270  2801 net.cpp:148] Top shape: 45 702 (31590)
I1016 20:27:39.625272  2801 net.cpp:156] Memory required for data: 2789371980
I1016 20:27:39.625278  2801 layer_factory.hpp:77] Creating layer loss
I1016 20:27:39.625284  2801 net.cpp:91] Creating Layer loss
I1016 20:27:39.625288  2801 net.cpp:435] loss <- fc8_jstl
I1016 20:27:39.625290  2801 net.cpp:435] loss <- label
I1016 20:27:39.625305  2801 net.cpp:409] loss -> loss
I1016 20:27:39.625313  2801 layer_factory.hpp:77] Creating layer loss
…
I1016 20:27:39.628763  2801 net.cpp:323] The NetState phase (1) differed from the phase (0) specified by a rule in layer data
I1016 20:27:39.629981  2801 net.cpp:49] Initializing net from parameters: 
state {
  phase: TEST
}
layer {
  name: "data"
  type: "ImageData"
  top: "data"
  top: "label"
  include {
    phase: TEST
  }
  transform_param {
    mirror: true
    mean_value: 102
    mean_value: 102
    mean_value: 101
  }
  image_data_param {
    source: "/home/nikoong/Algorithm_test/attribute/dataset/DukeMTMC-reID/gallery.txt"
    batch_size: 20
    shuffle: true
    new_height: 144
    new_width: 56
  }
}
layer {
  name: "conv1"
  type: "Convolution"
  bottom: "data"
  top: "conv1"
  param {
    lr_mult: 1
    decay_mult: 1
  }
  param {
    lr_mult: 2
    decay_mult: 0
  }
  convolution_param {
    num_output: 32
    pad: 1
    kernel_size: 3
    stride: 1
    weight_filler {
      type: "xavier"
    }
    bias_filler {
      type: "constant"
      value: 0.2
    }
  }
}
layer {
  name: "conv1_bn"
  type: "BN"
  bottom: "conv1"
  top: "conv1_bn"
  param {
    lr_mult: 1
    decay_mult: 0
  }
  param {
    lr_mult: 1
    decay_mult: 0
  }
  bn_param {
    slope_filler {
      type: "constant"
      value: 1
    }
    bias_filler {
      type: "constant"
      value: 0
    }
  }
}
layer {
  name: "relu1"
  type: "ReLU"
  bottom: "conv1_bn"
  top: "conv1_bn"
}
layer {
  name: "conv2"
  type: "Convolution"
  bottom: "conv1_bn"
  top: "conv2"
  param {
    lr_mult: 1
    decay_mult: 1
  }
  param {
    lr_mult: 2
    decay_mult: 0
  }
  convolution_param {
    num_output: 32
    pad: 1
    kernel_size: 3
    stride: 1
    weight_filler {
      type: "xavier"
    }
    bias_filler {
      type: "constant"
      value: 0.2
    }
  }
}
layer {
  name: "conv2_bn"
  type: "BN"
  bottom: "conv2"
  top: "conv2_bn"
  param {
    lr_mult: 1
    decay_mult: 0
  }
  param {
    lr_mult: 1
    decay_mult: 0
  }
  bn_param {
    slope_filler {
      type: "constant"
      value: 1
    }
    bias_filler {
      type: "constant"
      value: 0
    }
  }
}
layer {
  name: "relu2"
  type: "ReLU"
  bottom: "conv2_bn"
  top: "conv2_bn"
}
layer {
  name: "conv3"
  type: "Convolution"
  bottom: "conv2_bn"
  top: "conv3"
  param {
    lr_mult: 1
    decay_mult: 1
  }
  param {
    lr_mult: 2
    decay_mult: 0
  }
  convolution_param {
    num_output: 32
    pad: 1
    kernel_size: 3
    stride: 1
    weight_filler {
      type: "xavier"
    }
    bias_filler {
      type: "constant"
      value: 0.2
    }
  }
}
layer {
  name: "conv3_bn"
  type: "BN"
  bottom: "conv3"
  top: "conv3_bn"
  param {
    lr_mult: 1
    decay_mult: 0
  }
  param {
    lr_mult: 1
    decay_mult: 0
  }
  bn_param {
    slope_filler {
      type: "constant"
      value: 1
    }
    bias_filler {
      type: "constant"
      value: 0
    }
  }
}
layer {
  name: "relu3"
  type: "ReLU"
  bottom: "conv3_bn"
  top: "conv3_bn"
}
layer {
  name: "pool1"
  type: "Pooling"
  bottom: "conv3_bn"
  top: "pool1"
  pooling_param {
    pool: MAX
    kernel_size: 2
    stride: 2
  }
}
layer {
  name: "inception_1a/1x1"
  type: "Convolution"
  bottom: "pool1"
  top: "inception_1a/1x1"
  param {
    lr_mult: 1
    decay_mult: 1
  }
  param {
    lr_mult: 2
    decay_mult: 0
  }
  convolution_param {
    num_output: 64
    kernel_size: 1
    weight_filler {
      type: "xavier"
    }
    bias_filler {
      type: "constant"
      value: 0.2
    }
  }
}
layer {
  name: "inception_1a/1x1_bn"
  type: "BN"
  bottom: "inception_1a/1x1"
  top: "inception_1a/1x1_bn"
  param {
    lr_mult: 1
    decay_mult: 0
  }
  param {
    lr_mult: 1
    decay_mult: 0
  }
  bn_param {
    slope_filler {
      type: "constant"
      value: 1
    }
    bias_filler {
      type: "constant"
      value: 0
    }
  }
}
layer {
  name: "inception_1a/relu_1x1"
  type: "ReLU"
  bottom: "inception_1a/1x1_bn"
  top: "inception_1a/1x1_bn"
}
layer {
  name: "inception_1a/3x3_reduce"
  type: "Convolution"
  bottom: "pool1"
  top: "inception_1a/3x3_reduce"
  param {
    lr_mult: 1
    decay_mult: 1
  }
  param {
    lr_mult: 2
    decay_mult: 0
  }
  convolution_param {
    num_output: 64
    kernel_size: 1
    weight_filler {
      type: "xavier"
    }
    bias_filler {
      type: "constant"
      value: 0.2
    }
  }
}
layer {
  name: "inception_1a/3x3_reduce_bn"
  type: "BN"
  bottom: "inception_1a/3x3_reduce"
  top: "inception_1a/3x3_reduce_bn"
  param {
    lr_mult: 1
    decay_mult: 0
  }
  param {
    lr_mult: 1
    decay_mult: 0
  }
  bn_param {
    slope_filler {
      type: "constant"
      value: 1
    }
    bias_filler {
      type: "constant"
      value: 0
    }
  }
}
layer {
  name: "inception_1a/relu_3x3_reduce"
  type: "ReLU"
  bottom: "inception_1a/3x3_reduce_bn"
  top: "inception_1a/3x3_reduce_bn"
}
layer {
  name: "inception_1a/3x3"
  type: "Convolution"
  bottom: "inception_1a/3x3_reduce_bn"
  top: "inception_1a/3x3"
  param {
    lr_mult: 1
    decay_mult: 1
  }
  param {
    lr_mult: 2
    decay_mult: 0
  }
  convolution_param {
    num_output: 64
    pad: 1
    kernel_size: 3
    weight_filler {
      type: "xavier"
    }
    bias_filler {
      type: "constant"
      value: 0.2
    }
  }
}
layer {
  name: "inception_1a/3x3_bn"
  type: "BN"
  bottom: "inception_1a/3x3"
  top: "inception_1a/3x3_bn"
  param {
    lr_mult: 1
    decay_mult: 0
  }
  param {
    lr_mult: 1
    decay_mult: 0
  }
  bn_param {
    slope_filler {
      type: "constant"
      value: 1
    }
    bias_filler {
      type: "constant"
      value: 0
    }
  }
}
layer {
  name: "inception_1a/relu_3x3"
  type: "ReLU"
  bottom: "inception_1a/3x3_bn"
  top: "inception_1a/3x3_bn"
}
layer {
  name: "inception_1a/double_3x3_reduce"
  type: "Convolution"
  bottom: "pool1"
  top: "inception_1a/double_3x3_reduce"
  param {
    lr_mult: 1
    decay_mult: 1
  }
  param {
    lr_mult: 2
    decay_mult: 0
  }
  convolution_param {
    num_output: 64
    kernel_size: 1
    weight_filler {
      type: "xavier"
    }
    bias_filler {
      type: "constant"
      value: 0.2
    }
  }
}
layer {
  name: "inception_1a/double_3x3_reduce_bn"
  type: "BN"
  bottom: "inception_1a/double_3x3_reduce"
  top: "inception_1a/double_3x3_reduce_bn"
  param {
    lr_mult: 1
    decay_mult: 0
  }
  param {
    lr_mult: 1
    decay_mult: 0
  }
  bn_param {
    slope_filler {
      type: "constant"
      value: 1
    }
    bias_filler {
      type: "constant"
      value: 0
    }
  }
}
layer {
  name: "inception_1a/relu_double_3x3_reduce"
  type: "ReLU"
  bottom: "inception_1a/double_3x3_reduce_bn"
  top: "inception_1a/double_3x3_reduce_bn"
}
layer {
  name: "inception_1a/double_3x3_1"
  type: "Convolution"
  bottom: "inception_1a/double_3x3_reduce_bn"
  top: "inception_1a/double_3x3_1"
  param {
    lr_mult: 1
    decay_mult: 1
  }
  param {
    lr_mult: 2
    decay_mult: 0
  }
  convolution_param {
    num_output: 64
    pad: 1
    kernel_size: 3
    weight_filler {
      type: "xavier"
    }
    bias_filler {
      type: "constant"
      value: 0.2
    }
  }
}
layer {
  name: "inception_1a/double_3x3_1_bn"
  type: "BN"
  bottom: "inception_1a/double_3x3_1"
  top: "inception_1a/double_3x3_1_bn"
  param {
    lr_mult: 1
    decay_mult: 0
  }
  param {
    lr_mult: 1
    decay_mult: 0
  }
  bn_param {
    slope_filler {
      type: "constant"
      value: 1
    }
    bias_filler {
      type: "constant"
      value: 0
    }
  }
}
layer {
  name: "inception_1a/relu_double_3x3_1"
  type: "ReLU"
  bottom: "inception_1a/double_3x3_1_bn"
  top: "inception_1a/double_3x3_1_bn"
}
layer {
  name: "inception_1a/double_3x3_2"
  type: "Convolution"
  bottom: "inception_1a/double_3x3_1_bn"
  top: "inception_1a/double_3x3_2"
  param {
    lr_mult: 1
    decay_mult: 1
  }
  param {
    lr_mult: 2
    decay_mult: 0
  }
  convolution_param {
    num_output: 64
    pad: 1
    kernel_size: 3
    weight_filler {
      type: "xavier"
    }
    bias_filler {
      type: "constant"
      value: 0.2
    }
  }
}
layer {
  name: "inception_1a/double_3x3_2_bn"
  type: "BN"
  bottom: "inception_1a/double_3x3_2"
  top: "inception_1a/double_3x3_2_bn"
  param {
    lr_mult: 1
    decay_mult: 0
  }
  param {
    lr_mult: 1
    decay_mult: 0
  }
  bn_param {
    slope_filler {
      type: "constant"
      value: 1
    }
    bias_filler {
      type: "constant"
      value: 0
    }
  }
}
layer {
  name: "inception_1a/relu_double_3x3_2"
  type: "ReLU"
  bottom: "inception_1a/double_3x3_2_bn"
  top: "inception_1a/double_3x3_2_bn"
}
layer {
  name: "inception_1a/pool"
  type: "Pooling"
  bottom: "pool1"
  top: "inception_1a/pool"
  pooling_param {
    pool: AVE
    kernel_size: 3
    stride: 1
    pad: 1
  }
}
layer {
  name: "inception_1a/pool_proj"
  type: "Convolution"
  bottom: "inception_1a/pool"
  top: "inception_1a/pool_proj"
  param {
    lr_mult: 1
    decay_mult: 1
  }
  param {
    lr_mult: 2
    decay_mult: 0
  }
  convolution_param {
    num_output: 64
    kernel_size: 1
    weight_filler {
      type: "xavier"
    }
    bias_filler {
      type: "constant"
      value: 0.2
    }
  }
}
layer {
  name: "inception_1a/pool_proj_bn"
  type: "BN"
  bottom: "inception_1a/pool_proj"
  top: "inception_1a/pool_proj_bn"
  param {
    lr_mult: 1
    decay_mult: 0
  }
  param {
    lr_mult: 1
    decay_mult: 0
  }
  bn_param {
    slope_filler {
      type: "constant"
      value: 1
    }
    bias_filler {
      type: "constant"
      value: 0
    }
  }
}
layer {
  name: "inception_1a/relu_pool_proj"
  type: "ReLU"
  bottom: "inception_1a/pool_proj_bn"
  top: "inception_1a/pool_proj_bn"
}
layer {
  name: "inception_1a/output"
  type: "Concat"
  bottom: "inception_1a/1x1_bn"
  bottom: "inception_1a/3x3_bn"
  bottom: "inception_1a/double_3x3_2_bn"
  bottom: "inception_1a/pool_proj_bn"
  top: "inception_1a/output"
}
layer {
  name: "inception_1b/3x3_reduce"
  type: "Convolution"
  bottom: "inception_1a/output"
  top: "inception_1b/3x3_reduce"
  param {
    lr_mult: 1
    decay_mult: 1
  }
  param {
    lr_mult: 2
    decay_mult: 0
  }
  convolution_param {
    num_output: 64
    kernel_size: 1
    weight_filler {
      type: "xavier"
    }
    bias_filler {
      type: "constant"
      value: 0.2
    }
  }
}
layer {
  name: "inception_1b/3x3_reduce_bn"
  type: "BN"
  bottom: "inception_1b/3x3_reduce"
  top: "inception_1b/3x3_reduce_bn"
  param {
    lr_mult: 1
    decay_mult: 0
  }
  param {
    lr_mult: 1
    decay_mult: 0
  }
  bn_param {
    slope_filler {
      type: "constant"
      value: 1
    }
    bias_filler {
      type: "constant"
      value: 0
    }
  }
}
layer {
  name: "inception_1b/relu_3x3_reduce"
  type: "ReLU"
  bottom: "inception_1b/3x3_reduce_bn"
  top: "inception_1b/3x3_reduce_bn"
}
layer {
  name: "inception_1b/3x3"
  type: "Convolution"
  bottom: "inception_1b/3x3_reduce_bn"
  top: "inception_1b/3x3"
  param {
    lr_mult: 1
    decay_mult: 1
  }
  param {
    lr_mult: 2
    decay_mult: 0
  }
  convolution_param {
    num_output: 64
    pad: 1
    kernel_size: 3
    stride: 2
    weight_filler {
      type: "xavier"
    }
    bias_filler {
      type: "constant"
      value: 0.2
    }
  }
}
layer {
  name: "inception_1b/3x3_bn"
  type: "BN"
  bottom: "inception_1b/3x3"
  top: "inception_1b/3x3_bn"
  param {
    lr_mult: 1
    decay_mult: 0
  }
  param {
    lr_mult: 1
    decay_mult: 0
  }
  bn_param {
    slope_filler {
      type: "constant"
      value: 1
    }
    bias_filler {
      type: "constant"
      value: 0
    }
  }
}
layer {
  name: "inception_1b/relu_3x3"
  type: "ReLU"
  bottom: "inception_1b/3x3_bn"
  top: "inception_1b/3x3_bn"
}
layer {
  name: "inception_1b/double_3x3_reduce"
  type: "Convolution"
  bottom: "inception_1a/output"
  top: "inception_1b/double_3x3_reduce"
  param {
    lr_mult: 1
    decay_mult: 1
  }
  param {
    lr_mult: 2
    decay_mult: 0
  }
  convolution_param {
    num_output: 64
    kernel_size: 1
    weight_filler {
      type: "xavier"
    }
    bias_filler {
      type: "constant"
      value: 0.2
    }
  }
}
layer {
  name: "inception_1b/double_3x3_reduce_bn"
  type: "BN"
  bottom: "inception_1b/double_3x3_reduce"
  top: "inception_1b/double_3x3_reduce_bn"
  param {
    lr_mult: 1
    decay_mult: 0
  }
  param {
    lr_mult: 1
    decay_mult: 0
  }
  bn_param {
    slope_filler {
      type: "constant"
      value: 1
    }
    bias_filler {
      type: "constant"
      value: 0
    }
  }
}
layer {
  name: "inception_1b/relu_double_3x3_reduce"
  type: "ReLU"
  bottom: "inception_1b/double_3x3_reduce_bn"
  top: "inception_1b/double_3x3_reduce_bn"
}
layer {
  name: "inception_1b/double_3x3_1"
  type: "Convolution"
  bottom: "inception_1b/double_3x3_reduce_bn"
  top: "inception_1b/double_3x3_1"
  param {
    lr_mult: 1
    decay_mult: 1
  }
  param {
    lr_mult: 2
    decay_mult: 0
  }
  convolution_param {
    num_output: 64
    pad: 1
    kernel_size: 3
    weight_filler {
      type: "xavier"
    }
    bias_filler {
      type: "constant"
      value: 0.2
    }
  }
}
layer {
  name: "inception_1b/double_3x3_1_bn"
  type: "BN"
  bottom: "inception_1b/double_3x3_1"
  top: "inception_1b/double_3x3_1_bn"
  param {
    lr_mult: 1
    decay_mult: 0
  }
  param {
    lr_mult: 1
    decay_mult: 0
  }
  bn_param {
    slope_filler {
      type: "constant"
      value: 1
    }
    bias_filler {
      type: "constant"
      value: 0
    }
  }
}
layer {
  name: "inception_1b/relu_double_3x3_1"
  type: "ReLU"
  bottom: "inception_1b/double_3x3_1_bn"
  top: "inception_1b/double_3x3_1_bn"
}
layer {
  name: "inception_1b/double_3x3_2"
  type: "Convolution"
  bottom: "inception_1b/double_3x3_1_bn"
  top: "inception_1b/double_3x3_2"
  param {
    lr_mult: 1
    decay_mult: 1
  }
  param {
    lr_mult: 2
    decay_mult: 0
  }
  convolution_param {
    num_output: 64
    pad: 1
    kernel_size: 3
    stride: 2
    weight_filler {
      type: "xavier"
    }
    bias_filler {
      type: "constant"
      value: 0.2
    }
  }
}
layer {
  name: "inception_1b/double_3x3_2_bn"
  type: "BN"
  bottom: "inception_1b/double_3x3_2"
  top: "inception_1b/double_3x3_2_bn"
  param {
    lr_mult: 1
    decay_mult: 0
  }
  param {
    lr_mult: 1
    decay_mult: 0
  }
  bn_param {
    slope_filler {
      type: "constant"
      value: 1
    }
    bias_filler {
      type: "constant"
      value: 0
    }
  }
}
layer {
  name: "inception_1b/relu_double_3x3_2"
  type: "ReLU"
  bottom: "inception_1b/double_3x3_2_bn"
  top: "inception_1b/double_3x3_2_bn"
}
layer {
  name: "inception_1b/pool"
  type: "Pooling"
  bottom: "inception_1a/output"
  top: "inception_1b/pool"
  pooling_param {
    pool: MAX
    kernel_size: 3
    stride: 2
  }
}
layer {
  name: "inception_1b/output"
  type: "Concat"
  bottom: "inception_1b/3x3_bn"
  bottom: "inception_1b/double_3x3_2_bn"
  bottom: "inception_1b/pool"
  top: "inception_1b/output"
}
layer {
  name: "inception_2a/1x1"
  type: "Convolution"
  bottom: "inception_1b/output"
  top: "inception_2a/1x1"
  param {
    lr_mult: 1
    decay_mult: 1
  }
  param {
    lr_mult: 2
    decay_mult: 0
  }
  convolution_param {
    num_output: 128
    kernel_size: 1
    weight_filler {
      type: "xavier"
    }
    bias_filler {
      type: "constant"
      value: 0.2
    }
  }
}
layer {
  name: "inception_2a/1x1_bn"
  type: "BN"
  bottom: "inception_2a/1x1"
  top: "inception_2a/1x1_bn"
  param {
    lr_mult: 1
    decay_mult: 0
  }
  param {
    lr_mult: 1
    decay_mult: 0
  }
  bn_param {
    slope_filler {
      type: "constant"
      value: 1
    }
    bias_filler {
      type: "constant"
      value: 0
    }
  }
}
layer {
  name: "inception_2a/relu_1x1"
  type: "ReLU"
  bottom: "inception_2a/1x1_bn"
  top: "inception_2a/1x1_bn"
}
layer {
  name: "inception_2a/3x3_reduce"
  type: "Convolution"
  bottom: "inception_1b/output"
  top: "inception_2a/3x3_reduce"
  param {
    lr_mult: 1
    decay_mult: 1
  }
  param {
    lr_mult: 2
    decay_mult: 0
  }
  convolution_param {
    num_output: 128
    kernel_size: 1
    weight_filler {
      type: "xavier"
    }
    bias_filler {
      type: "constant"
      value: 0.2
    }
  }
}
layer {
  name: "inception_2a/3x3_reduce_bn"
  type: "BN"
  bottom: "inception_2a/3x3_reduce"
  top: "inception_2a/3x3_reduce_bn"
  param {
    lr_mult: 1
    decay_mult: 0
  }
  param {
    lr_mult: 1
    decay_mult: 0
  }
  bn_param {
    slope_filler {
      type: "constant"
      value: 1
    }
    bias_filler {
      type: "constant"
      value: 0
    }
  }
}
layer {
  name: "inception_2a/relu_3x3_reduce"
  type: "ReLU"
  bottom: "inception_2a/3x3_reduce_bn"
  top: "inception_2a/3x3_reduce_bn"
}
layer {
  name: "inception_2a/3x3"
  type: "Convolution"
  bottom: "inception_2a/3x3_reduce_bn"
  top: "inception_2a/3x3"
  param {
    lr_mult: 1
    decay_mult: 1
  }
  param {
    lr_mult: 2
    decay_mult: 0
  }
  convolution_param {
    num_output: 128
    pad: 1
    kernel_size: 3
    weight_filler {
      type: "xavier"
    }
    bias_filler {
      type: "constant"
      value: 0.2
    }
  }
}
layer {
  name: "inception_2a/3x3_bn"
  type: "BN"
  bottom: "inception_2a/3x3"
  top: "inception_2a/3x3_bn"
  param {
    lr_mult: 1
    decay_mult: 0
  }
  param {
    lr_mult: 1
    decay_mult: 0
  }
  bn_param {
    slope_filler {
      type: "constant"
      value: 1
    }
    bias_filler {
      type: "constant"
      value: 0
    }
  }
}
layer {
  name: "inception_2a/relu_3x3"
  type: "ReLU"
  bottom: "inception_2a/3x3_bn"
  top: "inception_2a/3x3_bn"
}
layer {
  name: "inception_2a/double_3x3_reduce"
  type: "Convolution"
  bottom: "inception_1b/output"
  top: "inception_2a/double_3x3_reduce"
  param {
    lr_mult: 1
    decay_mult: 1
  }
  param {
    lr_mult: 2
    decay_mult: 0
  }
  convolution_param {
    num_output: 128
    kernel_size: 1
    weight_filler {
      type: "xavier"
    }
    bias_filler {
      type: "constant"
      value: 0.2
    }
  }
}
layer {
  name: "inception_2a/double_3x3_reduce_bn"
  type: "BN"
  bottom: "inception_2a/double_3x3_reduce"
  top: "inception_2a/double_3x3_reduce_bn"
  param {
    lr_mult: 1
    decay_mult: 0
  }
  param {
    lr_mult: 1
    decay_mult: 0
  }
  bn_param {
    slope_filler {
      type: "constant"
      value: 1
    }
    bias_filler {
      type: "constant"
      value: 0
    }
  }
}
layer {
  name: "inception_2a/relu_double_3x3_reduce"
  type: "ReLU"
  bottom: "inception_2a/double_3x3_reduce_bn"
  top: "inception_2a/double_3x3_reduce_bn"
}
layer {
  name: "inception_2a/double_3x3_1"
  type: "Convolution"
  bottom: "inception_2a/double_3x3_reduce_bn"
  top: "inception_2a/double_3x3_1"
  param {
    lr_mult: 1
    decay_mult: 1
  }
  param {
    lr_mult: 2
    decay_mult: 0
  }
  convolution_param {
    num_output: 128
    pad: 1
    kernel_size: 3
    weight_filler {
      type: "xavier"
    }
    bias_filler {
      type: "constant"
      value: 0.2
    }
  }
}
layer {
  name: "inception_2a/double_3x3_1_bn"
  type: "BN"
  bottom: "inception_2a/double_3x3_1"
  top: "inception_2a/double_3x3_1_bn"
  param {
    lr_mult: 1
    decay_mult: 0
  }
  param {
    lr_mult: 1
    decay_mult: 0
  }
  bn_param {
    slope_filler {
      type: "constant"
      value: 1
    }
    bias_filler {
      type: "constant"
      value: 0
    }
  }
}
layer {
  name: "inception_2a/relu_double_3x3_1"
  type: "ReLU"
  bottom: "inception_2a/double_3x3_1_bn"
  top: "inception_2a/double_3x3_1_bn"
}
layer {
  name: "inception_2a/double_3x3_2"
  type: "Convolution"
  bottom: "inception_2a/double_3x3_1_bn"
  top: "inception_2a/double_3x3_2"
  param {
    lr_mult: 1
    decay_mult: 1
  }
  param {
    lr_mult: 2
    decay_mult: 0
  }
  convolution_param {
    num_output: 128
    pad: 1
    kernel_size: 3
    weight_filler {
      type: "xavier"
    }
    bias_filler {
      type: "constant"
      value: 0.2
    }
  }
}
layer {
  name: "inception_2a/double_3x3_2_bn"
  type: "BN"
  bottom: "inception_2a/double_3x3_2"
  top: "inception_2a/double_3x3_2_bn"
  param {
    lr_mult: 1
    decay_mult: 0
  }
  param {
    lr_mult: 1
    decay_mult: 0
  }
  bn_param {
    slope_filler {
      type: "constant"
      value: 1
    }
    bias_filler {
      type: "constant"
      value: 0
    }
  }
}
layer {
  name: "inception_2a/relu_double_3x3_2"
  type: "ReLU"
  bottom: "inception_2a/double_3x3_2_bn"
  top: "inception_2a/double_3x3_2_bn"
}
layer {
  name: "inception_2a/pool"
  type: "Pooling"
  bottom: "inception_1b/output"
  top: "inception_2a/pool"
  pooling_param {
    pool: AVE
    kernel_size: 3
    stride: 1
    pad: 1
  }
}
layer {
  name: "inception_2a/pool_proj"
  type: "Convolution"
  bottom: "inception_2a/pool"
  top: "inception_2a/pool_proj"
  param {
    lr_mult: 1
    decay_mult: 1
  }
  param {
    lr_mult: 2
    decay_mult: 0
  }
  convolution_param {
    num_output: 128
    kernel_size: 1
    weight_filler {
      type: "xavier"
    }
    bias_filler {
      type: "constant"
      value: 0.2
    }
  }
}
layer {
  name: "inception_2a/pool_proj_bn"
  type: "BN"
  bottom: "inception_2a/pool_proj"
  top: "inception_2a/pool_proj_bn"
  param {
    lr_mult: 1
    decay_mult: 0
  }
  param {
    lr_mult: 1
    decay_mult: 0
  }
  bn_param {
    slope_filler {
      type: "constant"
      value: 1
    }
    bias_filler {
      type: "constant"
      value: 0
    }
  }
}
layer {
  name: "inception_2a/relu_pool_proj"
  type: "ReLU"
  bottom: "inception_2a/pool_proj_bn"
  top: "inception_2a/pool_proj_bn"
}
layer {
  name: "inception_2a/output"
  type: "Concat"
  bottom: "inception_2a/1x1_bn"
  bottom: "inception_2a/3x3_bn"
  bottom: "inception_2a/double_3x3_2_bn"
  bottom: "inception_2a/pool_proj_bn"
  top: "inception_2a/output"
}
layer {
  name: "inception_2b/3x3_reduce"
  type: "Convolution"
  bottom: "inception_2a/output"
  top: "inception_2b/3x3_reduce"
  param {
    lr_mult: 1
    decay_mult: 1
  }
  param {
    lr_mult: 2
    decay_mult: 0
  }
  convolution_param {
    num_output: 128
    kernel_size: 1
    weight_filler {
      type: "xavier"
    }
    bias_filler {
      type: "constant"
      value: 0.2
    }
  }
}
layer {
  name: "inception_2b/3x3_reduce_bn"
  type: "BN"
  bottom: "inception_2b/3x3_reduce"
  top: "inception_2b/3x3_reduce_bn"
  param {
    lr_mult: 1
    decay_mult: 0
  }
  param {
    lr_mult: 1
    decay_mult: 0
  }
  bn_param {
    slope_filler {
      type: "constant"
      value: 1
    }
    bias_filler {
      type: "constant"
      value: 0
    }
  }
}
layer {
  name: "inception_2b/relu_3x3_reduce"
  type: "ReLU"
  bottom: "inception_2b/3x3_reduce_bn"
  top: "inception_2b/3x3_reduce_bn"
}
layer {
  name: "inception_2b/3x3"
  type: "Convolution"
  bottom: "inception_2b/3x3_reduce_bn"
  top: "inception_2b/3x3"
  param {
    lr_mult: 1
    decay_mult: 1
  }
  param {
    lr_mult: 2
    decay_mult: 0
  }
  convolution_param {
    num_output: 128
    pad: 1
    kernel_size: 3
    stride: 2
    weight_filler {
      type: "xavier"
    }
    bias_filler {
      type: "constant"
      value: 0.2
    }
  }
}
layer {
  name: "inception_2b/3x3_bn"
  type: "BN"
  bottom: "inception_2b/3x3"
  top: "inception_2b/3x3_bn"
  param {
    lr_mult: 1
    decay_mult: 0
  }
  param {
    lr_mult: 1
    decay_mult: 0
  }
  bn_param {
    slope_filler {
      type: "constant"
      value: 1
    }
    bias_filler {
      type: "constant"
      value: 0
    }
  }
}
layer {
  name: "inception_2b/relu_3x3"
  type: "ReLU"
  bottom: "inception_2b/3x3_bn"
  top: "inception_2b/3x3_bn"
}
layer {
  name: "inception_2b/double_3x3_reduce"
  type: "Convolution"
  bottom: "inception_2a/output"
  top: "inception_2b/double_3x3_reduce"
  param {
    lr_mult: 1
    decay_mult: 1
  }
  param {
    lr_mult: 2
    decay_mult: 0
  }
  convolution_param {
    num_output: 128
    kernel_size: 1
    weight_filler {
      type: "xavier"
    }
    bias_filler {
      type: "constant"
      value: 0.2
    }
  }
}
layer {
  name: "inception_2b/double_3x3_reduce_bn"
  type: "BN"
  bottom: "inception_2b/double_3x3_reduce"
  top: "inception_2b/double_3x3_reduce_bn"
  param {
    lr_mult: 1
    decay_mult: 0
  }
  param {
    lr_mult: 1
    decay_mult: 0
  }
  bn_param {
    slope_filler {
      type: "constant"
      value: 1
    }
    bias_filler {
      type: "constant"
      value: 0
    }
  }
}
layer {
  name: "inception_2b/relu_double_3x3_reduce"
  type: "ReLU"
  bottom: "inception_2b/double_3x3_reduce_bn"
  top: "inception_2b/double_3x3_reduce_bn"
}
layer {
  name: "inception_2b/double_3x3_1"
  type: "Convolution"
  bottom: "inception_2b/double_3x3_reduce_bn"
  top: "inception_2b/double_3x3_1"
  param {
    lr_mult: 1
    decay_mult: 1
  }
  param {
    lr_mult: 2
    decay_mult: 0
  }
  convolution_param {
    num_output: 128
    pad: 1
    kernel_size: 3
    weight_filler {
      type: "xavier"
    }
    bias_filler {
      type: "constant"
      value: 0.2
    }
  }
}
layer {
  name: "inception_2b/double_3x3_1_bn"
  type: "BN"
  bottom: "inception_2b/double_3x3_1"
  top: "inception_2b/double_3x3_1_bn"
  param {
    lr_mult: 1
    decay_mult: 0
  }
  param {
    lr_mult: 1
    decay_mult: 0
  }
  bn_param {
    slope_filler {
      type: "constant"
      value: 1
    }
    bias_filler {
      type: "constant"
      value: 0
    }
  }
}
layer {
  name: "inception_2b/relu_double_3x3_1"
  type: "ReLU"
  bottom: "inception_2b/double_3x3_1_bn"
  top: "inception_2b/double_3x3_1_bn"
}
layer {
  name: "inception_2b/double_3x3_2"
  type: "Convolution"
  bottom: "inception_2b/double_3x3_1_bn"
  top: "inception_2b/double_3x3_2"
  param {
    lr_mult: 1
    decay_mult: 1
  }
  param {
    lr_mult: 2
    decay_mult: 0
  }
  convolution_param {
    num_output: 128
    pad: 1
    kernel_size: 3
    stride: 2
    weight_filler {
      type: "xavier"
    }
    bias_filler {
      type: "constant"
      value: 0.2
    }
  }
}
layer {
  name: "inception_2b/double_3x3_2_bn"
  type: "BN"
  bottom: "inception_2b/double_3x3_2"
  top: "inception_2b/double_3x3_2_bn"
  param {
    lr_mult: 1
    decay_mult: 0
  }
  param {
    lr_mult: 1
    decay_mult: 0
  }
  bn_param {
    slope_filler {
      type: "constant"
      value: 1
    }
    bias_filler {
      type: "constant"
      value: 0
    }
  }
}
layer {
  name: "inception_2b/relu_double_3x3_2"
  type: "ReLU"
  bottom: "inception_2b/double_3x3_2_bn"
  top: "inception_2b/double_3x3_2_bn"
}
layer {
  name: "inception_2b/pool"
  type: "Pooling"
  bottom: "inception_2a/output"
  top: "inception_2b/pool"
  pooling_param {
    pool: MAX
    kernel_size: 3
    stride: 2
  }
}
layer {
…
I1016 20:27:39.688649  2801 net.cpp:91] Creating Layer inception_2a/relu_double_3x3_1
I1016 20:27:39.688652  2801 net.cpp:435] inception_2a/relu_double_3x3_1 <- inception_2a/double_3x3_1_bn
I1016 20:27:39.688655  2801 net.cpp:396] inception_2a/relu_double_3x3_1 -> inception_2a/double_3x3_1_bn (in-place)
I1016 20:27:39.688798  2801 net.cpp:141] Setting up inception_2a/relu_double_3x3_1
I1016 20:27:39.688807  2801 net.cpp:148] Top shape: 20 128 36 14 (1290240)
I1016 20:27:39.688809  2801 net.cpp:156] Memory required for data: 874137840
I1016 20:27:39.688812  2801 layer_factory.hpp:77] Creating layer inception_2a/double_3x3_2
I1016 20:27:39.688819  2801 net.cpp:91] Creating Layer inception_2a/double_3x3_2
I1016 20:27:39.688822  2801 net.cpp:435] inception_2a/double_3x3_2 <- inception_2a/double_3x3_1_bn
I1016 20:27:39.688827  2801 net.cpp:409] inception_2a/double_3x3_2 -> inception_2a/double_3x3_2
I1016 20:27:39.691961  2801 net.cpp:141] Setting up inception_2a/double_3x3_2
I1016 20:27:39.691984  2801 net.cpp:148] Top shape: 20 128 36 14 (1290240)
I1016 20:27:39.691987  2801 net.cpp:156] Memory required for data: 879298800
I1016 20:27:39.691992  2801 layer_factory.hpp:77] Creating layer inception_2a/double_3x3_2_bn
I1016 20:27:39.691996  2801 layer_factory.cpp:265] Layer inception_2a/double_3x3_2_bn is using CAFFE engine.
I1016 20:27:39.692013  2801 net.cpp:91] Creating Layer inception_2a/double_3x3_2_bn
I1016 20:27:39.692018  2801 net.cpp:435] inception_2a/double_3x3_2_bn <- inception_2a/double_3x3_2
I1016 20:27:39.692023  2801 net.cpp:409] inception_2a/double_3x3_2_bn -> inception_2a/double_3x3_2_bn
I1016 20:27:39.692239  2801 net.cpp:141] Setting up inception_2a/double_3x3_2_bn
I1016 20:27:39.692245  2801 net.cpp:148] Top shape: 20 128 36 14 (1290240)
I1016 20:27:39.692257  2801 net.cpp:156] Memory required for data: 884459760
I1016 20:27:39.692263  2801 layer_factory.hpp:77] Creating layer inception_2a/relu_double_3x3_2
I1016 20:27:39.692267  2801 net.cpp:91] Creating Layer inception_2a/relu_double_3x3_2
I1016 20:27:39.692270  2801 net.cpp:435] inception_2a/relu_double_3x3_2 <- inception_2a/double_3x3_2_bn
I1016 20:27:39.692291  2801 net.cpp:396] inception_2a/relu_double_3x3_2 -> inception_2a/double_3x3_2_bn (in-place)
I1016 20:27:39.692453  2801 net.cpp:141] Setting up inception_2a/relu_double_3x3_2
I1016 20:27:39.692461  2801 net.cpp:148] Top shape: 20 128 36 14 (1290240)
I1016 20:27:39.692473  2801 net.cpp:156] Memory required for data: 889620720
I1016 20:27:39.692476  2801 layer_factory.hpp:77] Creating layer inception_2a/pool
I1016 20:27:39.692482  2801 net.cpp:91] Creating Layer inception_2a/pool
I1016 20:27:39.692486  2801 net.cpp:435] inception_2a/pool <- inception_1b/output_inception_1b/output_0_split_3
I1016 20:27:39.692499  2801 net.cpp:409] inception_2a/pool -> inception_2a/pool
I1016 20:27:39.692669  2801 net.cpp:141] Setting up inception_2a/pool
I1016 20:27:39.692677  2801 net.cpp:148] Top shape: 20 384 36 14 (3870720)
I1016 20:27:39.692689  2801 net.cpp:156] Memory required for data: 905103600
I1016 20:27:39.692692  2801 layer_factory.hpp:77] Creating layer inception_2a/pool_proj
I1016 20:27:39.692700  2801 net.cpp:91] Creating Layer inception_2a/pool_proj
I1016 20:27:39.692703  2801 net.cpp:435] inception_2a/pool_proj <- inception_2a/pool
I1016 20:27:39.692719  2801 net.cpp:409] inception_2a/pool_proj -> inception_2a/pool_proj
I1016 20:27:39.694077  2801 net.cpp:141] Setting up inception_2a/pool_proj
I1016 20:27:39.694087  2801 net.cpp:148] Top shape: 20 128 36 14 (1290240)
I1016 20:27:39.694089  2801 net.cpp:156] Memory required for data: 910264560
I1016 20:27:39.694094  2801 layer_factory.hpp:77] Creating layer inception_2a/pool_proj_bn
I1016 20:27:39.694098  2801 layer_factory.cpp:265] Layer inception_2a/pool_proj_bn is using CAFFE engine.
I1016 20:27:39.694103  2801 net.cpp:91] Creating Layer inception_2a/pool_proj_bn
I1016 20:27:39.694106  2801 net.cpp:435] inception_2a/pool_proj_bn <- inception_2a/pool_proj
I1016 20:27:39.694121  2801 net.cpp:409] inception_2a/pool_proj_bn -> inception_2a/pool_proj_bn
I1016 20:27:39.694325  2801 net.cpp:141] Setting up inception_2a/pool_proj_bn
I1016 20:27:39.694332  2801 net.cpp:148] Top shape: 20 128 36 14 (1290240)
I1016 20:27:39.694334  2801 net.cpp:156] Memory required for data: 915425520
I1016 20:27:39.694345  2801 layer_factory.hpp:77] Creating layer inception_2a/relu_pool_proj
I1016 20:27:39.694350  2801 net.cpp:91] Creating Layer inception_2a/relu_pool_proj
I1016 20:27:39.694353  2801 net.cpp:435] inception_2a/relu_pool_proj <- inception_2a/pool_proj_bn
I1016 20:27:39.694366  2801 net.cpp:396] inception_2a/relu_pool_proj -> inception_2a/pool_proj_bn (in-place)
I1016 20:27:39.694954  2801 net.cpp:141] Setting up inception_2a/relu_pool_proj
I1016 20:27:39.694963  2801 net.cpp:148] Top shape: 20 128 36 14 (1290240)
I1016 20:27:39.694967  2801 net.cpp:156] Memory required for data: 920586480
I1016 20:27:39.694969  2801 layer_factory.hpp:77] Creating layer inception_2a/output
I1016 20:27:39.694974  2801 net.cpp:91] Creating Layer inception_2a/output
I1016 20:27:39.694978  2801 net.cpp:435] inception_2a/output <- inception_2a/1x1_bn
I1016 20:27:39.694981  2801 net.cpp:435] inception_2a/output <- inception_2a/3x3_bn
I1016 20:27:39.694994  2801 net.cpp:435] inception_2a/output <- inception_2a/double_3x3_2_bn
I1016 20:27:39.694998  2801 net.cpp:435] inception_2a/output <- inception_2a/pool_proj_bn
I1016 20:27:39.695001  2801 net.cpp:409] inception_2a/output -> inception_2a/output
I1016 20:27:39.695027  2801 net.cpp:141] Setting up inception_2a/output
I1016 20:27:39.695034  2801 net.cpp:148] Top shape: 20 512 36 14 (5160960)
I1016 20:27:39.695035  2801 net.cpp:156] Memory required for data: 941230320
I1016 20:27:39.695039  2801 layer_factory.hpp:77] Creating layer inception_2a/output_inception_2a/output_0_split
I1016 20:27:39.695044  2801 net.cpp:91] Creating Layer inception_2a/output_inception_2a/output_0_split
I1016 20:27:39.695046  2801 net.cpp:435] inception_2a/output_inception_2a/output_0_split <- inception_2a/output
I1016 20:27:39.695051  2801 net.cpp:409] inception_2a/output_inception_2a/output_0_split -> inception_2a/output_inception_2a/output_0_split_0
I1016 20:27:39.695055  2801 net.cpp:409] inception_2a/output_inception_2a/output_0_split -> inception_2a/output_inception_2a/output_0_split_1
I1016 20:27:39.695060  2801 net.cpp:409] inception_2a/output_inception_2a/output_0_split -> inception_2a/output_inception_2a/output_0_split_2
I1016 20:27:39.695109  2801 net.cpp:141] Setting up inception_2a/output_inception_2a/output_0_split
I1016 20:27:39.695114  2801 net.cpp:148] Top shape: 20 512 36 14 (5160960)
I1016 20:27:39.695127  2801 net.cpp:148] Top shape: 20 512 36 14 (5160960)
I1016 20:27:39.695130  2801 net.cpp:148] Top shape: 20 512 36 14 (5160960)
I1016 20:27:39.695132  2801 net.cpp:156] Memory required for data: 1003161840
I1016 20:27:39.695134  2801 layer_factory.hpp:77] Creating layer inception_2b/3x3_reduce
I1016 20:27:39.695142  2801 net.cpp:91] Creating Layer inception_2b/3x3_reduce
I1016 20:27:39.695145  2801 net.cpp:435] inception_2b/3x3_reduce <- inception_2a/output_inception_2a/output_0_split_0
I1016 20:27:39.695149  2801 net.cpp:409] inception_2b/3x3_reduce -> inception_2b/3x3_reduce
I1016 20:27:39.697363  2801 net.cpp:141] Setting up inception_2b/3x3_reduce
I1016 20:27:39.697389  2801 net.cpp:148] Top shape: 20 128 36 14 (1290240)
I1016 20:27:39.697392  2801 net.cpp:156] Memory required for data: 1008322800
I1016 20:27:39.697398  2801 layer_factory.hpp:77] Creating layer inception_2b/3x3_reduce_bn
I1016 20:27:39.697402  2801 layer_factory.cpp:265] Layer inception_2b/3x3_reduce_bn is using CAFFE engine.
I1016 20:27:39.697409  2801 net.cpp:91] Creating Layer inception_2b/3x3_reduce_bn
I1016 20:27:39.697413  2801 net.cpp:435] inception_2b/3x3_reduce_bn <- inception_2b/3x3_reduce
I1016 20:27:39.697419  2801 net.cpp:409] inception_2b/3x3_reduce_bn -> inception_2b/3x3_reduce_bn
I1016 20:27:39.697648  2801 net.cpp:141] Setting up inception_2b/3x3_reduce_bn
I1016 20:27:39.697654  2801 net.cpp:148] Top shape: 20 128 36 14 (1290240)
I1016 20:27:39.697656  2801 net.cpp:156] Memory required for data: 1013483760
I1016 20:27:39.697664  2801 layer_factory.hpp:77] Creating layer inception_2b/relu_3x3_reduce
I1016 20:27:39.697669  2801 net.cpp:91] Creating Layer inception_2b/relu_3x3_reduce
I1016 20:27:39.697671  2801 net.cpp:435] inception_2b/relu_3x3_reduce <- inception_2b/3x3_reduce_bn
I1016 20:27:39.697674  2801 net.cpp:396] inception_2b/relu_3x3_reduce -> inception_2b/3x3_reduce_bn (in-place)
I1016 20:27:39.698390  2801 net.cpp:141] Setting up inception_2b/relu_3x3_reduce
I1016 20:27:39.698401  2801 net.cpp:148] Top shape: 20 128 36 14 (1290240)
I1016 20:27:39.698413  2801 net.cpp:156] Memory required for data: 1018644720
I1016 20:27:39.698417  2801 layer_factory.hpp:77] Creating layer inception_2b/3x3
I1016 20:27:39.698427  2801 net.cpp:91] Creating Layer inception_2b/3x3
I1016 20:27:39.698441  2801 net.cpp:435] inception_2b/3x3 <- inception_2b/3x3_reduce_bn
I1016 20:27:39.698444  2801 net.cpp:409] inception_2b/3x3 -> inception_2b/3x3
I1016 20:27:39.700623  2801 net.cpp:141] Setting up inception_2b/3x3
I1016 20:27:39.700639  2801 net.cpp:148] Top shape: 20 128 18 7 (322560)
I1016 20:27:39.700644  2801 net.cpp:156] Memory required for data: 1019934960
I1016 20:27:39.700675  2801 layer_factory.hpp:77] Creating layer inception_2b/3x3_bn
I1016 20:27:39.700680  2801 layer_factory.cpp:265] Layer inception_2b/3x3_bn is using CAFFE engine.
I1016 20:27:39.700687  2801 net.cpp:91] Creating Layer inception_2b/3x3_bn
I1016 20:27:39.700692  2801 net.cpp:435] inception_2b/3x3_bn <- inception_2b/3x3
I1016 20:27:39.700707  2801 net.cpp:409] inception_2b/3x3_bn -> inception_2b/3x3_bn
I1016 20:27:39.700937  2801 net.cpp:141] Setting up inception_2b/3x3_bn
I1016 20:27:39.700944  2801 net.cpp:148] Top shape: 20 128 18 7 (322560)
I1016 20:27:39.700956  2801 net.cpp:156] Memory required for data: 1021225200
I1016 20:27:39.700963  2801 layer_factory.hpp:77] Creating layer inception_2b/relu_3x3
I1016 20:27:39.700968  2801 net.cpp:91] Creating Layer inception_2b/relu_3x3
I1016 20:27:39.700971  2801 net.cpp:435] inception_2b/relu_3x3 <- inception_2b/3x3_bn
I1016 20:27:39.700974  2801 net.cpp:396] inception_2b/relu_3x3 -> inception_2b/3x3_bn (in-place)
I1016 20:27:39.701138  2801 net.cpp:141] Setting up inception_2b/relu_3x3
I1016 20:27:39.701145  2801 net.cpp:148] Top shape: 20 128 18 7 (322560)
I1016 20:27:39.701158  2801 net.cpp:156] Memory required for data: 1022515440
I1016 20:27:39.701159  2801 layer_factory.hpp:77] Creating layer inception_2b/double_3x3_reduce
I1016 20:27:39.701169  2801 net.cpp:91] Creating Layer inception_2b/double_3x3_reduce
I1016 20:27:39.701182  2801 net.cpp:435] inception_2b/double_3x3_reduce <- inception_2a/output_inception_2a/output_0_split_1
I1016 20:27:39.701187  2801 net.cpp:409] inception_2b/double_3x3_reduce -> inception_2b/double_3x3_reduce
I1016 20:27:39.702695  2801 net.cpp:141] Setting up inception_2b/double_3x3_reduce
I1016 20:27:39.702705  2801 net.cpp:148] Top shape: 20 128 36 14 (1290240)
I1016 20:27:39.702718  2801 net.cpp:156] Memory required for data: 1027676400
I1016 20:27:39.702723  2801 layer_factory.hpp:77] Creating layer inception_2b/double_3x3_reduce_bn
I1016 20:27:39.702726  2801 layer_factory.cpp:265] Layer inception_2b/double_3x3_reduce_bn is using CAFFE engine.
I1016 20:27:39.702742  2801 net.cpp:91] Creating Layer inception_2b/double_3x3_reduce_bn
I1016 20:27:39.702746  2801 net.cpp:435] inception_2b/double_3x3_reduce_bn <- inception_2b/double_3x3_reduce
I1016 20:27:39.702750  2801 net.cpp:409] inception_2b/double_3x3_reduce_bn -> inception_2b/double_3x3_reduce_bn
I1016 20:27:39.702965  2801 net.cpp:141] Setting up inception_2b/double_3x3_reduce_bn
I1016 20:27:39.702972  2801 net.cpp:148] Top shape: 20 128 36 14 (1290240)
I1016 20:27:39.702983  2801 net.cpp:156] Memory required for data: 1032837360
I1016 20:27:39.702989  2801 layer_factory.hpp:77] Creating layer inception_2b/relu_double_3x3_reduce
I1016 20:27:39.703004  2801 net.cpp:91] Creating Layer inception_2b/relu_double_3x3_reduce
I1016 20:27:39.703007  2801 net.cpp:435] inception_2b/relu_double_3x3_reduce <- inception_2b/double_3x3_reduce_bn
I1016 20:27:39.703011  2801 net.cpp:396] inception_2b/relu_double_3x3_reduce -> inception_2b/double_3x3_reduce_bn (in-place)
I1016 20:27:39.703166  2801 net.cpp:141] Setting up inception_2b/relu_double_3x3_reduce
I1016 20:27:39.703172  2801 net.cpp:148] Top shape: 20 128 36 14 (1290240)
I1016 20:27:39.703184  2801 net.cpp:156] Memory required for data: 1037998320
I1016 20:27:39.703186  2801 layer_factory.hpp:77] Creating layer inception_2b/double_3x3_1
I1016 20:27:39.703205  2801 net.cpp:91] Creating Layer inception_2b/double_3x3_1
I1016 20:27:39.703208  2801 net.cpp:435] inception_2b/double_3x3_1 <- inception_2b/double_3x3_reduce_bn
I1016 20:27:39.703212  2801 net.cpp:409] inception_2b/double_3x3_1 -> inception_2b/double_3x3_1
I1016 20:27:39.705597  2801 net.cpp:141] Setting up inception_2b/double_3x3_1
I1016 20:27:39.705620  2801 net.cpp:148] Top shape: 20 128 36 14 (1290240)
I1016 20:27:39.705623  2801 net.cpp:156] Memory required for data: 1043159280
I1016 20:27:39.705628  2801 layer_factory.hpp:77] Creating layer inception_2b/double_3x3_1_bn
I1016 20:27:39.705631  2801 layer_factory.cpp:265] Layer inception_2b/double_3x3_1_bn is using CAFFE engine.
I1016 20:27:39.705646  2801 net.cpp:91] Creating Layer inception_2b/double_3x3_1_bn
I1016 20:27:39.705649  2801 net.cpp:435] inception_2b/double_3x3_1_bn <- inception_2b/double_3x3_1
I1016 20:27:39.705654  2801 net.cpp:409] inception_2b/double_3x3_1_bn -> inception_2b/double_3x3_1_bn
I1016 20:27:39.705876  2801 net.cpp:141] Setting up inception_2b/double_3x3_1_bn
I1016 20:27:39.705883  2801 net.cpp:148] Top shape: 20 128 36 14 (1290240)
I1016 20:27:39.705894  2801 net.cpp:156] Memory required for data: 1048320240
I1016 20:27:39.705900  2801 layer_factory.hpp:77] Creating layer inception_2b/relu_double_3x3_1
I1016 20:27:39.705905  2801 net.cpp:91] Creating Layer inception_2b/relu_double_3x3_1
I1016 20:27:39.705907  2801 net.cpp:435] inception_2b/relu_double_3x3_1 <- inception_2b/double_3x3_1_bn
I1016 20:27:39.705921  2801 net.cpp:396] inception_2b/relu_double_3x3_1 -> inception_2b/double_3x3_1_bn (in-place)
I1016 20:27:39.706085  2801 net.cpp:141] Setting up inception_2b/relu_double_3x3_1
I1016 20:27:39.706092  2801 net.cpp:148] Top shape: 20 128 36 14 (1290240)
I1016 20:27:39.706105  2801 net.cpp:156] Memory required for data: 1053481200
I1016 20:27:39.706107  2801 layer_factory.hpp:77] Creating layer inception_2b/double_3x3_2
I1016 20:27:39.706115  2801 net.cpp:91] Creating Layer inception_2b/double_3x3_2
I1016 20:27:39.706117  2801 net.cpp:435] inception_2b/double_3x3_2 <- inception_2b/double_3x3_1_bn
I1016 20:27:39.706133  2801 net.cpp:409] inception_2b/double_3x3_2 -> inception_2b/double_3x3_2
I1016 20:27:39.708716  2801 net.cpp:141] Setting up inception_2b/double_3x3_2
I1016 20:27:39.708739  2801 net.cpp:148] Top shape: 20 128 18 7 (322560)
I1016 20:27:39.708741  2801 net.cpp:156] Memory required for data: 1054771440
I1016 20:27:39.708748  2801 layer_factory.hpp:77] Creating layer inception_2b/double_3x3_2_bn
I1016 20:27:39.708751  2801 layer_factory.cpp:265] Layer inception_2b/double_3x3_2_bn is using CAFFE engine.
I1016 20:27:39.708778  2801 net.cpp:91] Creating Layer inception_2b/double_3x3_2_bn
I1016 20:27:39.708782  2801 net.cpp:435] inception_2b/double_3x3_2_bn <- inception_2b/double_3x3_2
I1016 20:27:39.708787  2801 net.cpp:409] inception_2b/double_3x3_2_bn -> inception_2b/double_3x3_2_bn
I1016 20:27:39.709025  2801 net.cpp:141] Setting up inception_2b/double_3x3_2_bn
I1016 20:27:39.709033  2801 net.cpp:148] Top shape: 20 128 18 7 (322560)
I1016 20:27:39.709044  2801 net.cpp:156] Memory required for data: 1056061680
I1016 20:27:39.709050  2801 layer_factory.hpp:77] Creating layer inception_2b/relu_double_3x3_2
I1016 20:27:39.709054  2801 net.cpp:91] Creating Layer inception_2b/relu_double_3x3_2
I1016 20:27:39.709058  2801 net.cpp:435] inception_2b/relu_double_3x3_2 <- inception_2b/double_3x3_2_bn
I1016 20:27:39.709071  2801 net.cpp:396] inception_2b/relu_double_3x3_2 -> inception_2b/double_3x3_2_bn (in-place)
I1016 20:27:39.709228  2801 net.cpp:141] Setting up inception_2b/relu_double_3x3_2
I1016 20:27:39.709235  2801 net.cpp:148] Top shape: 20 128 18 7 (322560)
I1016 20:27:39.709239  2801 net.cpp:156] Memory required for data: 1057351920
I1016 20:27:39.709240  2801 layer_factory.hpp:77] Creating layer inception_2b/pool
I1016 20:27:39.709247  2801 net.cpp:91] Creating Layer inception_2b/pool
I1016 20:27:39.709250  2801 net.cpp:435] inception_2b/pool <- inception_2a/output_inception_2a/output_0_split_2
I1016 20:27:39.709254  2801 net.cpp:409] inception_2b/pool -> inception_2b/pool
I1016 20:27:39.709303  2801 net.cpp:141] Setting up inception_2b/pool
I1016 20:27:39.709318  2801 net.cpp:148] Top shape: 20 512 18 7 (1290240)
I1016 20:27:39.709321  2801 net.cpp:156] Memory required for data: 1062512880
I1016 20:27:39.709322  2801 layer_factory.hpp:77] Creating layer inception_2b/output
I1016 20:27:39.709327  2801 net.cpp:91] Creating Layer inception_2b/output
I1016 20:27:39.709329  2801 net.cpp:435] inception_2b/output <- inception_2b/3x3_bn
I1016 20:27:39.709333  2801 net.cpp:435] inception_2b/output <- inception_2b/double_3x3_2_bn
I1016 20:27:39.709336  2801 net.cpp:435] inception_2b/output <- inception_2b/pool
I1016 20:27:39.709341  2801 net.cpp:409] inception_2b/output -> inception_2b/output
I1016 20:27:39.709370  2801 net.cpp:141] Setting up inception_2b/output
I1016 20:27:39.709377  2801 net.cpp:148] Top shape: 20 768 18 7 (1935360)
I1016 20:27:39.709378  2801 net.cpp:156] Memory required for data: 1070254320
I1016 20:27:39.709380  2801 layer_factory.hpp:77] Creating layer inception_2b/output_inception_2b/output_0_split
I1016 20:27:39.709385  2801 net.cpp:91] Creating Layer inception_2b/output_inception_2b/output_0_split
I1016 20:27:39.709388  2801 net.cpp:435] inception_2b/output_inception_2b/output_0_split <- inception_2b/output
I1016 20:27:39.709391  2801 net.cpp:409] inception_2b/output_inception_2b/output_0_split -> inception_2b/output_inception_2b/output_0_split_0
I1016 20:27:39.709395  2801 net.cpp:409] inception_2b/output_inception_2b/output_0_split -> inception_2b/output_inception_2b/output_0_split_1
I1016 20:27:39.709399  2801 net.cpp:409] inception_2b/output_inception_2b/output_0_split -> inception_2b/output_inception_2b/output_0_split_2
I1016 20:27:39.709404  2801 net.cpp:409] inception_2b/output_inception_2b/output_0_split -> inception_2b/output_inception_2b/output_0_split_3
I1016 20:27:39.709465  2801 net.cpp:141] Setting up inception_2b/output_inception_2b/output_0_split
I1016 20:27:39.709470  2801 net.cpp:148] Top shape: 20 768 18 7 (1935360)
I1016 20:27:39.709473  2801 net.cpp:148] Top shape: 20 768 18 7 (1935360)
I1016 20:27:39.709476  2801 net.cpp:148] Top shape: 20 768 18 7 (1935360)
I1016 20:27:39.709478  2801 net.cpp:148] Top shape: 20 768 18 7 (1935360)
I1016 20:27:39.709481  2801 net.cpp:156] Memory required for data: 1101220080
I1016 20:27:39.709482  2801 layer_factory.hpp:77] Creating layer inception_3a/1x1
I1016 20:27:39.709491  2801 net.cpp:91] Creating Layer inception_3a/1x1
I1016 20:27:39.709502  2801 net.cpp:435] inception_3a/1x1 <- inception_2b/output_inception_2b/output_0_split_0
I1016 20:27:39.709507  2801 net.cpp:409] inception_3a/1x1 -> inception_3a/1x1
I1016 20:27:39.711611  2801 net.cpp:141] Setting up inception_3a/1x1
I1016 20:27:39.711622  2801 net.cpp:148] Top shape: 20 256 18 7 (645120)
I1016 20:27:39.711624  2801 net.cpp:156] Memory required for data: 1103800560
I1016 20:27:39.711629  2801 layer_factory.hpp:77] Creating layer inception_3a/1x1_bn
I1016 20:27:39.711632  2801 layer_factory.cpp:265] Layer inception_3a/1x1_bn is using CAFFE engine.
I1016 20:27:39.711638  2801 net.cpp:91] Creating Layer inception_3a/1x1_bn
I1016 20:27:39.711642  2801 net.cpp:435] inception_3a/1x1_bn <- inception_3a/1x1
I1016 20:27:39.711655  2801 net.cpp:409] inception_3a/1x1_bn -> inception_3a/1x1_bn
I1016 20:27:39.711861  2801 net.cpp:141] Setting up inception_3a/1x1_bn
I1016 20:27:39.711868  2801 net.cpp:148] Top shape: 20 256 18 7 (645120)
I1016 20:27:39.711869  2801 net.cpp:156] Memory required for data: 1106381040
I1016 20:27:39.711875  2801 layer_factory.hpp:77] Creating layer inception_3a/relu_1x1
I1016 20:27:39.711879  2801 net.cpp:91] Creating Layer inception_3a/relu_1x1
I1016 20:27:39.711882  2801 net.cpp:435] inception_3a/relu_1x1 <- inception_3a/1x1_bn
I1016 20:27:39.711894  2801 net.cpp:396] inception_3a/relu_1x1 -> inception_3a/1x1_bn (in-place)
I1016 20:27:39.712039  2801 net.cpp:141] Setting up inception_3a/relu_1x1
I1016 20:27:39.712047  2801 net.cpp:148] Top shape: 20 256 18 7 (645120)
I1016 20:27:39.712049  2801 net.cpp:156] Memory required for data: 1108961520
I1016 20:27:39.712052  2801 layer_factory.hpp:77] Creating layer inception_3a/3x3_reduce
I1016 20:27:39.712059  2801 net.cpp:91] Creating Layer inception_3a/3x3_reduce
I1016 20:27:39.712062  2801 net.cpp:435] inception_3a/3x3_reduce <- inception_2b/output_inception_2b/output_0_split_1
I1016 20:27:39.712076  2801 net.cpp:409] inception_3a/3x3_reduce -> inception_3a/3x3_reduce
I1016 20:27:39.714965  2801 net.cpp:141] Setting up inception_3a/3x3_reduce
I1016 20:27:39.714988  2801 net.cpp:148] Top shape: 20 256 18 7 (645120)
I1016 20:27:39.714992  2801 net.cpp:156] Memory required for data: 1111542000
I1016 20:27:39.714996  2801 layer_factory.hpp:77] Creating layer inception_3a/3x3_reduce_bn
I1016 20:27:39.715000  2801 layer_factory.cpp:265] Layer inception_3a/3x3_reduce_bn is using CAFFE engine.
I1016 20:27:39.715016  2801 net.cpp:91] Creating Layer inception_3a/3x3_reduce_bn
I1016 20:27:39.715019  2801 net.cpp:435] inception_3a/3x3_reduce_bn <- inception_3a/3x3_reduce
I1016 20:27:39.715025  2801 net.cpp:409] inception_3a/3x3_reduce_bn -> inception_3a/3x3_reduce_bn
I1016 20:27:39.715281  2801 net.cpp:141] Setting up inception_3a/3x3_reduce_bn
I1016 20:27:39.715297  2801 net.cpp:148] Top shape: 20 256 18 7 (645120)
I1016 20:27:39.715299  2801 net.cpp:156] Memory required for data: 1114122480
I1016 20:27:39.715314  2801 layer_factory.hpp:77] Creating layer inception_3a/relu_3x3_reduce
I1016 20:27:39.715319  2801 net.cpp:91] Creating Layer inception_3a/relu_3x3_reduce
I1016 20:27:39.715322  2801 net.cpp:435] inception_3a/relu_3x3_reduce <- inception_3a/3x3_reduce_bn
I1016 20:27:39.715335  2801 net.cpp:396] inception_3a/relu_3x3_reduce -> inception_3a/3x3_reduce_bn (in-place)
I1016 20:27:39.715958  2801 net.cpp:141] Setting up inception_3a/relu_3x3_reduce
I1016 20:27:39.715968  2801 net.cpp:148] Top shape: 20 256 18 7 (645120)
I1016 20:27:39.715981  2801 net.cpp:156] Memory required for data: 1116702960
I1016 20:27:39.715984  2801 layer_factory.hpp:77] Creating layer inception_3a/3x3
I1016 20:27:39.716004  2801 net.cpp:91] Creating Layer inception_3a/3x3
I1016 20:27:39.716007  2801 net.cpp:435] inception_3a/3x3 <- inception_3a/3x3_reduce_bn
I1016 20:27:39.716012  2801 net.cpp:409] inception_3a/3x3 -> inception_3a/3x3
I1016 20:27:39.721920  2801 net.cpp:141] Setting up inception_3a/3x3
I1016 20:27:39.721951  2801 net.cpp:148] Top shape: 20 256 18 7 (645120)
I1016 20:27:39.721953  2801 net.cpp:156] Memory required for data: 1119283440
I1016 20:27:39.721961  2801 layer_factory.hpp:77] Creating layer inception_3a/3x3_bn
I1016 20:27:39.721966  2801 layer_factory.cpp:265] Layer inception_3a/3x3_bn is using CAFFE engine.
I1016 20:27:39.721985  2801 net.cpp:91] Creating Layer inception_3a/3x3_bn
I1016 20:27:39.721992  2801 net.cpp:435] inception_3a/3x3_bn <- inception_3a/3x3
I1016 20:27:39.721997  2801 net.cpp:409] inception_3a/3x3_bn -> inception_3a/3x3_bn
I1016 20:27:39.722226  2801 net.cpp:141] Setting up inception_3a/3x3_bn
I1016 20:27:39.722232  2801 net.cpp:148] Top shape: 20 256 18 7 (645120)
I1016 20:27:39.722244  2801 net.cpp:156] Memory required for data: 1121863920
I1016 20:27:39.722250  2801 layer_factory.hpp:77] Creating layer inception_3a/relu_3x3
I1016 20:27:39.722256  2801 net.cpp:91] Creating Layer inception_3a/relu_3x3
I1016 20:27:39.722270  2801 net.cpp:435] inception_3a/relu_3x3 <- inception_3a/3x3_bn
I1016 20:27:39.722272  2801 net.cpp:396] inception_3a/relu_3x3 -> inception_3a/3x3_bn (in-place)
I1016 20:27:39.722436  2801 net.cpp:141] Setting up inception_3a/relu_3x3
I1016 20:27:39.722443  2801 net.cpp:148] Top shape: 20 256 18 7 (645120)
I1016 20:27:39.722456  2801 net.cpp:156] Memory required for data: 1124444400
I1016 20:27:39.722458  2801 layer_factory.hpp:77] Creating layer inception_3a/double_3x3_reduce
I1016 20:27:39.722468  2801 net.cpp:91] Creating Layer inception_3a/double_3x3_reduce
I1016 20:27:39.722481  2801 net.cpp:435] inception_3a/double_3x3_reduce <- inception_2b/output_inception_2b/output_0_split_2
I1016 20:27:39.722486  2801 net.cpp:409] inception_3a/double_3x3_reduce -> inception_3a/double_3x3_reduce
I1016 20:27:39.724710  2801 net.cpp:141] Setting up inception_3a/double_3x3_reduce
I1016 20:27:39.724722  2801 net.cpp:148] Top shape: 20 256 18 7 (645120)
I1016 20:27:39.724725  2801 net.cpp:156] Memory required for data: 1127024880
I1016 20:27:39.724730  2801 layer_factory.hpp:77] Creating layer inception_3a/double_3x3_reduce_bn
I1016 20:27:39.724733  2801 layer_factory.cpp:265] Layer inception_3a/double_3x3_reduce_bn is using CAFFE engine.
I1016 20:27:39.724740  2801 net.cpp:91] Creating Layer inception_3a/double_3x3_reduce_bn
I1016 20:27:39.724752  2801 net.cpp:435] inception_3a/double_3x3_reduce_bn <- inception_3a/double_3x3_reduce
I1016 20:27:39.724757  2801 net.cpp:409] inception_3a/double_3x3_reduce_bn -> inception_3a/double_3x3_reduce_bn
I1016 20:27:39.724966  2801 net.cpp:141] Setting up inception_3a/double_3x3_reduce_bn
I1016 20:27:39.724972  2801 net.cpp:148] Top shape: 20 256 18 7 (645120)
I1016 20:27:39.724974  2801 net.cpp:156] Memory required for data: 1129605360
I1016 20:27:39.724980  2801 layer_factory.hpp:77] Creating layer inception_3a/relu_double_3x3_reduce
I1016 20:27:39.724984  2801 net.cpp:91] Creating Layer inception_3a/relu_double_3x3_reduce
I1016 20:27:39.724987  2801 net.cpp:435] inception_3a/relu_double_3x3_reduce <- inception_3a/double_3x3_reduce_bn
I1016 20:27:39.724992  2801 net.cpp:396] inception_3a/relu_double_3x3_reduce -> inception_3a/double_3x3_reduce_bn (in-place)
I1016 20:27:39.725147  2801 net.cpp:141] Setting up inception_3a/relu_double_3x3_reduce
I1016 20:27:39.725154  2801 net.cpp:148] Top shape: 20 256 18 7 (645120)
I1016 20:27:39.725157  2801 net.cpp:156] Memory required for data: 1132185840
I1016 20:27:39.725159  2801 layer_factory.hpp:77] Creating layer inception_3a/double_3x3_1
I1016 20:27:39.725167  2801 net.cpp:91] Creating Layer inception_3a/double_3x3_1
I1016 20:27:39.725169  2801 net.cpp:435] inception_3a/double_3x3_1 <- inception_3a/double_3x3_reduce_bn
I1016 20:27:39.725174  2801 net.cpp:409] inception_3a/double_3x3_1 -> inception_3a/double_3x3_1
I1016 20:27:39.730929  2801 net.cpp:141] Setting up inception_3a/double_3x3_1
I1016 20:27:39.730959  2801 net.cpp:148] Top shape: 20 256 18 7 (645120)
I1016 20:27:39.730962  2801 net.cpp:156] Memory required for data: 1134766320
I1016 20:27:39.730973  2801 layer_factory.hpp:77] Creating layer inception_3a/double_3x3_1_bn
I1016 20:27:39.730988  2801 layer_factory.cpp:265] Layer inception_3a/double_3x3_1_bn is using CAFFE engine.
I1016 20:27:39.730995  2801 net.cpp:91] Creating Layer inception_3a/double_3x3_1_bn
I1016 20:27:39.731001  2801 net.cpp:435] inception_3a/double_3x3_1_bn <- inception_3a/double_3x3_1
I1016 20:27:39.731007  2801 net.cpp:409] inception_3a/double_3x3_1_bn -> inception_3a/double_3x3_1_bn
I1016 20:27:39.731241  2801 net.cpp:141] Setting up inception_3a/double_3x3_1_bn
I1016 20:27:39.731247  2801 net.cpp:148] Top shape: 20 256 18 7 (645120)
I1016 20:27:39.731259  2801 net.cpp:156] Memory required for data: 1137346800
I1016 20:27:39.731266  2801 layer_factory.hpp:77] Creating layer inception_3a/relu_double_3x3_1
I1016 20:27:39.731281  2801 net.cpp:91] Creating Layer inception_3a/relu_double_3x3_1
I1016 20:27:39.731284  2801 net.cpp:435] inception_3a/relu_double_3x3_1 <- inception_3a/double_3x3_1_bn
I1016 20:27:39.731287  2801 net.cpp:396] inception_3a/relu_double_3x3_1 -> inception_3a/double_3x3_1_bn (in-place)
I1016 20:27:39.731454  2801 net.cpp:141] Setting up inception_3a/relu_double_3x3_1
I1016 20:27:39.731463  2801 net.cpp:148] Top shape: 20 256 18 7 (645120)
I1016 20:27:39.731475  2801 net.cpp:156] Memory required for data: 1139927280
I1016 20:27:39.731478  2801 layer_factory.hpp:77] Creating layer inception_3a/double_3x3_2
I1016 20:27:39.731488  2801 net.cpp:91] Creating Layer inception_3a/double_3x3_2
I1016 20:27:39.731501  2801 net.cpp:435] inception_3a/double_3x3_2 <- inception_3a/double_3x3_1_bn
I1016 20:27:39.731506  2801 net.cpp:409] inception_3a/double_3x3_2 -> inception_3a/double_3x3_2
I1016 20:27:39.737335  2801 net.cpp:141] Setting up inception_3a/double_3x3_2
I1016 20:27:39.737354  2801 net.cpp:148] Top shape: 20 256 18 7 (645120)
I1016 20:27:39.737357  2801 net.cpp:156] Memory required for data: 1142507760
I1016 20:27:39.737365  2801 layer_factory.hpp:77] Creating layer inception_3a/double_3x3_2_bn
I1016 20:27:39.737370  2801 layer_factory.cpp:265] Layer inception_3a/double_3x3_2_bn is using CAFFE engine.
I1016 20:27:39.737388  2801 net.cpp:91] Creating Layer inception_3a/double_3x3_2_bn
I1016 20:27:39.737393  2801 net.cpp:435] inception_3a/double_3x3_2_bn <- inception_3a/double_3x3_2
I1016 20:27:39.737399  2801 net.cpp:409] inception_3a/double_3x3_2_bn -> inception_3a/double_3x3_2_bn
I1016 20:27:39.737624  2801 net.cpp:141] Setting up inception_3a/double_3x3_2_bn
I1016 20:27:39.737630  2801 net.cpp:148] Top shape: 20 256 18 7 (645120)
I1016 20:27:39.737633  2801 net.cpp:156] Memory required for data: 1145088240
I1016 20:27:39.737639  2801 layer_factory.hpp:77] Creating layer inception_3a/relu_double_3x3_2
I1016 20:27:39.737643  2801 net.cpp:91] Creating Layer inception_3a/relu_double_3x3_2
I1016 20:27:39.737646  2801 net.cpp:435] inception_3a/relu_double_3x3_2 <- inception_3a/double_3x3_2_bn
I1016 20:27:39.737650  2801 net.cpp:396] inception_3a/relu_double_3x3_2 -> inception_3a/double_3x3_2_bn (in-place)
I1016 20:27:39.737820  2801 net.cpp:141] Setting up inception_3a/relu_double_3x3_2
I1016 20:27:39.737828  2801 net.cpp:148] Top shape: 20 256 18 7 (645120)
I1016 20:27:39.737831  2801 net.cpp:156] Memory required for data: 1147668720
I1016 20:27:39.737833  2801 layer_factory.hpp:77] Creating layer inception_3a/pool
I1016 20:27:39.737839  2801 net.cpp:91] Creating Layer inception_3a/pool
I1016 20:27:39.737843  2801 net.cpp:435] inception_3a/pool <- inception_2b/output_inception_2b/output_0_split_3
I1016 20:27:39.737848  2801 net.cpp:409] inception_3a/pool -> inception_3a/pool
I1016 20:27:39.738500  2801 net.cpp:141] Setting up inception_3a/pool
I1016 20:27:39.738510  2801 net.cpp:148] Top shape: 20 768 18 7 (1935360)
I1016 20:27:39.738513  2801 net.cpp:156] Memory required for data: 1155410160
I1016 20:27:39.738515  2801 layer_factory.hpp:77] Creating layer inception_3a/pool_proj
I1016 20:27:39.738524  2801 net.cpp:91] Creating Layer inception_3a/pool_proj
I1016 20:27:39.738538  2801 net.cpp:435] inception_3a/pool_proj <- inception_3a/pool
I1016 20:27:39.738543  2801 net.cpp:409] inception_3a/pool_proj -> inception_3a/pool_proj
I1016 20:27:39.740939  2801 net.cpp:141] Setting up inception_3a/pool_proj
I1016 20:27:39.740952  2801 net.cpp:148] Top shape: 20 256 18 7 (645120)
I1016 20:27:39.740954  2801 net.cpp:156] Memory required for data: 1157990640
I1016 20:27:39.740959  2801 layer_factory.hpp:77] Creating layer inception_3a/pool_proj_bn
I1016 20:27:39.740963  2801 layer_factory.cpp:265] Layer inception_3a/pool_proj_bn is using CAFFE engine.
I1016 20:27:39.740969  2801 net.cpp:91] Creating Layer inception_3a/pool_proj_bn
I1016 20:27:39.740972  2801 net.cpp:435] inception_3a/pool_proj_bn <- inception_3a/pool_proj
I1016 20:27:39.740988  2801 net.cpp:409] inception_3a/pool_proj_bn -> inception_3a/pool_proj_bn
I1016 20:27:39.741201  2801 net.cpp:141] Setting up inception_3a/pool_proj_bn
I1016 20:27:39.741209  2801 net.cpp:148] Top shape: 20 256 18 7 (645120)
I1016 20:27:39.741210  2801 net.cpp:156] Memory required for data: 1160571120
I1016 20:27:39.741216  2801 layer_factory.hpp:77] Creating layer inception_3a/relu_pool_proj
I1016 20:27:39.741220  2801 net.cpp:91] Creating Layer inception_3a/relu_pool_proj
I1016 20:27:39.741224  2801 net.cpp:435] inception_3a/relu_pool_proj <- inception_3a/pool_proj_bn
I1016 20:27:39.741226  2801 net.cpp:396] inception_3a/relu_pool_proj -> inception_3a/pool_proj_bn (in-place)
I1016 20:27:39.741870  2801 net.cpp:141] Setting up inception_3a/relu_pool_proj
I1016 20:27:39.741880  2801 net.cpp:148] Top shape: 20 256 18 7 (645120)
I1016 20:27:39.741883  2801 net.cpp:156] Memory required for data: 1163151600
I1016 20:27:39.741886  2801 layer_factory.hpp:77] Creating layer inception_3a/output
I1016 20:27:39.741891  2801 net.cpp:91] Creating Layer inception_3a/output
I1016 20:27:39.741895  2801 net.cpp:435] inception_3a/output <- inception_3a/1x1_bn
I1016 20:27:39.741899  2801 net.cpp:435] inception_3a/output <- inception_3a/3x3_bn
I1016 20:27:39.741912  2801 net.cpp:435] inception_3a/output <- inception_3a/double_3x3_2_bn
I1016 20:27:39.741915  2801 net.cpp:435] inception_3a/output <- inception_3a/pool_proj_bn
I1016 20:27:39.741919  2801 net.cpp:409] inception_3a/output -> inception_3a/output
I1016 20:27:39.741950  2801 net.cpp:141] Setting up inception_3a/output
I1016 20:27:39.741964  2801 net.cpp:148] Top shape: 20 1024 18 7 (2580480)
I1016 20:27:39.741966  2801 net.cpp:156] Memory required for data: 1173473520
I1016 20:27:39.741968  2801 layer_factory.hpp:77] Creating layer inception_3a/output_inception_3a/output_0_split
I1016 20:27:39.741973  2801 net.cpp:91] Creating Layer inception_3a/output_inception_3a/output_0_split
I1016 20:27:39.741976  2801 net.cpp:435] inception_3a/output_inception_3a/output_0_split <- inception_3a/output
I1016 20:27:39.741981  2801 net.cpp:409] inception_3a/output_inception_3a/output_0_split -> inception_3a/output_inception_3a/output_0_split_0
I1016 20:27:39.741984  2801 net.cpp:409] inception_3a/output_inception_3a/output_0_split -> inception_3a/output_inception_3a/output_0_split_1
I1016 20:27:39.741998  2801 net.cpp:409] inception_3a/output_inception_3a/output_0_split -> inception_3a/output_inception_3a/output_0_split_2
I1016 20:27:39.742056  2801 net.cpp:141] Setting up inception_3a/output_inception_3a/output_0_split
I1016 20:27:39.742061  2801 net.cpp:148] Top shape: 20 1024 18 7 (2580480)
I1016 20:27:39.742064  2801 net.cpp:148] Top shape: 20 1024 18 7 (2580480)
I1016 20:27:39.742067  2801 net.cpp:148] Top shape: 20 1024 18 7 (2580480)
I1016 20:27:39.742069  2801 net.cpp:156] Memory required for data: 1204439280
I1016 20:27:39.742071  2801 layer_factory.hpp:77] Creating layer inception_3b/3x3_reduce
I1016 20:27:39.742089  2801 net.cpp:91] Creating Layer inception_3b/3x3_reduce
I1016 20:27:39.742091  2801 net.cpp:435] inception_3b/3x3_reduce <- inception_3a/output_inception_3a/output_0_split_0
I1016 20:27:39.742096  2801 net.cpp:409] inception_3b/3x3_reduce -> inception_3b/3x3_reduce
I1016 20:27:39.744554  2801 net.cpp:141] Setting up inception_3b/3x3_reduce
I1016 20:27:39.744566  2801 net.cpp:148] Top shape: 20 256 18 7 (645120)
I1016 20:27:39.744570  2801 net.cpp:156] Memory required for data: 1207019760
I1016 20:27:39.744575  2801 layer_factory.hpp:77] Creating layer inception_3b/3x3_reduce_bn
I1016 20:27:39.744577  2801 layer_factory.cpp:265] Layer inception_3b/3x3_reduce_bn is using CAFFE engine.
I1016 20:27:39.744582  2801 net.cpp:91] Creating Layer inception_3b/3x3_reduce_bn
I1016 20:27:39.744585  2801 net.cpp:435] inception_3b/3x3_reduce_bn <- inception_3b/3x3_reduce
I1016 20:27:39.744601  2801 net.cpp:409] inception_3b/3x3_reduce_bn -> inception_3b/3x3_reduce_bn
I1016 20:27:39.744813  2801 net.cpp:141] Setting up inception_3b/3x3_reduce_bn
I1016 20:27:39.744819  2801 net.cpp:148] Top shape: 20 256 18 7 (645120)
I1016 20:27:39.744822  2801 net.cpp:156] Memory required for data: 1209600240
I1016 20:27:39.744827  2801 layer_factory.hpp:77] Creating layer inception_3b/relu_3x3_reduce
I1016 20:27:39.744832  2801 net.cpp:91] Creating Layer inception_3b/relu_3x3_reduce
I1016 20:27:39.744834  2801 net.cpp:435] inception_3b/relu_3x3_reduce <- inception_3b/3x3_reduce_bn
I1016 20:27:39.744837  2801 net.cpp:396] inception_3b/relu_3x3_reduce -> inception_3b/3x3_reduce_bn (in-place)
I1016 20:27:39.744997  2801 net.cpp:141] Setting up inception_3b/relu_3x3_reduce
I1016 20:27:39.745003  2801 net.cpp:148] Top shape: 20 256 18 7 (645120)
I1016 20:27:39.745007  2801 net.cpp:156] Memory required for data: 1212180720
I1016 20:27:39.745008  2801 layer_factory.hpp:77] Creating layer inception_3b/3x3
I1016 20:27:39.745015  2801 net.cpp:91] Creating Layer inception_3b/3x3
I1016 20:27:39.745019  2801 net.cpp:435] inception_3b/3x3 <- inception_3b/3x3_reduce_bn
I1016 20:27:39.745024  2801 net.cpp:409] inception_3b/3x3 -> inception_3b/3x3
I1016 20:27:39.750331  2801 net.cpp:141] Setting up inception_3b/3x3
I1016 20:27:39.750372  2801 net.cpp:148] Top shape: 20 256 9 4 (184320)
I1016 20:27:39.750385  2801 net.cpp:156] Memory required for data: 1212918000
I1016 20:27:39.750394  2801 layer_factory.hpp:77] Creating layer inception_3b/3x3_bn
I1016 20:27:39.750399  2801 layer_factory.cpp:265] Layer inception_3b/3x3_bn is using CAFFE engine.
I1016 20:27:39.750411  2801 net.cpp:91] Creating Layer inception_3b/3x3_bn
I1016 20:27:39.750417  2801 net.cpp:435] inception_3b/3x3_bn <- inception_3b/3x3
I1016 20:27:39.750427  2801 net.cpp:409] inception_3b/3x3_bn -> inception_3b/3x3_bn
I1016 20:27:39.750715  2801 net.cpp:141] Setting up inception_3b/3x3_bn
I1016 20:27:39.750721  2801 net.cpp:148] Top shape: 20 256 9 4 (184320)
I1016 20:27:39.750735  2801 net.cpp:156] Memory required for data: 1213655280
I1016 20:27:39.750741  2801 layer_factory.hpp:77] Creating layer inception_3b/relu_3x3
I1016 20:27:39.750756  2801 net.cpp:91] Creating Layer inception_3b/relu_3x3
I1016 20:27:39.750758  2801 net.cpp:435] inception_3b/relu_3x3 <- inception_3b/3x3_bn
I1016 20:27:39.750761  2801 net.cpp:396] inception_3b/relu_3x3 -> inception_3b/3x3_bn (in-place)
I1016 20:27:39.750921  2801 net.cpp:141] Setting up inception_3b/relu_3x3
I1016 20:27:39.750928  2801 net.cpp:148] Top shape: 20 256 9 4 (184320)
I1016 20:27:39.750941  2801 net.cpp:156] Memory required for data: 1214392560
I1016 20:27:39.750944  2801 layer_factory.hpp:77] Creating layer inception_3b/double_3x3_reduce
I1016 20:27:39.750953  2801 net.cpp:91] Creating Layer inception_3b/double_3x3_reduce
I1016 20:27:39.750957  2801 net.cpp:435] inception_3b/double_3x3_reduce <- inception_3a/output_inception_3a/output_0_split_1
I1016 20:27:39.750962  2801 net.cpp:409] inception_3b/double_3x3_reduce -> inception_3b/double_3x3_reduce
I1016 20:27:39.754286  2801 net.cpp:141] Setting up inception_3b/double_3x3_reduce
I1016 20:27:39.754300  2801 net.cpp:148] Top shape: 20 256 18 7 (645120)
I1016 20:27:39.754303  2801 net.cpp:156] Memory required for data: 1216973040
I1016 20:27:39.754309  2801 layer_factory.hpp:77] Creating layer inception_3b/double_3x3_reduce_bn
I1016 20:27:39.754312  2801 layer_factory.cpp:265] Layer inception_3b/double_3x3_reduce_bn is using CAFFE engine.
I1016 20:27:39.754323  2801 net.cpp:91] Creating Layer inception_3b/double_3x3_reduce_bn
I1016 20:27:39.754335  2801 net.cpp:435] inception_3b/double_3x3_reduce_bn <- inception_3b/double_3x3_reduce
I1016 20:27:39.754341  2801 net.cpp:409] inception_3b/double_3x3_reduce_bn -> inception_3b/double_3x3_reduce_bn
I1016 20:27:39.754560  2801 net.cpp:141] Setting up inception_3b/double_3x3_reduce_bn
I1016 20:27:39.754567  2801 net.cpp:148] Top shape: 20 256 18 7 (645120)
I1016 20:27:39.754570  2801 net.cpp:156] Memory required for data: 1219553520
I1016 20:27:39.754575  2801 layer_factory.hpp:77] Creating layer inception_3b/relu_double_3x3_reduce
I1016 20:27:39.754580  2801 net.cpp:91] Creating Layer inception_3b/relu_double_3x3_reduce
I1016 20:27:39.754582  2801 net.cpp:435] inception_3b/relu_double_3x3_reduce <- inception_3b/double_3x3_reduce_bn
I1016 20:27:39.754586  2801 net.cpp:396] inception_3b/relu_double_3x3_reduce -> inception_3b/double_3x3_reduce_bn (in-place)
I1016 20:27:39.754745  2801 net.cpp:141] Setting up inception_3b/relu_double_3x3_reduce
I1016 20:27:39.754752  2801 net.cpp:148] Top shape: 20 256 18 7 (645120)
I1016 20:27:39.754755  2801 net.cpp:156] Memory required for data: 1222134000
I1016 20:27:39.754757  2801 layer_factory.hpp:77] Creating layer inception_3b/double_3x3_1
I1016 20:27:39.754765  2801 net.cpp:91] Creating Layer inception_3b/double_3x3_1
I1016 20:27:39.754767  2801 net.cpp:435] inception_3b/double_3x3_1 <- inception_3b/double_3x3_reduce_bn
I1016 20:27:39.754772  2801 net.cpp:409] inception_3b/double_3x3_1 -> inception_3b/double_3x3_1
I1016 20:27:39.760718  2801 net.cpp:141] Setting up inception_3b/double_3x3_1
I1016 20:27:39.760743  2801 net.cpp:148] Top shape: 20 256 18 7 (645120)
I1016 20:27:39.760746  2801 net.cpp:156] Memory required for data: 1224714480
I1016 20:27:39.760754  2801 layer_factory.hpp:77] Creating layer inception_3b/double_3x3_1_bn
I1016 20:27:39.760757  2801 layer_factory.cpp:265] Layer inception_3b/double_3x3_1_bn is using CAFFE engine.
I1016 20:27:39.760766  2801 net.cpp:91] Creating Layer inception_3b/double_3x3_1_bn
I1016 20:27:39.760790  2801 net.cpp:435] inception_3b/double_3x3_1_bn <- inception_3b/double_3x3_1
I1016 20:27:39.760797  2801 net.cpp:409] inception_3b/double_3x3_1_bn -> inception_3b/double_3x3_1_bn
I1016 20:27:39.761039  2801 net.cpp:141] Setting up inception_3b/double_3x3_1_bn
I1016 20:27:39.761046  2801 net.cpp:148] Top shape: 20 256 18 7 (645120)
I1016 20:27:39.761059  2801 net.cpp:156] Memory required for data: 1227294960
I1016 20:27:39.761065  2801 layer_factory.hpp:77] Creating layer inception_3b/relu_double_3x3_1
I1016 20:27:39.761070  2801 net.cpp:91] Creating Layer inception_3b/relu_double_3x3_1
I1016 20:27:39.761072  2801 net.cpp:435] inception_3b/relu_double_3x3_1 <- inception_3b/double_3x3_1_bn
I1016 20:27:39.761075  2801 net.cpp:396] inception_3b/relu_double_3x3_1 -> inception_3b/double_3x3_1_bn (in-place)
I1016 20:27:39.761234  2801 net.cpp:141] Setting up inception_3b/relu_double_3x3_1
I1016 20:27:39.761242  2801 net.cpp:148] Top shape: 20 256 18 7 (645120)
I1016 20:27:39.761255  2801 net.cpp:156] Memory required for data: 1229875440
I1016 20:27:39.761257  2801 layer_factory.hpp:77] Creating layer inception_3b/double_3x3_2
I1016 20:27:39.761266  2801 net.cpp:91] Creating Layer inception_3b/double_3x3_2
I1016 20:27:39.761270  2801 net.cpp:435] inception_3b/double_3x3_2 <- inception_3b/double_3x3_1_bn
I1016 20:27:39.761274  2801 net.cpp:409] inception_3b/double_3x3_2 -> inception_3b/double_3x3_2
I1016 20:27:39.770434  2801 net.cpp:141] Setting up inception_3b/double_3x3_2
I1016 20:27:39.770463  2801 net.cpp:148] Top shape: 20 256 9 4 (184320)
I1016 20:27:39.770467  2801 net.cpp:156] Memory required for data: 1230612720
I1016 20:27:39.770474  2801 layer_factory.hpp:77] Creating layer inception_3b/double_3x3_2_bn
I1016 20:27:39.770479  2801 layer_factory.cpp:265] Layer inception_3b/double_3x3_2_bn is using CAFFE engine.
I1016 20:27:39.770498  2801 net.cpp:91] Creating Layer inception_3b/double_3x3_2_bn
I1016 20:27:39.770504  2801 net.cpp:435] inception_3b/double_3x3_2_bn <- inception_3b/double_3x3_2
I1016 20:27:39.770510  2801 net.cpp:409] inception_3b/double_3x3_2_bn -> inception_3b/double_3x3_2_bn
I1016 20:27:39.770759  2801 net.cpp:141] Setting up inception_3b/double_3x3_2_bn
I1016 20:27:39.770766  2801 net.cpp:148] Top shape: 20 256 9 4 (184320)
I1016 20:27:39.770778  2801 net.cpp:156] Memory required for data: 1231350000
I1016 20:27:39.770784  2801 layer_factory.hpp:77] Creating layer inception_3b/relu_double_3x3_2
I1016 20:27:39.770789  2801 net.cpp:91] Creating Layer inception_3b/relu_double_3x3_2
I1016 20:27:39.770792  2801 net.cpp:435] inception_3b/relu_double_3x3_2 <- inception_3b/double_3x3_2_bn
I1016 20:27:39.770807  2801 net.cpp:396] inception_3b/relu_double_3x3_2 -> inception_3b/double_3x3_2_bn (in-place)
I1016 20:27:39.771558  2801 net.cpp:141] Setting up inception_3b/relu_double_3x3_2
I1016 20:27:39.771567  2801 net.cpp:148] Top shape: 20 256 9 4 (184320)
I1016 20:27:39.771580  2801 net.cpp:156] Memory required for data: 1232087280
I1016 20:27:39.771584  2801 layer_factory.hpp:77] Creating layer inception_3b/pool
I1016 20:27:39.771590  2801 net.cpp:91] Creating Layer inception_3b/pool
I1016 20:27:39.771594  2801 net.cpp:435] inception_3b/pool <- inception_3a/output_inception_3a/output_0_split_2
I1016 20:27:39.771608  2801 net.cpp:409] inception_3b/pool -> inception_3b/pool
I1016 20:27:39.771673  2801 net.cpp:141] Setting up inception_3b/pool
I1016 20:27:39.771679  2801 net.cpp:148] Top shape: 20 1024 9 4 (737280)
I1016 20:27:39.771692  2801 net.cpp:156] Memory required for data: 1235036400
I1016 20:27:39.771693  2801 layer_factory.hpp:77] Creating layer inception_3b/output
I1016 20:27:39.771698  2801 net.cpp:91] Creating Layer inception_3b/output
I1016 20:27:39.771701  2801 net.cpp:435] inception_3b/output <- inception_3b/3x3_bn
I1016 20:27:39.771705  2801 net.cpp:435] inception_3b/output <- inception_3b/double_3x3_2_bn
I1016 20:27:39.771718  2801 net.cpp:435] inception_3b/output <- inception_3b/pool
I1016 20:27:39.771723  2801 net.cpp:409] inception_3b/output -> inception_3b/output
I1016 20:27:39.771747  2801 net.cpp:141] Setting up inception_3b/output
I1016 20:27:39.771754  2801 net.cpp:148] Top shape: 20 1536 9 4 (1105920)
I1016 20:27:39.771756  2801 net.cpp:156] Memory required for data: 1239460080
I1016 20:27:39.771769  2801 layer_factory.hpp:77] Creating layer global_pool
I1016 20:27:39.771772  2801 net.cpp:91] Creating Layer global_pool
I1016 20:27:39.771775  2801 net.cpp:435] global_pool <- inception_3b/output
I1016 20:27:39.771788  2801 net.cpp:409] global_pool -> global_pool
I1016 20:27:39.771960  2801 net.cpp:141] Setting up global_pool
I1016 20:27:39.771967  2801 net.cpp:148] Top shape: 20 1536 1 1 (30720)
I1016 20:27:39.771981  2801 net.cpp:156] Memory required for data: 1239582960
I1016 20:27:39.771982  2801 layer_factory.hpp:77] Creating layer fc7
I1016 20:27:39.771988  2801 net.cpp:91] Creating Layer fc7
I1016 20:27:39.771991  2801 net.cpp:435] fc7 <- global_pool
I1016 20:27:39.772006  2801 net.cpp:409] fc7 -> fc7
I1016 20:27:39.774842  2801 net.cpp:141] Setting up fc7
I1016 20:27:39.774852  2801 net.cpp:148] Top shape: 20 256 (5120)
I1016 20:27:39.774865  2801 net.cpp:156] Memory required for data: 1239603440
I1016 20:27:39.774870  2801 layer_factory.hpp:77] Creating layer fc7_bn
I1016 20:27:39.774873  2801 layer_factory.cpp:265] Layer fc7_bn is using CAFFE engine.
I1016 20:27:39.774890  2801 net.cpp:91] Creating Layer fc7_bn
I1016 20:27:39.774893  2801 net.cpp:435] fc7_bn <- fc7
I1016 20:27:39.774897  2801 net.cpp:409] fc7_bn -> fc7_bn
I1016 20:27:39.775141  2801 net.cpp:141] Setting up fc7_bn
I1016 20:27:39.775149  2801 net.cpp:148] Top shape: 20 256 (5120)
I1016 20:27:39.775161  2801 net.cpp:156] Memory required for data: 1239623920
I1016 20:27:39.775167  2801 layer_factory.hpp:77] Creating layer relu7
I1016 20:27:39.775172  2801 net.cpp:91] Creating Layer relu7
I1016 20:27:39.775176  2801 net.cpp:435] relu7 <- fc7_bn
I1016 20:27:39.775188  2801 net.cpp:396] relu7 -> fc7_bn (in-place)
I1016 20:27:39.775360  2801 net.cpp:141] Setting up relu7
I1016 20:27:39.775367  2801 net.cpp:148] Top shape: 20 256 (5120)
I1016 20:27:39.775379  2801 net.cpp:156] Memory required for data: 1239644400
I1016 20:27:39.775382  2801 layer_factory.hpp:77] Creating layer drop7
I1016 20:27:39.775389  2801 net.cpp:91] Creating Layer drop7
I1016 20:27:39.775393  2801 net.cpp:435] drop7 <- fc7_bn
I1016 20:27:39.775406  2801 net.cpp:396] drop7 -> fc7_bn (in-place)
I1016 20:27:39.775434  2801 net.cpp:141] Setting up drop7
I1016 20:27:39.775439  2801 net.cpp:148] Top shape: 20 256 (5120)
I1016 20:27:39.775451  2801 net.cpp:156] Memory required for data: 1239664880
I1016 20:27:39.775460  2801 layer_factory.hpp:77] Creating layer fc8_jstl
I1016 20:27:39.775475  2801 net.cpp:91] Creating Layer fc8_jstl
I1016 20:27:39.775476  2801 net.cpp:435] fc8_jstl <- fc7_bn
I1016 20:27:39.775491  2801 net.cpp:409] fc8_jstl -> fc8_jstl
I1016 20:27:39.779819  2801 net.cpp:141] Setting up fc8_jstl
I1016 20:27:39.779826  2801 net.cpp:148] Top shape: 20 702 (14040)
I1016 20:27:39.779839  2801 net.cpp:156] Memory required for data: 1239721040
I1016 20:27:39.779844  2801 layer_factory.hpp:77] Creating layer fc8_jstl_fc8_jstl_0_split
I1016 20:27:39.779858  2801 net.cpp:91] Creating Layer fc8_jstl_fc8_jstl_0_split
I1016 20:27:39.779861  2801 net.cpp:435] fc8_jstl_fc8_jstl_0_split <- fc8_jstl
I1016 20:27:39.779865  2801 net.cpp:409] fc8_jstl_fc8_jstl_0_split -> fc8_jstl_fc8_jstl_0_split_0
I1016 20:27:39.779878  2801 net.cpp:409] fc8_jstl_fc8_jstl_0_split -> fc8_jstl_fc8_jstl_0_split_1
I1016 20:27:39.779925  2801 net.cpp:141] Setting up fc8_jstl_fc8_jstl_0_split
I1016 20:27:39.779930  2801 net.cpp:148] Top shape: 20 702 (14040)
I1016 20:27:39.779933  2801 net.cpp:148] Top shape: 20 702 (14040)
I1016 20:27:39.779935  2801 net.cpp:156] Memory required for data: 1239833360
I1016 20:27:39.779937  2801 layer_factory.hpp:77] Creating layer loss
I1016 20:27:39.779942  2801 net.cpp:91] Creating Layer loss
I1016 20:27:39.779944  2801 net.cpp:435] loss <- fc8_jstl_fc8_jstl_0_split_0
I1016 20:27:39.779947  2801 net.cpp:435] loss <- label_data_1_split_0
I1016 20:27:39.779953  2801 net.cpp:409] loss -> loss
…
